examples/vision/pretrain/mnist_a_adv.pth (torch, 668471 bytes, 8 tensors)

0.weight f4 [16, 1, 4, 4]
000000 e9 ed 94 bc ff 1f 1d bc 12 00 aa 3c 87 40 95 3d
       -0.01817985 -0.009590148 0.020751987 0.07287698
000010 d7 08 86 bb 5b 07 30 be e1 f5 0f bd 26 e2 c7 3d
       -0.0040904093 -0.17190306 -0.035146598 0.09759931
000020 a1 97 a3 3c 4b 99 82 be ca 5e cd bd cd 59 a5 3e
       0.019969763 -0.25507578 -0.10027845 0.32295075
000030 90 da 32 bc 31 0e 91 bd 25 e9 2b 3d 84 96 59 3e
       -0.010916367 -0.07082785 0.04197039 0.21248823
000040 52 8c a3 37 41 6b 96 3f a7 5a 73 ba 6b 7b c8 ba
       1.9496456e-05 1.1751481 -0.00092832226 -0.001529557
000050 68 fa 7b b8 23 9d 8b 3a 17 fe 9d 39 62 cd 21 b9
       -6.0076272e-05 0.0010651689 0.00030134685 -0.00015430668
000060 6e 10 0b 3a c8 a3 72 38 50 8b af b9 36 ba 55 ba
       0.00053048774 5.784983e-05 -0.00033482397 -0.0008153053
000070 f6 01 2f 3a 06 6d e0 39 00 c4 06 b7 fd 11 2d ba
       0.00066760124 0.00042805838 -8.032657e-06 -0.0006602107
000080 85 67 37 bb 76 98 06 bb c4 ff ba bb cd e0 f0 3a
       -0.0027985286 -0.002053765 -0.005706759 0.0018377543
000090 e2 d0 72 39 c2 dc ac bc 40 98 ab bd e7 5c 92 3c
       0.00023156733 -0.02110136 -0.08378649 0.017866565
0000a0 05 a7 d0 3c 7d 78 a0 bc cc 93 45 bf eb b9 8a bc
       0.025470266 -0.019588703 -0.77178645 -0.016934356
0000b0 19 98 d1 3a 6b 23 e7 3b ee ba 86 bd f6 fe fd bb
       0.0015990763 0.0070537827 -0.06578623 -0.007751341
0000c0 34 09 52 3b 3a 11 00 3b 4e 50 be 3b 98 bb f6 ba
       0.0032048943 0.0019541518 0.005807913 -0.0018824218
0000d0 6a f0 65 b9 57 c7 ab 3c ab e2 aa 3d 43 8c 93 bc
       -0.00021928703 0.020969076 0.08344015 -0.018011218
0000e0 ec 9c cd bc 67 5f a0 3c d1 95 44 3f 04 09 8b 3c
       -0.02509924 0.019576741 0.767911 0.016972072
0000f0 81 c5 d8 ba e1 53 e6 bb 19 04 86 3d 23 2a fb 3b
       -0.0016538353 -0.007029042 0.0654375 0.007664935
000100 ee 79 5b 3b 26 b0 43 3b 44 1e 02 bb fa 23 b3 3a
       0.0033489424 0.0029859631 -0.0019854465 0.0013667338
000110 ca 77 cc 3b 84 06 7b ba 10 d2 80 37 a6 9c 1a 3a
       0.006239866 -0.0009575861 1.5356607e-05 0.0005897976
000120 ea 47 e9 3e 68 cf 07 3f be 35 cc 3a 33 4d a0 bb
       0.4556268 0.5305085 0.0015579981 -0.0048920154
000130 36 3f 81 3c 73 ae ad bb df c1 83 bb d5 ea 5d ba
       0.015777212 -0.005300337 -0.004020914 -0.00084654737
000140 ca e2 69 bd 37 1c 2b be 13 d0 a0 3d c5 24 b3 3d
       -0.05710105 -0.16709982 0.07852187 0.087472476
000150 cf 7f 12 3e be c3 91 3e 63 a1 f1 3d 28 84 91 bc
       0.14306568 0.28469652 0.1179836 -0.017763212
000160 a8 4c 10 3c f6 77 64 be eb 9c df be ff ff 71 bd
       0.008807339 -0.22311386 -0.43674406 -0.059082028
000170 37 df 3a bc 84 a1 01 bc 8a 60 e7 3b 84 4e f0 3b
       -0.011405758 -0.0079120435 0.007061069 0.0073335785
000180 76 45 9b b7 fc 8e cc 3f 5d bd 11 3b 98 c9 6b ba
       -1.8509785e-05 1.5981135 0.0022238113 -0.00089945784
000190 99 27 eb 3a e2 f5 8d 3a 5d 63 fe b9 20 16 74 38
       0.0017940878 0.0010830725 -0.00048520687 5.819474e-05
0001a0 2c c3 7a 39 d4 c7 59 ba 24 24 b1 39 f5 c8 cc b9
       0.00023914565 -0.000830767 0.00033786998 -0.00039059637
0001b0 43 05 b9 b9 e4 f4 b3 b9 15 0d 42 b9 d0 99 a7 37
       -0.0003528987 -0.00034323998 -0.00018506155 1.9979576e-05
0001c0 22 7c 5a ba 9b f8 c8 b9 bc 7c a5 b9 2d c6 90 39
       -0.0008334537 -0.00038332198 -0.00031564187 0.00027613473
0001d0 0a 34 34 b9 41 ff b9 b9 a4 e3 a2 b8 80 22 56 36
       -0.00017185524 -0.0003547613 -7.767163e-05 3.1908567e-06
0001e0 64 af 98 39 ed a0 1e ba 0f 28 71 ba 7d 79 a9 3f
       0.00029122375 -0.00060512015 -0.00091993896 1.32402
0001f0 26 71 c3 38 9e e8 45 39 4e f7 ad ba 50 34 d2 39
       9.3194e-05 0.0001887404 -0.0013272555 0.00040093297
000200 72 ff 23 3b 3a 15 d2 3a d0 5b 17 ba 4b 65 00 39
       0.0025024083 0.0016028055 -0.0005773874 0.00012244766
000210 52 e8 45 3a 08 a7 65 ba fe 85 fa 3a b5 1b 61 3f
       0.0007549572 -0.00087605463 0.0019113419 0.879329
000220 72 65 65 3a 41 3a c8 b9 a1 6c 25 ba 8e 2b 0f bb
       0.0008750773 -0.00038190375 -0.00063104375 -0.002184603
000230 f2 e3 95 3a 68 a3 23 3a a5 b6 98 ba 7b d8 ed ba
       0.0011435731 0.0006242306 -0.0011651112 -0.0018146181
000240 20 2e 87 ba 46 ee df ba 8e c1 39 bb ea 0f 34 ba
       -0.0010313429 -0.0017084561 -0.0028344127 -0.00068688265
000250 75 75 48 ba 8c 89 c6 ba 6e 54 b8 3f c6 0b 96 ba
       -0.0007646897 -0.0015147193 1.4400766 -0.00114476
000260 e7 82 32 ba 4f db 7e ba 54 76 85 3a df 3f 26 bb
       -0.0006809667 -0.00097220106 0.0010182359 -0.002536766
000270 69 e0 4d ba 87 29 e0 ba ed 9f e1 ba 01 04 c0 ba
       -0.0007853569 -0.001710222 -0.0017213799 -0.0014649631
000280 19 85 03 bb c8 fc 87 37 d5 52 b8 ba 14 c1 96 b9
       -0.0020068346 1.6210965e-05 -0.0014062772 -0.00028754084
000290 00 a9 d9 3b 97 58 64 ba 10 46 64 37 91 63 13 39
       0.006642461 -0.00087107107 1.3606172e-05 0.00014056104
0002a0 ae 0f 88 3f dc 8a 3b bb 3c 1c 32 bb bd 46 ec ba
       1.0629785 -0.0028616702 -0.0027177474 -0.0018026453
0002b0 c3 37 86 3b d2 0c 23 bb 79 5b ce b9 e0 fc 7d b7
       0.004096003 -0.0024879468 -0.00039359534 -1.5138852e-05
0002c0 24 c0 67 bc 6a 01 56 bc 81 74 89 3c 3f 85 d3 ba
       -0.014144931 -0.013061861 0.016779186 -0.0016137733
0002d0 e8 25 12 bc cd f4 3e 3d e4 74 03 bb a1 78 5b bb
       -0.00892017 0.04662018 -0.0020058686 -0.0033488648
0002e0 38 0d 49 3d 0d 85 3f 3f 49 2c ea 3b c9 e4 70 bd
       0.049084872 0.74812394 0.0071463925 -0.058811937
0002f0 96 eb d4 39 3a ba 0d 3d 02 7c 86 3a 98 f5 54 bb
       0.00040611316 0.034601428 0.0010260346 -0.0032495018
000300 b2 98 30 ba 79 98 32 3a 15 5d 86 3f 68 b9 a6 39
       -0.00067366206 0.00068128813 1.0497156 0.00031800126
000310 fc 41 4e 3a 0a 03 4f ba 4e 3d 32 ba 31 62 5a b9
       0.0007868109 -0.0007896876 -0.0006799296 -0.00020826679
000320 82 84 4c 3a cd 22 8d 38 e3 1b b2 39 44 e3 18 b9
       0.00078017276 6.729886e-05 0.00033971583 -0.00014580513
000330 67 75 e2 b8 76 1d 57 39 87 ae 9e 39 74 75 26 3a
       -0.00010798388 0.00020514973 0.0003026614 0.00063498993
000340 97 72 55 3a ca 50 07 b9 ed 7a 31 bb e8 80 f9 b9
       0.00081423804 -0.000129047 -0.0027081326 -0.00047589024
000350 d2 72 10 39 c5 61 10 bc 4c 17 38 bb ab e2 35 bb
       0.00013775684 -0.008812373 -0.0028090058 -0.0027753513
000360 a5 e7 c0 bb 14 c9 ad bb 56 da a2 3e 67 b6 84 bb
       -0.005886989 -0.0053035114 0.31807202 -0.0040500644
000370 9c 82 c5 ba 8a 3b dd 3d a7 e1 ee 3e 94 e0 80 39
       -0.0015068832 0.10802372 0.46656534 0.00024581386
000380 f0 8e 68 3e 8e 0f 8b 3e e8 f3 0d 3e 26 b2 50 be
       0.22710776 0.27160305 0.13862574 -0.20380458
000390 48 77 56 3e ca d6 d7 bc 5b 4e 0b bc 3d 98 3e bb
       0.2094394 -0.026347537 -0.008502568 -0.002908244
0003a0 d6 09 05 3d 61 de 91 bd 43 b9 4a bc 3d 14 d6 bb
       0.032480083 -0.071224935 -0.012373271 -0.0065331743
0003b0 80 0b f0 bb a4 51 09 bc 36 88 43 ba f9 e8 3f ba
       -0.0073255897 -0.008381281 -0.00074589567 -0.00073207874
0003c0 30 62 38 3c b1 12 c6 39 f0 36 8d 3c 96 19 8b 3c
       0.0112538785 0.0003777943 0.01723811 0.016979974
0003d0 5a 95 0a 3b 6a 5b 04 3e 94 9e a6 3c 31 5e e2 3c
       0.002114615 0.12925497 0.020339288 0.027632805
0003e0 b6 a9 57 3b 77 e1 89 3e 90 2f c4 3d 13 48 92 3e
       0.0032907552 0.2692983 0.09579384 0.28570613
0003f0 c1 57 43 3c ff 38 aa 3c 52 4c 0c bc e5 21 e4 3a
       0.011922778 0.020779131 -0.008563118 0.0017405121

0.bias f4 [16]
000000 b6 44 81 be e0 cd b4 be 93 22 9e 3e 15 a5 bd 3e
       -0.25247735 -0.3531332 0.30885753 0.3704001
000010 b5 a1 9b be 12 0a 45 be 10 1b f6 be 98 81 cb be
       -0.3039681 -0.19242123 -0.48067522 -0.3974731
000020 88 f6 87 be 76 c1 de be fd 89 a5 be 54 06 88 be
       -0.26555276 -0.43506974 -0.3233184 -0.26567328
000030 4b 6c a1 be 28 32 8a be df f7 a5 be 41 f9 8e be
       -0.31527933 -0.2699139 -0.32415673 -0.2792454

2.weight f4 [32, 16, 4, 4]
000000 5b 77 e1 bb 78 2c 08 bd 8a 2d fc 3c 0f 92 13 bc
       -0.0068806834 -0.033245534 0.030783433 -0.009006991
000010 66 81 df bc 41 ef 4c 3a 47 11 54 bd 9d 80 f1 3b
       -0.027283382 0.0007817634 -0.05177429 0.007370068
000020 a4 ab 87 bc 51 90 73 3c 11 2a 87 3a 98 52 40 3b
       -0.016561337 0.014865951 0.0010312219 0.0029346105
000030 86 d9 36 3c 80 7d 4e bc 39 e3 8a bc d5 1e 0a bd
       0.01116026 -0.012603164 -0.016954051 -0.03372081
000040 d8 4b 1c be c8 9c a1 bd 64 cc 42 bc 73 8b 96 3a
       -0.15263307 -0.07891232 -0.011889551 0.0011485651
000050 6d 6a 08 bf ab 37 b3 3d 91 44 7d 3c 09 49 51 3c
       -0.5328739 0.08750852 0.015458242 0.012773761
000060 34 20 15 bf 96 d3 02 3e 36 c3 52 3d c9 ed d3 bd
       -0.58252263 0.12776026 0.0514557 -0.10348088
000070 7d 4a 29 3e e6 a0 35 bd 63 06 ba 3c 9d b5 15 be
       0.16532321 -0.044342898 0.022708124 -0.14620061
000080 58 79 78 bc 7e 5c f7 3b 22 81 96 3d 44 c9 6e 3d
       -0.015165649 0.0075488677 0.07348849 0.05829741
000090 85 91 48 bc c7 26 61 bc da 81 f0 3a 7e 71 b9 bc
       -0.012241726 -0.013742155 0.0018349246 -0.022637125
0000a0 81 21 62 3d 42 5e 3c 3d 20 7d 82 bd a4 ec 84 3c
       0.055207733 0.04598833 -0.06371522 0.01622612
0000b0 2c cc 1d 3d 56 60 2d 3d 74 05 ed bc f4 15 7f 3c
       0.03852479 0.0423282 -0.028933264 0.015569199
0000c0 7a 3f 5f bc 53 38 03 3c 18 91 99 3d ac 69 77 3d
       -0.013625974 0.008009034 0.074983776 0.06040351
0000d0 20 38 47 bc 57 55 65 bc 53 e9 e6 3a 85 46 b8 bc
       -0.012159377 -0.013997397 0.0017617143 -0.022494564
0000e0 c7 43 65 3d 9b 3e 3c 3d 19 7c 83 bd bf 99 80 3c
       0.05597284 0.045958143 -0.06420154 0.015698312
0000f0 3c 98 20 3d 48 9d 31 3d 81 1e f2 bc 1e d4 76 3c
       0.039207682 0.043362886 -0.029555561 0.015065221
000100 78 26 d4 bd 9b ea 43 3d f2 3f 7f bd fa e6 4a bd
       -0.103589 0.04783116 -0.062316842 -0.049536683
000110 53 97 90 be 85 ad 10 bd ae c7 ea 3b 09 39 a1 bc
       -0.2824045 -0.03532173 0.007164917 -0.019680517
000120 27 8c 94 bd b2 93 d9 bc e1 3b 06 bb 1c e8 69 3b
       -0.072532944 -0.026559684 -0.0020482468 0.0035691326
000130 37 f9 b5 3b 41 12 05 bd a3 94 03 3d 09 da c8 bc
       0.0055533904 -0.03248811 0.032124173 -0.02451803
000140 1b 67 7f bc 79 5f 17 3c 75 eb be ba 01 26 49 bc
       -0.015588547 0.009239071 -0.0014566021 -0.012277127
000150 49 64 d0 bd c7 53 48 3c a9 c8 e0 b9 ae a8 a7 3b
       -0.10175378 0.012227005 -0.00042874113 0.0051165437
000160 ed cb a5 bd 94 30 23 bd 7f ca 97 bc 4f 4a ab 3b
       -0.080955364 -0.03984125 -0.018529175 0.005227364
000170 fa bb a0 bc 05 7d 8d bc 00 f9 8e b9 76 d0 c8 bb
       -0.019620884 -0.017271528 -0.0002726987 -0.006128366
000180 8d a4 12 be 5f 75 74 be 2c 9c 07 3e 0c 2c 0e 3c
       -0.14320584 -0.23872899 0.13243169 0.008677494
000190 96 d6 17 bf 24 3a 35 bd f1 f8 ba 3d a8 63 10 bd
       -0.5931181 -0.0442449 0.09129513 -0.03525129
0001a0 62 c9 4a bf 5f 68 23 3e 11 4c b1 bc 0e bf 7f be
       -0.79213536 0.15957783 -0.021642717 -0.24975225
0001b0 bd 17 1b be 36 cf 88 3d 23 9f b6 bc b5 f9 69 be
       -0.15145774 0.06680147 -0.02229268 -0.22849162
0001c0 0f 7d 6f bd 39 a9 09 3e b9 91 6e 3d 21 fa 59 be
       -0.058468875 0.1344346 0.05824444 -0.21286823
0001d0 d3 97 cd 3d 74 c9 88 3d 84 15 3a be 0b 39 f3 bd
       0.10038724 0.06679049 -0.1817227 -0.118761145
0001e0 97 26 2f 3e 06 ed 8c 3d 6b 75 3a be e7 1f a3 3d
       0.17104565 0.06881146 -0.18208854 0.07965069
0001f0 fe c6 1e 3e 16 4f d4 3d d8 27 65 bd d5 65 98 bd
       0.15505597 0.10366647 -0.0559462 -0.07441298
000200 e5 56 bb bc 3b 48 8b 3c c8 c4 9d 3c 84 88 ee bc
       -0.022868583 0.017002216 0.019258872 -0.02911783
000210 ee c5 af 3d 29 0d 6b 3d 05 e4 a7 bc 48 fe fd bd
       0.08582674 0.057385597 -0.02049447 -0.12402016
000220 af cc f1 3c b0 75 c6 3b fa 00 19 be 2a ee 53 bc
       0.029516546 0.00605651 -0.14941779 -0.012935201
000230 68 df 31 3d 93 5f 94 3c f2 bc c1 bd 1d 16 05 3c
       0.043425947 0.01811198 -0.094598666 0.008122948
000240 a5 86 fc be 9b c4 01 3d 72 b9 a3 3d 51 cd 4a bd
       -0.49321476 0.03168164 0.07994355 -0.04951221
000250 35 6b 99 be a0 3d 1d 3e 35 eb 84 3d cc d2 80 be
       -0.29964605 0.1535554 0.06490175 -0.25160825
000260 c7 0e 8d 3d 06 53 43 3d 67 ad 90 bb 7e 50 5e be
       0.06887584 0.0476866 -0.0044152024 -0.21710393
000270 27 02 e5 3d 9a b9 3e 3d 62 82 8f 3b 86 74 c8 bc
       0.11182051 0.046563722 0.0043795565 -0.024469625
000280 83 a2 17 be cb 48 0c bf c5 8e da 3d 9c 36 a1 bb
       -0.14808087 -0.54798573 0.106717624 -0.00491984
000290 f2 2d 19 bf e0 e5 84 3c 7e a3 68 3d f7 ff 8a ba
       -0.5983573 0.016222894 0.056796543 -0.0010604848
0002a0 98 2f 81 be b2 07 3f 3e 21 64 a8 3d 0f e4 40 3b
       -0.25231624 0.1865528 0.08222223 0.0029432809
0002b0 2f 45 9e 3c 0a 08 a1 3d 2e 20 2f 3c df 59 26 3d
       0.019320099 0.078628615 0.010688825 0.04061305
0002c0 7f 78 3d be 0b f5 0c 3d 44 33 65 3d 06 51 1a 3c
       -0.18502997 0.03441338 0.055957094 0.009418732
0002d0 20 fa c5 be 9b 4f cd 3c 5a 9e b1 3d 96 1e d4 3c
       -0.38667393 0.025062373 0.08672781 0.02589349
0002e0 ad e2 ff bc 3b 53 e1 3a 9c bb 27 3c d4 5e a6 bd
       -0.031236017 0.0017190942 0.010237601 -0.08123556
0002f0 d6 6e 09 3d 4a ce a2 bb fd e1 af bc df 55 5a bd
       0.033552967 -0.004968439 -0.021470064 -0.05330455
000300 a5 ad 7f be 8e ba c1 3b 23 9e 3a 3d 96 55 21 bd
       -0.24968584 0.0059121316 0.045560967 -0.03938826
000310 ee b0 f1 be e9 5b 91 3d 98 8c cc 3d 04 3d fd bd
       -0.472053 0.070976086 0.09987754 -0.123651534
000320 f2 bb 00 3c b8 de a4 3d a2 82 6b 3d ae 4b 0d bf
       0.00785731 0.08050293 0.057497628 -0.55193603
000330 f2 7f f8 bd f3 30 c5 3a a9 2b 35 bd dd af 45 bd
       -0.12133779 0.0015044495 -0.04423109 -0.04826342
000340 f1 ec 49 be f7 d2 5f 3d 35 22 3f bc 84 97 91 bd
       -0.19719292 0.05464455 -0.01166587 -0.071089774
000350 39 5e e1 bc 10 b1 be 3d c9 32 47 ba 5b b7 17 be
       -0.02751075 0.09311116 -0.0007598815 -0.14816038
000360 1e 2c fe 3c 82 04 1f 3c 19 74 d6 3c f6 bc 3e bd
       0.031026896 0.009705665 0.026178407 -0.046566926
000370 69 b4 39 3d 7d 00 a4 bb 92 6e 5c 3a 58 31 79 bd
       0.04533807 -0.005004941 0.000840881 -0.060838073
000380 98 04 a0 3c a2 4c 9a bc 86 dd 05 3d 97 d6 b9 bb
       0.01953344 -0.01883537 0.032681964 -0.005671333
000390 22 28 6c 3c ff a6 c0 3d 77 8c 13 bd 7a d8 16 bd
       0.014413865 0.09406852 -0.03602263 -0.036827542
0003a0 63 d9 b0 bd 97 19 86 3d 85 84 8a bd f9 74 db bb
       -0.08635213 0.065478496 -0.06763557 -0.006697294
0003b0 54 8c d7 bc b7 b9 e1 bc 5a 2f c4 bc 99 0f ad 3c
       -0.02631203 -0.027554376 -0.02394836 0.021125602
0003c0 ac ea 80 bc f8 92 8a bc 0a fd 04 3c 9b bc 12 bd
       -0.0157369 -0.016915783 0.00811697 -0.0358244
0003d0 4f e2 a3 bc ae 1c 17 3c 8f 92 ec bb b3 c6 bc bc
       -0.020005373 0.009223146 -0.0072196196 -0.023043966
0003e0 57 2c 16 bd c2 41 1d bc 2f 5d cf ba e5 59 ad b9
       -0.03666338 -0.009598197 -0.0015820618 -0.00033064108
0003f0 46 32 6a 3c 9b 2a e0 bc 60 08 78 3c 4c 96 80 bc
       0.014294213 -0.027364066 0.0151387155 -0.015696667

2.bias f4 [32]
000000 ae c9 3e bd e1 f6 2f be 60 20 8c 3e 96 1c 56 bd
       -0.046579055 -0.1718402 0.2736845 -0.052273355
000010 64 c7 03 bd 94 ee 06 bd 38 ef df bc 6b c6 61 bd
       -0.032172576 -0.03294237 -0.027335748 -0.055120867
000020 57 94 80 3d 38 b1 b3 bc 7a bd 0d bd 69 02 83 3d
       0.062782936 -0.02193509 -0.034604527 0.06396944
000030 6d 99 6c bd f0 ed ac 3e 4b 05 dc bb ab 27 d5 bc
       -0.057763506 0.33775282 -0.006714498 -0.026019892
000040 38 69 c9 bc 1f 4f dc bc 49 4b c1 3c 4a 4c 88 3b
       -0.024586305 -0.026893197 0.02359547 0.004159485
000050 5a 0f ee bc a1 2c 29 bc cb f4 e1 bc 06 3a 0f bd
       -0.029060055 -0.010325582 -0.027582547 -0.034967445
000060 91 d1 26 3e d0 dc 0b bd 96 23 73 bd 95 64 0d bd
       0.1629088 -0.03414613 -0.05936011 -0.03451975
000070 80 43 03 bd d4 b9 76 be 08 a6 d0 bc 8e 5f f4 bc
       -0.032046795 -0.24094325 -0.025469795 -0.02983072

5.weight f4 [100, 1568]
000000 20 a1 0a 3c 2c f1 9b bc 8c 5b ac bc 9f 8c 01 bd
       0.008461267 -0.019035898 -0.021039747 -0.031628247
000010 b2 0e 26 3c 77 9f 89 bd 48 00 a0 bb 2e ed 21 3c
       0.01013534 -0.06719869 -0.004882846 0.009883208
000020 be ac c1 3b d7 43 47 bc 7f 66 de bc 04 c9 ca 3c
       0.005910485 -0.01216217 -0.027148483 0.024754055
000030 17 57 ed bc d0 47 58 bc a8 be ac bc 55 de 26 3d
       -0.028972192 -0.013200715 -0.021087006 0.040739376
000040 34 fd c7 3a 8c 44 51 bc 43 cc fe bc 81 e5 d3 3c
       0.0015257956 -0.0127726905 -0.031103259 0.025866272
000050 20 e3 ab bc 5c 69 97 bc 64 5c 88 bb 66 8d 33 bc
       -0.020982325 -0.018482856 -0.0041614044 -0.010959005
000060 4c f3 81 bd aa 57 09 3d 80 4b 21 bc e6 9c db bc
       -0.06345233 0.03353087 -0.009844661 -0.026808213
000070 43 db 5b 3c eb 3a aa 3c 0e 24 d9 bc 3a da 0c 3d
       0.013418975 0.020780047 -0.02650645 0.034387805
000080 6d f5 1b bc dc 2c 14 3c ab 5e 26 bd f8 30 df 3c
       -0.009518963 0.009043898 -0.040617626 0.02724503
000090 56 9b 0d 3d 47 e3 be bb 7b 92 58 3a f3 8f 09 3b
       0.034571968 -0.0058254334 0.00082615734 0.0020990341
0000a0 51 a9 90 bc 13 03 c0 bc 0b b9 cb bc 02 97 9b bc
       -0.017658861 -0.023438966 -0.024868509 -0.018992905
0000b0 33 76 97 bc d3 a3 b5 3b 28 b6 09 3d 25 3e 92 bc
       -0.018488979 0.005543211 0.033620983 -0.017851898
0000c0 81 fe c6 3c ee 43 fa bc 48 98 6a ba 0b 05 ba bb
       0.024291279 -0.03054997 -0.0008949083 -0.0056768707
0000d0 c4 ef ab bc c7 ee a7 bb f6 11 e3 ba 46 5d 1d b9
       -0.020988353 -0.0051249 -0.0017324078 -0.00015007434
0000e0 cc 67 04 bd ea 87 c9 3c 18 ec cc 3c cf 97 3a bc
       -0.03232555 0.024600942 0.025014922 -0.011388733
0000f0 59 bd 1d bd 4f 57 1f bc 27 36 17 3c a6 5f 7d bb
       -0.038510654 -0.009725406 0.0092292195 -0.0038661747
000100 13 bb 0f bd 01 1b ca bb d0 93 62 bd 14 f6 29 3d
       -0.035090517 -0.00616777 -0.055316746 0.041494444
000110 91 d3 f9 bc 34 75 70 3b 0c 3a 0f bc 82 7c db 3b
       -0.03049639 0.0036690952 -0.008741867 0.006698192
000120 4d 88 e8 bc 7a 2b b2 bb e8 3b d9 3c 7a 42 13 3a
       -0.028385306 -0.0054373117 0.026517823 0.0005617511
000130 3a 94 48 bb aa 02 1c 3c 9f 24 1d bc 9d b9 79 3b
       -0.0030605928 0.00952212 -0.009591251 0.003810502
000140 8a 55 17 bd 30 fd 06 bc c5 eb 9c 3c 52 92 63 bb
       -0.03694681 -0.008239076 0.019155392 -0.0034724665
000150 89 36 b5 bc 59 ca d5 bc 59 69 85 bb 59 93 d2 ba
       -0.022120731 -0.026097463 -0.0040713963 -0.0016065642
000160 79 35 b5 3c 28 09 ee 3a 47 43 9d 3a 5f 65 b0 bc
       0.022120224 0.0018160688 0.00119982 -0.021532713
000170 9b 1a 47 3c df 8b ec bc 17 df 9f 3c f7 d0 83 bc
       0.012152339 -0.02887529 0.019515557 -0.016090853
000180 90 e6 ad 3c 6f 4b 0a bd bd a2 77 3c e7 5b 14 bc
       0.021228105 -0.033763345 0.015114483 -0.009055114
000190 19 4c 08 bd 90 2d 85 3c cb 58 9e 3c c4 70 9c bc
       -0.033275697 0.016257077 0.01932945 -0.01909674
0001a0 1b 99 21 3d 66 a9 8f 3a bf 50 a5 3c 38 89 0d 3d
       0.039452653 0.0010960519 0.020180104 0.03455469
0001b0 a9 bf c1 3c fd d4 86 bc 3a 54 bd bb 08 fb cc 3a
       0.023650961 -0.016458983 -0.005777863 0.0015638778
0001c0 82 62 98 3c 1e 03 04 bd 5d c2 4c bd 03 09 2f bc
       0.01860166 -0.032229535 -0.049990047 -0.010683301
0001d0 89 d7 4b bb 58 2f 85 3a ea 29 9f bc 12 d0 06 bb
       -0.003110381 0.0010161204 -0.019429166 -0.0020570797
0001e0 76 7c 2e 3c b4 41 f8 bc 69 fd 1e 3c 88 ea 39 bd
       0.010649791 -0.030304767 0.009703972 -0.045389682
0001f0 a5 44 59 3b 9d 8d 37 bc 0a 61 ac ba d4 f3 58 bd
       0.0033152488 -0.011203197 -0.0013151478 -0.052966908
000200 3e b3 1a 3c a5 a8 c4 bc c3 b2 17 bd 80 56 12 bd
       0.009442149 -0.024006197 -0.037035715 -0.035727024
000210 16 4d 35 bb 64 8b 6a bc ca aa be ba 46 3d e7 bc
       -0.0027664355 -0.01431546 -0.0014546749 -0.02822746
000220 58 5e 04 3c 7a ea 59 bb 73 a5 91 3c 74 55 44 3c
       0.008079134 -0.0033251331 0.017779088 0.011983264
000230 20 63 0d 3c c8 cc 97 3c 9e 70 69 bc a6 d1 16 bd
       0.00862959 0.018530264 -0.014248041 -0.03682103
000240 80 22 f1 bc 43 dc f5 3b ca f5 75 3d e8 7c 44 bd
       -0.029435396 0.007503064 0.060048856 -0.047970682
000250 fb c6 60 3b 41 1a c1 bc 67 b6 49 bc 22 9e db 3c
       0.003429829 -0.02357209 -0.0123115545 0.026808802
000260 d9 f1 53 3c d7 45 d3 bc 74 4f bd bc 36 f5 55 bd
       0.012936079 -0.025790138 -0.023109175 -0.052235804
000270 a7 a6 b3 bc 61 fe f0 3b 06 f9 12 bd 20 e6 c1 3b
       -0.021930052 0.007354543 -0.03588202 0.0059173256
000280 12 60 88 bb 05 5e 03 3b f6 48 d8 3c b2 2f b2 3c
       -0.004161843 0.0020045054 0.026401978 0.021751259
000290 df 77 0e bd 5d e7 81 bc 96 b2 58 3c db 9d 4c bd
       -0.034782287 -0.015857393 0.013226172 -0.04995523
0002a0 d8 ad e9 bb 1f f9 2b bd 06 24 c9 b9 2d d4 23 ba
       -0.0071313195 -0.041985627 -0.00038364547 -0.0006249573
0002b0 39 27 a0 bc 94 e1 ca bc 67 5a 04 bd b6 19 99 3c
       -0.019549953 -0.024765767 -0.032312777 0.018689018
0002c0 30 f7 90 bb b5 f0 4c bd 48 81 dc bc 77 35 94 bc
       -0.0044239983 -0.050034244 -0.026917115 -0.0180919
0002d0 69 8a 6d 3c 80 3f b4 3b 06 1c f4 bc 0f 5f 6a bc
       0.014498332 0.005500734 -0.029798519 -0.01430489
0002e0 fa 69 2a bd 42 0e 50 3c 2f e8 bf b9 e0 e5 34 3b
       -0.041604973 0.012698712 -0.0003660335 0.0027602836
0002f0 5a 42 67 bc d9 48 a5 bc 9f d6 c2 3c b1 3a 38 bc
       -0.014114941 -0.020176338 0.02378398 -0.011244462
000300 ba 83 46 bc f6 55 9c bc 2f 05 92 bc 1e 4c 20 ba
       -0.012116367 -0.019083958 -0.017824737 -0.0006114858
000310 08 3d d9 bc 25 6b 9d bc 59 0a 2c bd e0 9a 12 bd
       -0.02651836 -0.01921613 -0.042002056 -0.03579223
000320 4d 99 fd bc 89 35 e7 bc 8b e8 37 bd 22 c2 1a 3c
       -0.030956889 -0.02822377 -0.044899505 0.009445699
000330 e8 1e 6e bd 62 b3 f2 3c f5 3a 34 3d 2f 44 24 3d
       -0.058134943 0.029626552 0.04400154 0.040104087
000340 cc b9 94 ba 7d ab 9d 3c bb ac e0 3c 54 2a 55 3b
       -0.0011346876 0.019246811 0.027426114 0.003252645
000350 5b 9b b5 3c d0 f5 d7 bb da 98 6a bd 0d e9 18 3c
       0.022168806 -0.0065905824 -0.057274677 0.009332907
000360 32 88 b3 3b a1 24 96 3c 1b 14 0a 3d 26 71 20 3c
       0.005478882 0.018328013 0.03371058 0.009792602
000370 42 6a 72 3b 0d b6 67 3c b1 38 9a bb cb c0 fe 3c
       0.0036989604 0.014142525 -0.004706465 0.03109779
000380 60 ab c6 3b e3 97 19 bc ba 9c 87 3c 28 18 00 bd
       0.00606291 -0.0093745915 0.016554225 -0.031273037
000390 43 1d 64 bc b8 ac 31 bc 09 dd 15 bc 55 93 91 bc
       -0.013922992 -0.010844402 -0.009146937 -0.017770449
0003a0 c3 f9 36 3c 70 86 05 bd e2 c1 d9 bc 26 35 92 bc
       0.011167946 -0.032598913 -0.026581708 -0.017847609
0003b0 12 04 8f bd 42 79 c4 bc 41 12 38 bc 83 1b 95 3c
       -0.06983198 -0.023983601 -0.011234821 0.018201595
0003c0 f5 6d bc 3a 45 74 52 3c 19 b2 c5 bc 6c 6e e2 bc
       0.0014376031 0.012845104 -0.024132775 -0.027640544
0003d0 52 34 6a bd 20 c3 25 bd 03 d7 04 bb 22 d2 af 3b
       -0.057178803 -0.04046929 -0.0020269759 0.005365626
0003e0 ce 9a 2e bc 8f 2b cf bc 70 34 d7 3b c1 bf b2 3c
       -0.0106570255 -0.025289325 0.0065675303 0.021819951
0003f0 e9 db b2 bc 8a af 23 bd 95 14 86 3c 27 41 c6 3b
       -0.021833377 -0.03996233 0.016367236 0.0060502472

5.bias f4 [100]
000000 36 40 02 bd fd d5 46 bd 33 db 0e 3d 60 f6 29 bd
       -0.031799518 -0.04854392 0.034877013 -0.041494727
000010 33 59 f2 bc cc 1a 77 bd ec ff 24 bd 47 c3 0a bd
       -0.02958355 -0.06032829 -0.04028313 -0.033877637
000020 3e 3c 17 3e 34 c1 57 bd 97 c0 6e bd 3e 90 d6 3d
       0.14769074 -0.052674487 -0.058289137 0.10476731
000030 d2 26 2b bd b2 b7 17 bd 62 a0 5c 3c 6d 85 a1 bd
       -0.04178507 -0.03704042 0.013465973 -0.07886777
000040 be 23 47 bd e3 09 0b bd cf 85 50 bd 71 8b 33 be
       -0.04861807 -0.033944976 -0.05090886 -0.17533661
000050 fc ff ff bc 46 52 f1 bc 23 1c 14 3e 79 eb dc bc
       -0.031249993 -0.029458176 0.14463858 -0.02696775
000060 5e d7 4d bd cc 52 40 bd 07 04 73 bd e8 94 87 bd
       -0.05025422 -0.04695396 -0.059330013 -0.066201985
000070 3a 99 08 bd 31 c2 30 3e 3a 26 55 bd ed a5 24 bd
       -0.033349253 0.17261578 -0.05203841 -0.0401973
000080 97 fc 0c bd 9d fd db 3c d9 ee 0d bd 6e ab f9 bc
       -0.034420576 0.02685433 -0.03465161 -0.030477252
000090 2f 20 ff bc b1 df 72 bc 44 74 19 bd 1f 3a 38 bd
       -0.031143276 -0.01482384 -0.037464395 -0.044977304
0000a0 56 f8 09 bd c7 96 a6 3d a7 56 54 bd 9e 74 31 bd
       -0.033684097 0.08134227 -0.05184045 -0.043324105
0000b0 3e 00 41 bd 7b 19 8e 3e ee 93 45 3e e1 ab d2 3d
       -0.04711937 0.27753815 0.19294712 0.102866895
0000c0 a7 5f 26 bd 09 3b fa bc 03 91 1d bd 85 92 91 3c
       -0.040618565 -0.030545728 -0.038468372 0.017770061
0000d0 33 13 16 bd 61 2b 21 bd 31 7b 49 bd 82 c5 68 bd
       -0.036639404 -0.03934801 -0.04918975 -0.056828983
0000e0 18 a9 1d bc ec 45 11 bd 9d 7d f5 bc 81 70 11 bd
       -0.009622835 -0.035467073 -0.029967124 -0.035507683
0000f0 f6 ff 1f bd 9f de 4b 3d 5d 64 0e bd 72 c4 21 3d
       -0.039062463 0.049772855 -0.034763683 0.039493985
000100 a7 77 49 be 4a a6 56 bd 4e 05 fe bc c0 ee a2 3e
       -0.1967455 -0.05240468 -0.031008389 0.31822777
000110 eb 75 03 bd d5 36 1e bd 45 24 53 bd 98 72 23 bd
       -0.032094877 -0.03862651 -0.05154826 -0.039904207
000120 2c f9 20 bd 50 15 11 bd ab d5 36 bd bc 14 de 3d
       -0.03930013 -0.035420716 -0.044637363 0.108437985
000130 38 c3 32 bd da ab 35 bd 05 c8 7d 3d 6a c2 71 3e
       -0.043643206 -0.044353344 0.06195833 0.2360932
000140 24 4a 3e bd b0 52 53 bd d7 93 33 bd 6d e3 f8 bb
       -0.046457425 -0.05159253 -0.043842163 -0.0075954706
000150 3a 60 57 3e 78 be c2 3d f3 b7 46 bd 58 f5 4c bd
       0.21032801 0.09508985 -0.04851527 -0.050038666
000160 f3 b3 f9 bc d5 c2 21 bd 0d 9d 2a bd 43 20 34 3e
       -0.030481314 -0.039492447 -0.04165368 0.17590432
000170 44 77 70 bd ca 17 34 bd 5a f7 15 bd 02 a4 53 bd
       -0.05870749 -0.043968 -0.036612846 -0.051670082
000180 86 01 8f 3e 3e d9 d4 bc 32 f1 06 bd e7 16 0f bd
       0.2793085 -0.025982495 -0.032944866 -0.03493395

7.weight f4 [10, 100]
000000 e9 34 df bd 08 dd c8 bd 07 f7 10 3d 8e 36 3a bc
       -0.10898764 -0.09807783 0.035391834 -0.011365546
000010 4d f0 44 3b 53 31 7d bd 3e 1f de bc 62 4f ed 3d
       0.0030050457 -0.061814617 -0.027114507 0.11587407
000020 05 79 88 be 2a d2 b6 3b 06 76 aa 3c 20 f0 3f 3c
       -0.2665483 0.0055792527 0.020808231 0.011714965
000030 49 30 5c 3d 8b e2 1f be b5 55 3b 3e 74 23 cd 3c
       0.053756986 -0.15613763 0.18294413 0.02504132
000040 51 eb 92 bd 85 a7 f6 bd 66 75 37 bd 3c 7a 32 be
       -0.07173789 -0.120436706 -0.044789694 -0.17429441
000050 6c 0f c7 bc 2a 63 12 3d 5a e9 a1 3d 35 33 a0 3d
       -0.024299346 0.0357391 0.079058364 0.07822267
000060 d5 03 7e bd cc ef 2f 3d d6 0b 22 3d 0c 59 19 be
       -0.062015373 0.042953297 0.03956207 -0.14975375
000070 ae 19 e2 3c 35 60 9e bd 24 a0 3b 3d ff 92 56 3d
       0.027600136 -0.07733194 0.04580702 0.05238628
000080 9c 56 b1 bc 43 f9 35 bc 04 82 91 bc c6 f5 31 bd
       -0.021647744 -0.011106792 -0.017762192 -0.04344728
000090 e2 89 b7 bd 97 ae 18 be d1 87 65 be 5c 6d 6d 3d
       -0.08961846 -0.1491035 -0.22415091 0.05796562
0000a0 aa 82 94 3d 8a a9 ac 3b 72 4b 24 bd 03 08 67 bd
       0.07251485 0.005269234 -0.040111013 -0.056404125
0000b0 59 32 56 3d dd 0f 9f 3d 7f 86 e1 bd 0a 12 05 be
       0.05229411 0.077666976 -0.11011981 -0.12995163
0000c0 6f 6d 8e 3d f2 4a d9 bd f3 7f 80 bb 4b ec e7 be
       0.069544666 -0.10609998 -0.0039215027 -0.45297465
0000d0 d1 d2 4a be 8a 19 d9 3d d8 c7 c6 bc be 53 d1 3c
       -0.19806983 0.10600574 -0.024265215 0.025552627
0000e0 82 6a da 3d 1b cb 38 3e dc 03 d8 bd 1c f5 c3 3d
       0.10664846 0.18046229 -0.10547611 0.09568235
0000f0 27 dd 4f 3d 54 6d 4c 3e 6d 71 13 be 63 61 4e 3c
       0.050748017 0.1996358 -0.14398737 0.012596461
000100 39 d9 10 be a5 06 bc bd 7d 79 31 bc 0d 9d a2 bd
       -0.14145364 -0.09180955 -0.010832188 -0.07940111
000110 15 7b a0 bd 67 8b 2d 3c 10 52 7e 3b c8 4a a5 3d
       -0.07835976 0.010592318 0.0038806237 0.08070904
000120 36 17 3f 3e 41 d6 9b 3d e5 85 78 3d c4 6f c3 be
       0.18661198 0.07609225 0.060674567 -0.38171208
000130 27 d3 37 3c 44 4d 7f 3d 2a d2 7f bd fa b3 11 be
       0.011219776 0.062329546 -0.062456287 -0.14228812
000140 79 dc 3c be 1f 97 be bd 08 70 0c 3d ee ef 0d 3d
       -0.18443479 -0.09306168 0.03428653 0.034652643
000150 9f 9c 31 be 40 73 da 3d 5a 9b 45 be 4c af d2 3d
       -0.17344902 0.106665134 -0.19297543 0.102873415
000160 21 31 a6 bd 00 5c 26 3b ed aa 5a be d5 fa de 3c
       -0.08114839 0.0025384426 -0.21354266 0.027219215
000170 42 3c f3 3d f4 1f e4 bd b6 0f d7 3d 61 c1 e4 bc
       0.11876728 -0.11138907 0.105010435 -0.027924241
000180 df ae 95 bd 1a 58 31 3e 15 6d 80 3d 76 28 f9 bd
       -0.07308745 0.17318764 0.06270806 -0.121659204
000190 c8 7f c4 bd 8b a2 e5 3c e6 a4 0f bf c0 23 ba bd
       -0.09594685 0.028031608 -0.5611099 -0.0908885
0001a0 2d ef 2e bd c0 e1 ac 3c ee 74 e7 3c a5 ca 45 bd
       -0.042708565 0.02110374 0.028253999 -0.04828896
0001b0 71 34 4e 3d 54 59 a8 bd 1e 6b 47 3d 7c 3d ba bd
       0.05034298 -0.08220163 0.04868614 -0.090937585
0001c0 df 9f 91 3d 97 7d 42 3e 67 16 e7 3d b5 f2 ae bd
       0.07110571 0.18993221 0.1128357 -0.085423864
0001d0 b9 6a 8f 3d 94 32 12 be f9 61 9e bd 2b c0 db bd
       0.070027776 -0.14277107 -0.077335306 -0.107300125
0001e0 b1 8d fb bd 35 6a db 3d 42 31 41 bd f4 91 0e be
       -0.12282885 0.10713617 -0.047166117 -0.13922864
0001f0 3f b0 3b bd c3 35 44 bb 2f 6a 85 3d 93 e3 a2 3b
       -0.04582238 -0.002993927 0.065143935 0.0049709766
000200 49 2b 2d be 97 3a 83 3d 1e a6 86 bd 34 29 af 3d
       -0.16911043 0.064076595 -0.06574653 0.08552781
000210 3f d6 59 bd 8b 69 a3 be 86 1c 0d bd dc 17 23 bd
       -0.053182837 -0.3191646 -0.03445103 -0.039817676
000220 85 3e 40 be ff bd 02 3d 02 4a b9 bd b4 b8 81 bd
       -0.1877385 0.031919476 -0.09047319 -0.063340575
000230 81 47 e8 bb 3f 88 a0 bb e9 3e 1a be 09 81 7a bd
       -0.007088602 -0.0048990543 -0.15063061 -0.061158214
000240 ff f7 ce 3c 8a 92 fa 3d dd 15 14 3d fc c7 0e 3e
       0.025264738 0.12234981 0.036153663 0.13943475
000250 71 5a 8e bc d6 a6 4d bd a3 8c 9d bc 47 5d 85 3d
       -0.01737711 -0.050207935 -0.0192321 0.06511932
000260 b3 2d 53 be 8a 10 01 be ae fe 9e 3d ce 78 de bc
       -0.20622902 -0.12603965 0.0776342 -0.027157214
000270 e4 0c 26 be d3 01 00 bd 6b f1 3d bd ce 3f cd 3d
       -0.16215855 -0.03125174 -0.046372812 0.100219354
000280 f6 3c 07 be d8 9c 3e be dc a1 e5 bc b0 6e ee bc
       -0.13206849 -0.18614519 -0.028031282 -0.029105514
000290 c7 e0 2a be 7e db 02 be 31 50 37 bd 2c 0a ed 3d
       -0.16687308 -0.12779042 -0.04475421 0.11574206
0002a0 fc 26 08 be c1 7f 6b 3c 4e 00 a6 bd fa 93 51 3d
       -0.13296121 0.014373721 -0.08105527 0.051166512
0002b0 2b 46 1d 3c 84 01 b7 3d 1c 61 89 bd 2c f5 9e 3c
       0.009599249 0.08935836 -0.06707975 0.019404016
0002c0 1c ec 28 3d 1b db aa bd 80 dc 6d 3d 86 d7 f8 3d
       0.041240796 -0.08342572 0.058071613 0.12150483
0002d0 a2 a3 e5 3d d1 79 8a bc 6d 67 0a bd c0 0c 91 be
       0.11212851 -0.01690379 -0.03379004 -0.2833004
0002e0 29 e7 11 3d 27 e7 23 bd f6 a8 3a bd 40 3b 3a bd
       0.035620842 -0.040015366 -0.04557129 -0.04546666
0002f0 b4 6c df bc 7a 80 37 3d e1 5b 30 bb 3f 09 ed 3d
       -0.027273513 0.04480026 -0.0026910233 0.11574029
000300 21 5f 5c be 00 28 0d be 18 61 77 3e 65 7b be 3b
       -0.21520664 -0.1378479 0.24158132 0.0058130496
000310 23 cd a6 3e 6f f2 df bd 34 88 6e bd a2 aa 54 be
       0.32578382 -0.109349124 -0.058235362 -0.20768216
000320 91 4c 81 3d 4e 13 13 bd a9 e2 98 bd c9 92 81 3d
       0.06313432 -0.035907082 -0.07465107 0.06326825
000330 99 ab 8d 3d e4 9d 41 3d 49 fd e2 bd 19 a0 11 3d
       0.06917495 0.047269717 -0.110834666 0.03555307
000340 ca 7e 9f 3d dd f3 72 bc 0d 49 1f be 38 a6 ac 3d
       0.07787855 -0.014828649 -0.1555521 0.08430141
000350 e7 1b 4e 3d 52 a3 05 be 1f ab f5 3d 64 ee ff 3c
       0.05031958 -0.13050583 0.119955294 0.031241603
000360 ba 9d fe 3a 51 79 d4 3c 2c 6b 1f 3d da 13 8a be
       0.0019425668 0.025936754 0.038920566 -0.2696827
000370 17 94 30 be f6 05 eb bd d3 ee 96 3d 6f f1 7b bd
       -0.17243992 -0.11475746 0.07369771 -0.061509546
000380 47 d6 ed 3d e3 f1 2a 3e 8e db 5e bd 62 04 81 bc
       0.11613136 0.16693835 -0.054408602 -0.01574916
000390 3e c5 b2 bd 65 87 1c 3d e5 34 ff bd c0 cd 80 bd
       -0.08729027 0.03821506 -0.12461261 -0.06289244
0003a0 70 54 01 be 78 2c 2c 3d ff f0 e3 bd 06 73 0c bd
       -0.12629867 0.042034596 -0.11129951 -0.034289382
0003b0 f2 e0 e2 3d 79 92 2c bd 69 6a c0 3d 03 dd b1 3c
       0.11078061 -0.042131875 0.09395296 0.021711832
0003c0 2e 66 0a 3b 2a 0c a0 3d 60 5d ec bb 68 a6 cb bd
       0.0021118033 0.0781482 -0.0072132796 -0.09943849
0003d0 78 b2 ad bd 34 cd 6c be 5b d3 81 3d f1 03 81 3c
       -0.08481306 -0.23125154 0.06339141 0.01574895
0003e0 3f cc 80 bd 13 82 9a bd e7 54 11 be 92 9f 9d bd
       -0.06288957 -0.07544341 -0.14192544 -0.07696451
0003f0 b1 a1 24 bd 96 b8 8b bd 85 83 45 3e 63 ae c6 3d
       -0.040193263 -0.06822316 0.19288452 0.097012304

7.bias f4 [10]
000000 22 40 b6 3d ce 37 a4 3e d9 36 25 bd c0 56 8f bc
       0.08898951 0.32073826 -0.04033551 -0.01749742
000010 cb c6 c6 bd 46 7f b6 bd 59 b0 36 3d 48 60 04 3e
       -0.097058855 -0.08910994 0.044601772 0.12927353
000020 dc 25 93 be 56 2b da bd
       -0.28739822 -0.10652797
