examples/vision/pretrained/cifar_2c2f.pth (torch, 406287 bytes, 8 tensors)

0.weight f4 [4, 3, 3, 3]
0	0x3ca076dd	0.019587928
1	0x3e08be9a	0.13353959
2	0xbdf9be8d	-0.12194548
3	0xbd7e8bf8	-0.062145203
4	0x3e2688c6	0.16263112
5	0x3e4dee01	0.20110323
6	0xbd9c2fc8	-0.07626301
7	0x3e0623ec	0.1309964
8	0x3db99fd5	0.09063689
9	0x3d1a4665	0.03766479
10	0x3a954110	0.0011387188
11	0x3e2ed656	0.1707395
12	0xbda765a5	-0.08173684
13	0xbdb725df	-0.0894277
14	0xbe26aa9a	-0.16276017
15	0x3da216f0	0.07914531
16	0xbc9b70f1	-0.018974753
17	0x3e14dec4	0.14538103
18	0xbcefa10a	-0.029251594
19	0xbe10339f	-0.14082192
20	0xbdfc46bc	-0.12318179
21	0x3b0521ca	0.002031433
22	0xbb3ccfe1	-0.002881043
23	0xbe1a0b9a	-0.15043488
24	0xbdb6c219	-0.0892374
25	0xbe59657e	-0.21230122
26	0xbccf9f99	-0.025344657
27	0xbe1af3d5	-0.15132077
28	0x3d249f7c	0.04019116
29	0x3c236890	0.00997366
30	0x3d634f79	0.055495713
31	0x3cc32f74	0.023826338
32	0x3d36a58f	0.044591483
33	0x3e30b58a	0.17256752
34	0xbdd1dc1a	-0.10247059
35	0xbe51a138	-0.20471656
36	0x3dbe9645	0.093060054
37	0x3e185555	0.14876302
38	0x3d22c812	0.039741583
39	0x3e9abf42	0.30224043
40	0x3dde3b15	0.10851113
41	0xbd295a41	-0.04134584
42	0xbc5e9432	-0.013585137
43	0x3e899b17	0.26876137
44	0x3dfdc5fd	0.12391279
45	0x3db28da4	0.08718422
46	0xbe48242e	-0.19545051
47	0x3c04004d	0.008056712
48	0xbda6dd22	-0.081476465
49	0xbe1e7d59	-0.15477504
50	0xbde731a8	-0.11288768
51	0x3d4366fa	0.047705628
52	0x3d49b29b	0.049242597
53	0xbdaef529	-0.08542854
54	0xbcba7002	-0.022758488
55	0x3d779cd1	0.060452286
56	0xbde96083	-0.11395361
57	0xbd83e4de	-0.06440137
58	0x3e1b3a73	0.15159015
59	0xbdacdf8c	-0.08441076
60	0x3e88ba7e	0.26704782
61	0x3c84ab7d	0.016195053
62	0xbe2cc834	-0.16873246
63	0x3db75b69	0.08952982
64	0xbc32a4aa	-0.010903517
65	0xbcc6d856	-0.024273079
66	0xbc2195fb	-0.009862418
67	0x3d486755	0.04892667
68	0xbe27e0f9	-0.16394414
69	0x3c3e3b0a	0.011610756
70	0x3d786f7e	0.060653202
71	0xbe6031a3	-0.21893935
72	0x3e64dfc3	0.22350983
73	0x3d4f4359	0.050601337
74	0xbe6ad3ff	-0.22932433
75	0x3da12c63	0.07869794
76	0x3c16d8c7	0.009206957
77	0x3dabf96b	0.08397182
78	0xbd796976	-0.06089159
79	0x3de285b1	0.11060656
80	0xbd324146	-0.04351928
81	0xbdbf1bc3	-0.09331467
82	0xbcc95bf3	-0.024579978
83	0xbdc4491b	-0.09584256
84	0xbe33e4f1	-0.17567803
85	0xbdef3900	-0.11680794
86	0x3e1be127	0.15222608
87	0xbd8dbc18	-0.06920642
88	0xbd8f8004	-0.07006839
89	0x3d8c372a	0.06846459
90	0x3d91a202	0.07110979
91	0xbced301f	-0.02895361
92	0xbe214556	-0.15749106
93	0xbd92c00a	-0.07165535
94	0xbe314494	-0.17311317
95	0x3cb10f56	0.021613758
96	0xbe1a9a32	-0.15097883
97	0xbd3d7e89	-0.04626325
98	0x3d1b04fd	0.037846554
99	0x3d03dcaf	0.032192882
100	0xbe1bc3c6	-0.152114
101	0x3e40e442	0.18837073
102	0x3d98e402	0.07465364
103	0x3e25e78f	0.16201614
104	0xbe17f2d8	-0.14838731
105	0xbcdf3937	-0.027248962
106	0xbe23afa6	-0.15984973
107	0xbdb40e5f	-0.087918036

0.bias f4 [4]
0	0x3e556c50	0.20842099
1	0xbd6b0f62	-0.057387717
2	0xbd03aec5	-0.032149095
3	0xbe3cdde7	-0.18444024

2.weight f4 [4, 4, 3, 3]
0	0x3be5745f	0.007002398
1	0xbdc0ddc5	-0.09417299
2	0x3dbeef35	0.09322969
3	0xbdc3d35d	-0.09561799
4	0x3ddccb3c	0.107809514
5	0x3dd173c9	0.102271624
6	0x3d124782	0.035712726
7	0xbe035100	-0.12823868
8	0xbd7e2f40	-0.06205678
9	0xbdde256f	-0.10846984
10	0xbdd7291a	-0.105058864
11	0x3d1e3fc0	0.038635015
12	0x3d5b713a	0.05357478
13	0xbe0d9eda	-0.13830128
14	0xbda58789	-0.08082492
15	0xbe58771c	-0.21139187
16	0x3d8620ef	0.0654925
17	0x3cced281	0.02524686
18	0xbe01ca07	-0.12674724
19	0xbd225617	-0.039632883
20	0xbde9541e	-0.11392997
21	0xbe80a957	-0.25129196
22	0xbdd67195	-0.10470883
23	0xbe10285f	-0.140779
24	0x3d2ada9d	0.041712392
25	0xbd14a8d3	-0.036293816
26	0xbe54858b	-0.20754068
27	0xbe1ed45e	-0.15510699
28	0xbe22da1a	-0.15903512
29	0x3dae4f38	0.085112035
30	0xbdbcc5cb	-0.092174135
31	0x3e145db7	0.14488874
32	0x3c11332b	0.008862297
33	0xbd6cedeb	-0.057844084
34	0x3e07b684	0.13253218
35	0xbd312ddb	-0.04325662
36	0x3e9ef985	0.31049743
37	0x3e4fab30	0.20280147
38	0x3d3a5824	0.045494214
39	0x3d9a5519	0.07535762
40	0x3e790cca	0.24321285
41	0x3e71ace0	0.23601103
42	0x3e8f408c	0.27978933
43	0x3d8935c4	0.06699708
44	0x3e12941b	0.1431431
45	0x3daa82c5	0.083257236
46	0xbda6c6be	-0.08143376
47	0x3dd14811	0.10218824
48	0xb8373e7a	-4.3688786e-05
49	0x3d3eb2e5	0.046557326
50	0x3d31e904	0.04343511
51	0x3e0c8c35	0.1372536
52	0x3cf146f3	0.029452777
53	0xbd9240c6	-0.07141261
54	0x3e23aaf9	0.1598319
55	0xbcda3833	-0.026638126
56	0x3d9e950c	0.07743272
57	0x3e822f08	0.25426507
58	0x3da490fd	0.08035467
59	0xbe22e6ef	-0.15908407
60	0xbc88bbc6	-0.0166911
61	0xbd8cae1e	-0.06869148
62	0xbe10d809	-0.14144911
63	0xbd8f682b	-0.0700229
64	0xbe0bbe4a	-0.13646808
65	0xbd85c9bb	-0.06532618
66	0xbd961ed3	-0.07330098
67	0x3e153aea	0.14573255
68	0x3b0560ab	0.0020351808
69	0x3db404f0	0.08790004
70	0xbd2a80c0	-0.04162669
71	0xbdc25bf0	-0.09490192
72	0x3d81e70b	0.06342896
73	0x3d618f0c	0.05506806
74	0xbe0bdafd	-0.13657756
75	0xbe07c5fb	-0.13259117
76	0xbbe073b5	-0.006849731
77	0x3dbb7007	0.09152227
78	0xbc2ddce5	-0.010611747
79	0xbe115b3e	-0.14194962
80	0xbcc6cdb3	-0.024268007
81	0xbda7a0a0	-0.08184934
82	0x3ddc3cfc	0.10753819
83	0x3daaf883	0.08348181
84	0x3df922b9	0.12164826
85	0xbe0295a1	-0.12752391
86	0xbbef36c6	-0.0073002307
87	0x3e0004d3	0.1250184
88	0x3e5354e9	0.2063786
89	0x3e360883	0.17776684
90	0xbe092664	-0.13393551
91	0xbe095775	-0.13412268
92	0xbecb76c5	-0.3973905
93	0xbe8c5bd2	-0.27413803
94	0xbe8d138f	-0.27553985
95	0xbe489e0f	-0.19591545
96	0xbe98538f	-0.2975125
97	0xbe87d5e5	-0.26530376
98	0xbeb3fe41	-0.35154918
99	0xbdf32546	-0.11872344
100	0x3d92b3fe	0.07163237
101	0xbe1e61b8	-0.15466964
102	0x3e02ff36	0.12792668
103	0xbdc4d5a0	-0.09611058
104	0xbd83664b	-0.06415995
105	0x3d8b9623	0.06815746
106	0xbdbfc70e	-0.093641385
107	0xbe29119b	-0.16510622
108	0xbdd3fbb0	-0.1035074
109	0x3e38f231	0.18061139
110	0xbabf1ab7	-0.0014580105
111	0x3e6647ec	0.22488374
112	0x3e525fcd	0.20544358
113	0x3e3b5fb0	0.1829822
114	0x3e1d0f03	0.15337758
115	0x3e5db4f6	0.21651062
116	0x3db5bba1	0.08873678
117	0xbe07ded4	-0.13268596
118	0xbe6a062a	-0.22853914
119	0xbe3ed29b	-0.18635027
120	0xbe70bb3c	-0.23508924
121	0xbe2875e0	-0.16451216
122	0xbe3a49aa	-0.18192163
123	0xbeb5dd55	-0.35520425
124	0xbeb7ae88	-0.35875344
125	0xbdb6dcf6	-0.08928864
126	0x3ed89f6f	0.42309138
127	0x3ea5e23b	0.32399163
128	0x3e77a798	0.24185026
129	0x3e7fbfc6	0.249755
130	0x3c91a95d	0.017780954
131	0x3dc63b2e	0.096792564
132	0xbdc85484	-0.09781745
133	0xbe15543d	-0.14582916
134	0xbd21e601	-0.03952599
135	0xbe1fcf87	-0.15606509
136	0xbd5905d0	-0.05298406
137	0x3d5d0b46	0.05396583
138	0xbcd8db0b	-0.026471635
139	0xbd93b9d6	-0.0721318
140	0x3d7c6ec0	0.061629057
141	0x3d64aa10	0.055826247
142	0x3d3efce0	0.04662788
143	0x3c8e6b36	0.017385107

2.bias f4 [4]
0	0x3e4b5377	0.19856058
1	0xbccb8a7d	-0.02484631
2	0x3dd2395e	0.10264848
3	0x3e41f3dd	0.18940683

5.weight f4 [32, 3136]
0	0xbc162417	-0.009163878
1	0x3b921a8c	0.004458731
2	0xbc8e5645	-0.01737512
3	0x3874183c	5.8196703e-05
4	0xbca221dd	-0.019791538
5	0xbc8ae0cf	-0.0169529
6	0xba3ed994	-0.00072803465
7	0x3a9e8164	0.0012093005
8	0xbc7cc669	-0.015428164
9	0x3a141fb4	0.0005650476
10	0xb9f21fc0	-0.00046181493
11	0x3b6aef34	0.0035848143
12	0x3bd2335d	0.0064148144
13	0xbbc723ec	-0.0060772803
14	0xbbf762c0	-0.0075496137
15	0xbb158f10	-0.0022820868
16	0xbcbaf51a	-0.022821952
17	0xbc18e66c	-0.009332281
18	0xbb74e076	-0.0037365234
19	0xbc1f23cc	-0.0097131245
20	0xbca82e04	-0.020529754
21	0xbc62eb02	-0.013849976
22	0xbcb1b98b	-0.02169492
23	0x3c375980	0.011190772
24	0x3c22a1e1	0.00992629
25	0x3c0bffa3	0.008544835
26	0x3b69a725	0.0035652604
27	0xbbab9a91	-0.0052369316
28	0x3b4a5aad	0.00308768
29	0x3c19e99f	0.0093940785
30	0xbc16e704	-0.009210352
31	0xbcbbe05f	-0.022934137
32	0xbc4af056	-0.012386402
33	0xbb5565cf	-0.0032561903
34	0xbbe37784	-0.0069417376
35	0x3a745757	0.0009320876
36	0x3be6c43b	0.0070424355
37	0xbbfde742	-0.0077485153
38	0x3c1bc70c	0.009507906
39	0x3aa9785e	0.0012929549
40	0xba95418a	-0.001138733
41	0xb90721c0	-0.00012887176
42	0x3c15febf	0.0091549745
43	0xbc7a3e3c	-0.015273627
44	0xbc1f938d	-0.009739769
45	0x3abe4b1b	0.0014518233
46	0x3c0197f4	0.007909764
47	0xbc981831	-0.018566223
48	0x3c31b97f	0.010847448
49	0xbbe4f780	-0.006987512
50	0xbb0bf1f3	-0.002135393
51	0x3b98c869	0.0046625626
52	0x3c010b0e	0.007876171
53	0xbc9f8b8d	-0.019475723
54	0x3c26f08a	0.010189185
55	0xb85c66c0	-5.254778e-05
56	0xbc1beb4f	-0.009516551
57	0xbc99d5b0	-0.018778652
58	0x3c0558d7	0.008138857
59	0xbc9fa8ba	-0.019489635
60	0x3c077d47	0.008269615
61	0x3b101c66	0.0021989583
62	0xbbded715	-0.006800542
63	0x3bff5687	0.0077922973
64	0xbca51cd7	-0.020155353
65	0x3c19dc89	0.009390959
66	0xbc873019	-0.016502427
67	0xbc819395	-0.015817443
68	0x3a84fac6	0.0010145537
69	0xbc7d9f67	-0.015479899
70	0xbcaa1ef9	-0.020766722
71	0x3c0c8779	0.008577221
72	0xbc1e75d1	-0.009671644
73	0xbcbfbae7	-0.023404552
74	0xba87b3e6	-0.0010353297
75	0xba420e9d	-0.000740269
76	0xbc940f0b	-0.01807358
77	0xbbbf1065	-0.005830812
78	0x3b4ef09f	0.0031576527
79	0xbc1fd4ca	-0.009755323
80	0xbc317e55	-0.010833343
81	0x3b8dd88f	0.0043287943
82	0x3c304fac	0.010761183
83	0xbc677184	-0.014126185
84	0xbbc347a8	-0.00595947
85	0xbc2ffeb7	-0.010741881
86	0x3bc05387	0.0058693322
87	0xbb60a657	-0.0034278834
88	0xbc02c3f3	-0.007981288
89	0x3be86297	0.007091831
90	0x3b20f5e9	0.0024560636
91	0x39428ff1	0.00018554904
92	0xbb97d801	-0.004633904
93	0x3bb593ae	0.0055412864
94	0x3bbcb4be	0.005758851
95	0xbc10a42c	-0.008828204
96	0xbc4c9e14	-0.012488861
97	0x3c24a123	0.010048184
98	0xbc1e03fa	-0.009644503
99	0xbaad54ee	-0.0013224164
100	0xbc2b1c6e	-0.01044379
101	0xba047662	-0.0005053041
102	0x3a4f4ac3	0.00079075637
103	0xbbd53d2f	-0.006507538
104	0x3c157c21	0.009123833
105	0xbc6d9536	-0.014500907
106	0xba97d481	-0.0011583717
107	0xbc9ac8e3	-0.018894618
108	0xbcabf38e	-0.02099016
109	0xbc645f0c	-0.013938677
110	0x3ade3fe1	0.0016956293
111	0xbc93a6dd	-0.018023903
112	0xbc12f9ac	-0.008970659
113	0x3bb215fb	0.005434749
114	0xbca2b917	-0.019863648
115	0xbcbc911f	-0.023018418
116	0xbbf2244e	-0.0073895818
117	0x3bc3f5f4	0.0059802476
118	0xbc84af7a	-0.016196955
119	0xbc576968	-0.013147689
120	0xbbdd3037	-0.0067501324
121	0x3ae0f6ec	0.0017163432
122	0xba5ccd14	-0.0008422893
123	0xbc7b0fce	-0.015323592
124	0x38593f24	5.1795636e-05
125	0xbafe7b5d	-0.0019415427
126	0xbc449b5a	-0.011999929
127	0x3b8004d9	0.003906828
128	0xbb40fa63	-0.0029446117
129	0xbc28017b	-0.010254259
130	0x3bf1c2ef	0.007377974
131	0xbc8a9e14	-0.01692108
132	0xbca36131	-0.019943805
133	0xbaa86cc3	-0.0012849796
134	0xbc7c8ce2	-0.015414448
135	0xbc24653a	-0.0100339
136	0xbc0030bf	-0.007824122
137	0xbc80fbbd	-0.015745038
138	0x3c05bbea	0.008162478
139	0x3bfa7f6d	0.007644585
140	0x3aa35c4a	0.0012463417
141	0x3913fb39	0.000141126
142	0xbbe30d46	-0.0069290726
143	0xbcaf1f2b	-0.021377167
144	0xbbbfc768	-0.0058526285
145	0x3c229526	0.009923255
146	0x3a40b786	0.0007351566
147	0x3c3e4e32	0.011615323
148	0xbcc11cf5	-0.023573378
149	0xbbff7869	-0.0077963364
150	0x3aff9670	0.001949979
151	0xbbbac9a6	-0.005700308
152	0xbc0865b0	-0.008325025
153	0xbca2036f	-0.019777028
154	0x3b8f4e87	0.004373375
155	0xbb9aad5a	-0.004720372
156	0xbca9a12e	-0.02070674
157	0xbb257c65	-0.0025251147
158	0xbbe262bc	-0.0069087427
159	0x3c354619	0.011064076
160	0xbc9fc75e	-0.019504245
161	0xbb1883c5	-0.00232719
162	0xbc4edeed	-0.012626392
163	0xbbd44d8a	-0.00647897
164	0x3c148372	0.009064542
165	0xbca3bccd	-0.019987488
166	0xbc37c505	-0.011216407
167	0xbc0b86bf	-0.008516013
168	0xbb866d01	-0.0041023497
169	0x3aca5556	0.0015436809
170	0x3ba56b54	0.005048195
171	0xbc0b7768	-0.008512355
172	0xbbf8fd72	-0.0075985724
173	0x3b8e8993	0.004349896
174	0x3bffbc8f	0.0078044604
175	0xbc65cb6d	-0.014025551
176	0xbcbdca0a	-0.023167629
177	0xbab1273b	-0.001351572
178	0xbbc0050a	-0.0058599757
179	0xbb6bac63	-0.0035960905
180	0xbc9f1a98	-0.01942186
181	0x3bb50a46	0.0055249063
182	0x3bfd005f	0.0077209915
183	0xbc63e021	-0.013908417
184	0xbc866099	-0.016403483
185	0xbbb9e92c	-0.005673548
186	0x3be94fda	0.0071201148
187	0x3bf2e9dd	0.0074131326
188	0xbc228e65	-0.009921645
189	0x39cc7d8b	0.0003900345
190	0x3ac366f6	0.0014908004
191	0x3bda832b	0.0066684685
192	0xbc402958	-0.011728607
193	0xbafaacf1	-0.0019125027
194	0xbc0efe90	-0.008727685
195	0x3bd57e5e	0.0065153083
196	0xbc959194	-0.018257894
197	0x3b42d6b2	0.002973002
198	0xbc8c7e32	-0.017150018
199	0xbc232ee8	-0.009959914
200	0xbcb8545e	-0.022501167
201	0xbc909ae8	-0.01765199
202	0xbc9bb07a	-0.019005049
203	0xbca1c2d4	-0.019746222
204	0xbca71771	-0.02039692
205	0xbbe75788	-0.007059995
206	0xbbb5106c	-0.0055256393
207	0xbc0580cd	-0.008148384
208	0xbcb629cd	-0.022236729
209	0x3c16d262	0.009205433
210	0xbc935fc5	-0.017990002
211	0xbcb10fd4	-0.021613993
212	0x3c34528f	0.011006012
213	0xbc4f3490	-0.012646809
214	0x39fbe848	0.00048047514
215	0xbcb1ce32	-0.021704767
216	0xbcc1b000	-0.023643494
217	0xbca805a4	-0.020510502
218	0x3af6dc4e	0.0018833966
219	0xbb9b546d	-0.004740289
220	0xbc229784	-0.009923819
221	0xbc48dc74	-0.012259591
222	0x3bf9a5fc	0.007618664
223	0xbc66cc1f	-0.014086752
224	0xbc7b30be	-0.015331445
225	0x3accf784	0.001563773
226	0xbcb283a7	-0.021791292
227	0x3b046aa0	0.0020205155
228	0x3b82aac1	0.0039876406
229	0xbb26a2e6	-0.0025426685
230	0x3aad42ed	0.0013218798
231	0xbc20cef7	-0.009814969
232	0x3aef5383	0.0018259141
233	0x3b23f0d1	0.0025015364
234	0xbcc368fe	-0.023853775
235	0xbc1dab46	-0.009623354
236	0x3c0d229b	0.008614208
237	0x3c1a2947	0.009409255
238	0xbc05c83a	-0.0081654135
239	0xbba2d89c	-0.0049696695
240	0x3bba5818	0.005686771
241	0x3c30d4e2	0.010792943
242	0xbaf7b69b	-0.0018899025
243	0xbc31c8ab	-0.010851066
244	0xb93042d9	-0.0001680957
245	0xbbad290c	-0.005284434
246	0x3b46ee98	0.0030354615
247	0xba6616d5	-0.0008777206
248	0xbc14f0bc	-0.009090599
249	0xbc3eb00f	-0.011638655
250	0xbc101026	-0.008792913
251	0xbc0c88a8	-0.008577503
252	0xbadc7f2f	-0.0016822572
253	0xbb01af02	-0.001978815
254	0x3a9c5c69	0.0011929396
255	0x3aa1c983	0.001234338

5.bias f4 [32]
0	0x3b854e63	0.0040681823
1	0x3a3cc7ce	0.0007201404
2	0xbc15e3cc	-0.009148549
3	0xbcd2d474	-0.025736071
4	0xbc9e5061	-0.019325437
5	0xbc2a8b85	-0.010409241
6	0xbc96d1fb	-0.018410673
7	0x3c3a6db1	0.0113786915
8	0x3bcb87d0	0.0062112585
9	0xbc8c16d0	-0.017100722
10	0xbcd0373b	-0.025416961
11	0x3d661747	0.056174543
12	0xbc936777	-0.017993672
13	0xbbb8fa10	-0.005645044
14	0xbc2b92f2	-0.010472046
15	0x3bac4023	0.005256669
16	0x3aa6bf44	0.0012721797
17	0xbca0f9a7	-0.019650294
18	0xbc53f27e	-0.012936233
19	0xbba87daf	-0.005141936
20	0xb8af6833	-8.364059e-05
21	0xb9232ecb	-0.00015562323
22	0xbcceb7da	-0.025234152
23	0x3c35fb3e	0.011107264
24	0xbbc869e8	-0.0061161406
25	0x3aaf9f5e	0.0013398936
26	0x3ba866ec	0.0051392224
27	0xbc3c75e2	-0.011502715
28	0xbc9c75ac	-0.01909908
29	0x3d1305dd	0.035894264
30	0xbc685b22	-0.014181884
31	0x3d6397d9	0.055564735

7.weight f4 [10, 32]
0	0xbe07dde0	-0.13268232
1	0xbd47f613	-0.04881866
2	0xbdcc2cd2	-0.09969486
3	0xbc776d76	-0.015101781
4	0xbd28d1d8	-0.041215748
5	0x3dad99cf	0.08476602
6	0x3d9783f4	0.07398215
7	0x3d817e0b	0.06322869
8	0x3c588445	0.013215129
9	0xbe182f6e	-0.14861843
10	0x3e13a02d	0.14416571
11	0x3e8f33e1	0.27969268
12	0x3e116432	0.14198378
13	0xbd596f91	-0.053084914
14	0xbdc6a34f	-0.096991174
15	0x3de541d2	0.11194195
16	0x3dbf4775	0.09339801
17	0x3daa32c2	0.083104625
18	0xbe2627af	-0.16226076
19	0xbe04deaf	-0.12975572
20	0xbe20b91e	-0.15695617
21	0x3d57c967	0.052682307
22	0x3b3e8468	0.002907062
23	0x3df04c46	0.11733298
24	0xbd8e4dc9	-0.0694843
25	0xbe2907d2	-0.1650689
26	0x3d952a5b	0.07283469
27	0x3d9ec156	0.0775172
28	0xbd44e1de	-0.048066966
29	0x3e0fd91e	0.14047667
30	0xbd8b0383	-0.06787779
31	0x3d9ca06f	0.07647788
32	0xbe043405	-0.12910469
33	0x3de4c118	0.11169642
34	0x3e1a2346	0.15052518
35	0xbd104d99	-0.035230253
36	0x3dd35d9c	0.10320589
37	0x3d623a97	0.055231657
38	0xbdf0f6ff	-0.11765861
39	0xbe3dde25	-0.18541773
40	0x3d636874	0.055519536
41	0xbccd2c74	-0.025045611
42	0x3e127c2d	0.14305182
43	0xbe6f162f	-0.23348306
44	0xbdd0bb5a	-0.101919845
45	0xbe36a7e2	-0.1783748
46	0x3e331047	0.17486678
47	0xbdcecf1e	-0.10098098
48	0x3df203bf	0.11817121
49	0xbcafe17a	-0.02146982
50	0xbde42e25	-0.11141614
51	0x3e1735d3	0.14766626
52	0x3e314424	0.1731115
53	0x3d8d63d3	0.069038056
54	0xbd7aa5f8	-0.061193436
55	0x3e044d54	0.12920123
56	0xbdf4e1c8	-0.11957127
57	0x3de3e568	0.1112774
58	0xbcb84ddc	-0.022498064
59	0xbd8e8b65	-0.06960181
60	0xbe3cca7e	-0.1843662
61	0x3e3a1bc6	0.18174657
62	0xbe0b18ea	-0.13583723
63	0x3eac0738	0.33599257
64	0x3e1c2467	0.15248261
65	0xbd66e657	-0.056372013
66	0xbca7e912	-0.020496879
67	0x3d95a08e	0.07306014
68	0x3db56561	0.08857227
69	0xbe15f5af	-0.14644502
70	0xbd8109ee	-0.06300722
71	0x3e75a535	0.23988803
72	0xbd0f4345	-0.034976263
73	0x3e24c6ab	0.16091411
74	0xbe2c4f95	-0.16827233
75	0x3dc790ac	0.09744391
76	0x3d38bdb1	0.04510278
77	0x3df70d81	0.120631225
78	0xbe2d0c06	-0.16899118
79	0xbe12a3e2	-0.14320329
80	0x3dbb5ba8	0.091483414
81	0xbe293a0a	-0.16526046
82	0xbe291396	-0.16511378
83	0x3e237039	0.15960778
84	0xbe3d8d2d	-0.18510886
85	0xbd6bbbf2	-0.057552285
86	0xbdddae7e	-0.10824297
87	0x3e294b29	0.16532578
88	0x3e1a43ed	0.15064974
89	0xbdabcf6d	-0.08389173
90	0xbe030610	-0.12795281
91	0xbca73e54	-0.020415463
92	0xbce3f838	-0.02782832
93	0xbe1057fd	-0.14096065
94	0xbe109c96	-0.14122233
95	0xbe39e3cd	-0.18153305
96	0xbdf84384	-0.121222526
97	0xbdb7b171	-0.08969391
98	0x3e414548	0.18874085
99	0xbd4a06b2	-0.04932279
100	0xbd70191b	-0.058617692
101	0xbd24b6a3	-0.04021324
102	0x3ce43118	0.027855441
103	0x3d8895b1	0.06669176
104	0x3de617cf	0.1123501
105	0x3dc89c55	0.09795443
106	0xbbdcec93	-0.006742069
107	0xbd9faee4	-0.077970296
108	0xbcfb16b8	-0.030650482
109	0xbc0ef6eb	-0.008725862
110	0xbc7fe58d	-0.015618694
111	0x3e0bf1b6	0.13666424
112	0x3e1f5eda	0.15563527
113	0x3d342ccb	0.04398803
114	0x3e05e548	0.13075745
115	0xbe34fb5f	-0.17674015
116	0xbd3826b4	-0.044958785
117	0x3dfa8d72	0.1223401
118	0xbc516748	-0.012780972
119	0xbe16e34f	-0.14735149
120	0xbd14ef05	-0.03636076
121	0xbdb745ad	-0.089488365
122	0x3bafc657	0.00536422
123	0xbc608ff0	-0.013706192
124	0x3dd3c8a8	0.103410065
125	0xbe293003	-0.16522221
126	0x3d81353c	0.06308982
127	0xbe0b3ffc	-0.13598627
128	0xbc0b1be1	-0.008490534
129	0xbb5d34c0	-0.0033753365
130	0x3daebe75	0.085324205
131	0x3dc763d2	0.09735836
132	0xbb2bb98f	-0.002620313
133	0xbd283821	-0.041069154
134	0x3cf58ea8	0.02997525
135	0x3e4a5cec	0.1976201
136	0xbc7ad5be	-0.015309749
137	0x3e2b4f06	0.16729364
138	0x3e275a14	0.16342956
139	0xbb9586a3	-0.004563169
140	0xbdd01bc2	-0.101615444
141	0x3cd19082	0.025581602
142	0x3ce39da1	0.027785124
143	0x3d6bc173	0.057557534
144	0x3d3e9c52	0.046535797
145	0x3aefdf9b	0.0018300893
146	0x3c65681b	0.014001871
147	0xbe1d114c	-0.1533863
148	0xbe525f05	-0.2054406
149	0xbdfda265	-0.1238449
150	0x3e1a3002	0.15057376
151	0xbd8cf96c	-0.06883511
152	0xbd007676	-0.031362973
153	0xbe05b0c8	-0.13055718
154	0xbca326d5	-0.019915977
155	0x3e0ac7b8	0.13552749
156	0x3e18dfd7	0.14929138
157	0x3ca94bd5	0.020666042
158	0xbd1ddc45	-0.038540144
159	0xbe933f9d	-0.2875947
160	0xbddbcaa9	-0.10732014
161	0x3e1a4789	0.15066351
162	0x3e35b93b	0.17746441
163	0xbd0b7ca7	-0.034054425
164	0x3ca10a12	0.019658122
165	0x3cbd3c97	0.02310018
166	0xbde8934f	-0.11356222
167	0x3dcdb173	0.100436114
168	0x3d1ea487	0.038731124
169	0x3c3b50bf	0.011432826
170	0xbdd45e48	-0.10369545
171	0xbdded846	-0.10881095
172	0x3db3b972	0.08775605
173	0xbb4e134c	-0.0031444607
174	0xbe152e50	-0.14568448
175	0x3b703819	0.003665453
176	0xbda5b4be	-0.080911145
177	0x3d26a577	0.040685143
178	0xbda1663e	-0.07880829
179	0x3dd220f0	0.102601886
180	0xbe274d2b	-0.16338031
181	0xbe0bc0de	-0.13647792
182	0x3dc614be	0.09671925
183	0xbd8f2e30	-0.069912314
184	0x3e05f5ca	0.13082042
185	0xbcefe833	-0.029285526
186	0x3dc9a726	0.09846334
187	0xbe05faf2	-0.1308401
188	0xbdf5aff6	-0.119964525
189	0xbe007230	-0.12543559
190	0x3ddd3409	0.108009405
191	0xbde738ea	-0.11290152
192	0x3cefc658	0.029269382
193	0x3d6abee8	0.05731097
194	0x3e27af0f	0.16375373
195	0x3d07c4c2	0.033146627
196	0xbd0cc4b6	-0.034367286
197	0xbe1b59d6	-0.15170988
198	0x3d345d59	0.044034336
199	0x3e3c6b88	0.18400395
200	0xbd1afaa5	-0.03783669
201	0xbdbd259f	-0.09235691
202	0x3e09c77c	0.13455003
203	0xbdbb472d	-0.09144435
204	0x3d4df8f6	0.050286256
205	0xbd00a68d	-0.031408835
206	0x3df16a21	0.117878206
207	0xbd8cfc9d	-0.0688412
208	0x39a04295	0.00030567186
209	0xbd4e65eb	-0.050390165
210	0xbd82d6ea	-0.06388648
211	0x3d9a76e9	0.075422116
212	0x3d9f1895	0.077683605
213	0xbe002c18	-0.1251682
214	0xbd5ef44c	-0.0544322
215	0xbd1df48c	-0.038563296
216	0x3d7f73df	0.062366363
217	0x3d56f6f1	0.052481595
218	0xbdd06ba8	-0.10176784
219	0x3dc1fe5a	0.09472342
220	0x3c5c7d4a	0.013457606
221	0xbeb89544	-0.3605138
222	0xbe08e498	-0.13368452
223	0xbec6aad1	-0.38802198
224	0x3cd304da	0.02575915
225	0xbb07249a	-0.0020621181
226	0xbb727baf	-0.003699999
227	0x3de55df3	0.1119956
228	0x3e004ed5	0.12530072
229	0x3db93255	0.09042803
230	0xbdd0ef7b	-0.10201927
231	0x3e0c4cfa	0.13701239
232	0xbd62d259	-0.055376384
233	0xbdfb8b13	-0.12282386
234	0xbdc746c2	-0.09730293
235	0xbe995553	-0.2994791
236	0xbbfca717	-0.0077103483
237	0xbe288bfb	-0.16459648
238	0xbdffeb44	-0.12496045
239	0xbde3e031	-0.111267455
240	0x3da08592	0.078379765
241	0x3dcd63cc	0.100288
242	0xbe15856f	-0.14601682
243	0x3e230a44	0.15921885
244	0xbd2d0717	-0.04224309
245	0xbdb60097	-0.08886831
246	0x3d9a1e60	0.07525325
247	0x3df1ccc4	0.11806634
248	0x3cfdf901	0.031002523
249	0x3e1f663e	0.15566346
250	0xbe2022b6	-0.15638241
251	0xbd36486c	-0.04450266
252	0xbe19570f	-0.14974616
253	0x3e6437f2	0.22286966
254	0xbd0afe7c	-0.0339341
255	0xbe0f5afb	-0.1399955

7.bias f4 [10]
0	0xbdda218b	-0.10650929
1	0xbe5e8800	-0.21731567
2	0x3e010b85	0.1260205
3	0x3e038cee	0.12846729
4	0xbdf90aff	-0.121603005
5	0x3daf8a72	0.08571328
6	0xbe84674c	-0.2586006
7	0x3d81a4ce	0.06330262
8	0xbdef4e4d	-0.116848566
9	0xbd9c3fcf	-0.07629358
