examples/vision/pretrained/mnist_fc_3layer.pth (torch, 439796 bytes, 6 tensors)

fc1.weight f4 [128, 784]
0.021136586 0.035454247 0.029588591 -0.034497526 -0.015643913 0.015212327 0.0035092756 0.0007211529
0.014041264 0.008469857 0.025307704 0.025563166 -0.014010082 -0.025536895 0.03148241 -0.004773411
0.027689334 -0.020379096 -0.020527795 -0.013453543 -0.0009054765 0.02476265 -0.01340981 0.0010438897
0.022051185 -0.017060243 -0.009605464 -0.027507612 -0.015692104 0.0028308816 -0.0066926945 -0.035493605
-0.05460254 0.0025578602 0.02231152 -7.675616e-05 0.0141504295 -0.01536246 -0.023583375 0.016590156
-0.025161415 -0.04801869 0.089767404 0.044413924 0.0059795915 -0.051035993 0.007862821 0.021794833
-0.031753473 -0.06360921 0.0053508175 -0.027394053 -0.031995393 0.012127534 0.0013206378 0.034287687
-0.016742047 0.008831557 0.027642574 0.030678434 -0.035327215 -0.024039209 0.05428139 0.0067893444
0.09584326 0.17049664 0.16240975 0.08494022 0.11638532 0.13802059 0.10979912 0.21900818
0.24482916 0.11121468 0.045130096 0.07741018 0.031514853 0.041679844 -0.032804925 -0.0034590152
0.07470968 0.08223189 0.0104925 -0.030330928 0.024668794 -0.016085932 0.097299725 0.09118723
-0.013239342 0.06552733 0.03878732 0.101171106 0.1010575 0.004647854 0.02022091 0.08095895
0.15615755 0.01405322 -0.042883668 0.06435975 0.123364374 0.10168755 0.064147934 0.13269055
0.02115063 -0.014006174 0.016662484 0.0017677512 0.08320998 0.03471151 -0.01667426 0.0034382753
0.00426076 0.023551196 0.1339973 0.009328894 0.0074175633 0.12434667 0.16432095 0.06164281
0.0059648515 -0.062160145 0.013328991 0.02934962 0.031279314 0.008693807 -0.07207033 -0.02014566
-0.055331014 -0.06504236 -0.023601256 0.017762758 -0.044614747 -0.0707536 -0.0005768889 -0.074822284
-0.059560128 -0.09025677 -0.09581872 -0.027492922 -0.032506153 -0.010841893 0.09295286 0.034923673
0.05307199 0.18204398 0.14348553 0.066754684 -0.010451009 -0.04157945 -0.038859747 -0.07370851
0.022054829 0.047257952 0.0024616034 0.007329569 0.066617265 -0.022417877 -0.014639859 -0.020587528
-0.021669596 -0.085766844 -0.08304461 -0.009925764 -0.0700212 -0.074298754 -0.09812644 -0.009090398
0.002397228 0.099121556 -0.029524503 0.06753292 0.09258222 0.13907251 0.07884633 -0.008040436
-0.020125905 0.016464654 -0.0067973267 0.05258417 0.0051665604 0.025114464 0.044153195 0.07771378
0.03503318 -0.052748695 -0.037630264 0.0007857424 -0.02554929 -0.07733386 -0.1100097 -0.15934235
-0.23195066 -0.14874202 0.022043707 0.057357963 0.0075673116 0.1098378 0.052896705 0.039989065
0.09698545 0.100792065 0.06634925 0.023720006 -0.043519072 0.05229224 0.089712754 0.11019659
0.1472532 0.11600524 0.066529304 0.0438913 0.012685744 0.01880913 -0.018214012 0.06690632
0.06273145 -0.03166975 -0.05853523 -0.16638587 -0.24805918 -0.14694296 0.029420856 0.06692121
0.0049541118 0.09862586 0.06072034 -0.05345579 0.06401984 0.114056036 -0.0064934166 0.07101473
-0.012002259 0.08470286 0.07430715 0.09748766 0.030635668 0.018472144 0.062703006 0.042009402
-0.009186235 0.00696082 0.016492615 0.02791154 -0.042612217 -0.09239044 -0.07048338 -0.094449386
-0.26072854 -0.21195872 -0.025034262 -0.035078667 0.036320604 0.12631933 0.026619956 0.038627695
00000000: a226 ad3c 7938 113d c663 f23c 474d 0dbd
00000010: aa27 80bc 203d 793c e0fb 653b c00b 3d3a
00000020: 540d 663c 28c5 0a3c 1a52 cf3c d869 d13c
00000030: 8b8a 65bc c032 d1bc b3f3 003d 466a 9cbb
00000040: bed4 e23c 10f2 a6bc e829 a8bc 406c 5cbc
00000050: 805d 6dba 0adb ca3c d2b4 5bbc 20d3 883a
00000060: b0a4 b43c ecc1 8bbc 3c60 1dbc a557 e1bc
00000070: ba8c 80bc 5086 393b 644e dbbb be61 11bd
00000080: eaa6 5fbd c6a1 273b a6c6 b63c 26f8 a0b8
00000090: 34d7 673c d4b2 7bbc ec31 c1bc 14e8 873c
000000a0: 501f cebc 3faf 44bd f9d7 b73d 60eb 353d
000000b0: 73f0 c33b 1e0b 51bd 10d3 003c 148b b23c
000000c0: ee0f 02bd 8c45 82bd e955 af3b 7e69 e0bc
000000d0: 9a0d 03bd 90b2 463c 4019 ad3a 3f71 0c3d
000000e0: 9e26 89bc 3cb2 103c ae72 e23c 5751 fb3c
000000f0: 45b3 10bd e0ed c4bc 2a56 5e3d 2679 de3b
00000100: 7949 c43d ac96 2e3e be4e 263e 23f5 ad3d
00000110: 6d5b ee3d 4555 0d3e 5cde e03d ae43 603e
00000120: 7fb4 7a3e 86c4 e33d 56da 383d 3a89 9e3d
00000130: b815 013d 7cb8 2a3d 755e 06bd a5b0 62bb
00000140: 6401 993d 3169 a83d bce8 2b3c 9178 f8bc
00000150: 3616 ca3c a5c6 83bc 1445 c73d 5fc0 ba3d
00000160: d3e9 58bc 3133 863d 74df 1e3d cc32 cf3d
00000170: 3cf7 ce3d 064d 983b 52a6 a53c cecd a53d
00000180: c4e7 1f3e 7a3f 663c c9a6 2fbd 0bcf 833d
00000190: 76a6 fc3d 9041 d03d fe5f 833d 08e0 073e
000001a0: 1644 ad3c 277a 65bc c37f 883c e3b3 e73a
000001b0: fe69 aa3d a82d 0e3d 7598 88bc b054 613b
000001c0: d89d 8b3b 70ee c03c 9736 093e 38d8 183c
000001d0: 080f f33b 78a9 fe3d c043 283e 2c7d 7c3d
000001e0: cd74 c33b a39b 7ebd d761 5a3c 9d6e f03c
000001f0: bd1e 003d 7870 0e3c 9c99 93bd 8308 a5bc
00000200: c6a2 62bd ee34 85bd 6c57 c1bc 3483 913c
00000210: f4bd 36bd 43e7 90bd 5c3a 17ba 6d3c 99bd
00000220: 52f5 73bd 8bd8 b8bd 9b3c c4bd d638 e1bc
00000230: 2c25 05bd 32a2 31bc 125e be3d 200c 0f3d
00000240: 0462 593d bd69 3a3e dfed 123e aeb6 883d
00000250: b53a 2bbc 374f 2abd 662b 1fbd 7df4 96bd
00000260: 54ac b43c 8e91 413d da52 213b e22c f03b
00000270: a26e 883d b2a5 b7bc 05dc 6fbc 2da7 a8bc
00000280: 7084 b1bc 87a6 afbd 4b13 aabd ac9f 22bc
00000290: 4667 8fbd f229 98bd 84f6 c8bd e5ef 14bc
000002a0: d01a 1d3b 3e00 cb3d 5fdd f1bc b34e 8a3d
000002b0: bf9b bd3d 0669 0e3e 2f7a a13d 08bc 03bc
000002c0: 15df a4bc e2e0 863c 1cbc debb 8062 573d
000002d0: 404c a93b d9bc cd3c fbd9 343d 6728 9f3d
000002e0: f47e 0f3d 040f 58bd 3122 1abd 48fa 4d3a
000002f0: bf4c d1bc 3761 9ebd c44c e1bd a42a 23be
00000300: 7984 6dbe d44f 18be 0195 b43c 2ff0 6a3d
00000310: 36f7 f73b a4f2 e03d 37aa 583d 93cb 233d
00000320: 4fa0 c63d 126c ce3d 1ee2 873d 7550 c23c
00000330: 0e41 32bd 6330 563d 52bb b73d c0ae e13d
00000340: 8bc9 163e 2894 ed3d 8440 883d 5dc7 333d
00000350: ded7 4f3c 9b15 9a3c 8d35 95bc 2e06 893d
00000360: 5979 803d 24b8 01bd a3c2 6fbd 0f61 2abe
00000370: 3a03 7ebe 3778 16be 0204 f13c fd0d 893d
00000380: 1a56 a23b 5bfc c93d e4b5 783d 75f4 5abd
00000390: d51c 833d 3696 e93d bac6 d4bb 2c70 913d
000003a0: 1fa5 44bc b178 ad3d 592e 983d 9ca7 c73d
000003b0: a7f7 fa3c e552 973c 6f6a 803d 0d12 2c3d
000003c0: dd81 16bc 9717 e43b 851b 873c bea6 e43c
000003d0: 268a 2ebd 3337 bdbd 9759 90bd ae6e c1bd
000003e0: 367e 85be b50b 59be a714 cdbc a6ae 0fbd
000003f0: eac4 143d db59 013e 1812 da3c 1338 1e3d

fc1.bias f4 [128]
-0.023940431 0.007038447 0.052295968 0.01049087 0.03715814 0.028096518 -0.035539746 -0.030181386
0.05630248 0.0042220633 0.052520137 0.115523785 -0.034819 0.07474982 -0.011803096 0.008811618
0.042262886 0.005033788 0.10741633 -0.00036807667 0.069011115 -0.03334145 -0.013015425 0.09916721
0.05954502 0.034975268 0.077539094 0.064382955 0.06812695 0.16388483 -0.044047512 -0.06270838
-0.05457485 -0.01062492 0.008192967 -0.060463335 -0.023202037 0.08875637 0.009778174 0.06408293
0.058673743 0.018090853 0.023864314 0.071595795 0.057972934 0.06925701 -0.029280605 0.084832914
-0.074525654 0.06719566 0.14752416 -0.022010026 -0.03588263 0.0663134 0.04380665 0.0095255915
0.02363871 0.08145663 0.08158528 -0.0006323968 0.1005121 -0.01645652 -0.011885761 0.0898955
0.1314764 0.1265102 0.17964542 0.016361535 0.006271635 0.03412918 0.11912613 0.040832248
0.034717545 0.12842259 -0.006249827 0.08416172 -0.0069554993 0.054169927 0.016289469 -0.012080977
-0.030259289 -0.023966733 -0.085675746 0.082754545 -0.0719029 0.081416115 0.045854833 0.11934692
-0.028410051 0.062047254 -0.07022327 0.1203519 0.055235673 -0.066719525 -0.094662644 0.1671717
-0.002697029 0.099237144 0.0026954995 -0.0037041293 0.06460438 0.0047642146 0.039838143 0.021394946
0.026561966 0.09560126 0.06818814 0.002463228 -0.048870023 -0.047168147 0.086898625 0.025667826
-0.019596579 0.057674687 0.07840377 0.13339014 0.0010941011 0.015215281 0.101907484 0.10275822
-0.042906996 0.0721451 -0.040166955 0.040841423 0.025745986 0.082976155 0.050660625 0.08102738
00000000: b91e c4bc c6a2 e63b 4c34 563d e6e1 2b3c
00000010: 2233 183d ab2a e63c 2092 11bd f43e f7bc
00000020: 6e9d 663d 3c59 8a3b 5b1f 573d bc97 ec3d
00000030: 5e9e 0ebd 6f16 993d c661 41bc 9b5e 103c
00000040: d91b 2d3d 79f2 a43b 18fd db3d 6afa c0b9
00000050: b355 8d3d 0b91 08bd a63e 55bc 2e18 cb3d
00000060: 7be5 733d 3a42 0f3d d1cc 9e3d 36db 833d
00000070: 2486 8b3d 6dd1 273e 2a6b 34bd 406d 80bd
00000080: e189 5fbd 2514 2ebc cb3b 063c 67a8 77bd
00000090: 3312 bebc e6c5 b53d a234 203c e93d 833d
000000a0: e153 703d 4533 943c 187f c33c d1a0 923d
000000b0: 0775 6d3d 9fd6 8d3d e1dd efbc e1bc ad3d
000000c0: e8a0 98bd e19d 893d 9310 173e 5f4e b4bc
000000d0: aaf9 12bd 52cf 873d 9a6e 333d 3a11 1c3c
000000e0: f8a5 c13c bcd2 a63d 2f16 a73d 6ec7 25ba
000000f0: 4ad9 cd3d d3cf 86bc 7fbc 42bc 221b b83d
00000100: c0a1 063e e48b 013e f8f4 373e a008 863c
00000110: 4a82 cd3b 0acb 0b3d 67f8 f33d b73f 273d
00000120: fc33 0e3d 3681 033e 59cb ccbb fb5c ac3d
00000130: f5ea e3bb 49e1 5d3d 7e71 853c 4aef 45bc
00000140: 54e2 f7bc e255 c4bc c476 afbd 377b a93d
00000150: d441 93bd 7ebd a63d 47d2 3b3d 286c f43d
00000160: 32bc e8bc 4325 7e3d 38d1 8fbd 0f7b f63d
00000170: cd3e 623d 3fa4 88bd 7dde c1bd 0f2f 2b3e
00000180: a3c0 30bb d83c cb3d faa6 303b fac0 72bb
00000190: 4d4f 843d 211d 9c3b 522d 233d 7444 af3c
000001a0: 7b98 d93c 98ca c33d 39a6 8b3d 1c6e 213b
000001b0: ef2b 48bd 6333 41bd e8f7 b13d 5545 d23c
000001c0: 0189 a0bc 4b3c 6c3d 2892 a03d 6d97 083e
000001d0: f167 8f3a 8449 793c dfb4 d03d e772 d23d
000001e0: 3fbf 2fbd cfc0 933d 1b86 24bd 5649 273d
000001f0: 3fe9 d23c 67ef a93d 8481 4f3d aff1 a53d

fc2.weight f4 [64, 128]
-0.010300936 -0.08780521 0.008756759 0.06755634 -0.046906386 -0.1792859 -0.07195887 0.0907808
-0.113979876 0.029510738 0.002188933 0.1309738 -0.033881005 -0.0671373 -0.06176979 0.08185241
-0.029068934 -0.16984427 0.11944281 0.04809002 -0.0022376452 0.17484045 0.046422724 0.09991508
0.051900115 0.102295384 -0.1699508 -0.034280147 0.12083087 -0.023398766 -0.023234334 -0.038436174
7.331857e-05 -0.047794152 0.122528546 0.061129734 0.046277244 0.024935683 0.027760986 -0.06764975
-0.0002871867 -0.0722919 0.06811035 -0.065869786 0.115896724 -0.027401956 0.019722888 0.1349157
0.16086325 0.12073283 0.09771136 0.02518963 0.0032815638 -0.37548533 0.09703049 0.22943209
-0.113358885 0.0372287 0.05712491 -0.027596923 -0.030459106 0.15777892 0.03609894 0.09628969
-0.05880027 0.1822937 -0.11231862 0.094624735 0.061974663 0.03160709 0.12424607 0.099041365
-0.04861182 0.18499987 0.101750545 0.086883314 -0.15205869 0.2412524 -0.16991158 0.007186478
0.1647042 0.14649212 0.112012096 -0.008130366 -0.05890861 0.089905016 0.054581996 0.12569614
0.079333626 0.114372306 0.044021413 0.11186471 -0.007749642 0.09275188 0.21125592 0.23165017
-0.008157275 0.096719526 0.04248038 -0.10820471 0.005328795 0.122102015 0.10414626 0.020046728
-0.08376391 0.0859645 -0.23021132 0.080592275 0.11651139 0.017301017 -0.19248697 0.06721785
-0.0029050284 -0.03899715 -0.033177663 0.055563554 0.074224025 0.031084148 0.26424724 0.22265573
0.05411609 -0.020304957 -0.047094233 -0.08532971 0.0376796 0.023527602 -0.11106389 0.15958893
-0.0048991577 0.15140343 -0.26064226 -0.08534625 0.016650237 0.012645588 0.015542667 -0.22290172
0.032955535 0.17868763 0.009735321 -0.070104495 0.11036731 0.114446744 -0.19441381 -0.23775303
-0.0836397 -0.08075007 0.0703363 -0.14292623 0.018271673 -0.0930711 0.069733344 0.3740375
-0.30591148 0.11187257 0.0055045537 0.09754149 -0.015922574 0.079556935 -0.059778515 -0.1865749
0.06795095 -0.165761 -0.26618278 0.03492374 -0.09749045 0.06568451 0.108057655 -0.0063436134
-0.00750555 0.04204236 -0.38004106 0.04426207 0.14145377 -0.08752205 0.05432366 -0.14468914
-0.1516739 0.08745548 0.014290322 0.062492855 0.034144636 0.17613228 0.10051644 0.028130792
0.32735765 0.058137383 0.027693372 -0.18759108 0.046688486 -0.13286181 -0.1962391 0.11350653
0.06664137 0.12275156 0.17363924 -0.05635994 0.21391869 0.07885991 0.10537273 0.0995452
-0.08408381 0.17119324 -0.051780924 0.10422339 0.080704816 0.103935435 -0.06273841 -0.05048804
-0.15801378 -0.12931876 -0.0033784052 -0.119688734 0.1311413 0.14789231 -0.14617552 0.18286252
-0.082966104 0.028368777 -0.20514312 -0.012705483 -0.042662133 -0.06095262 -0.06101538 -0.03389192
0.016004628 0.026477894 0.09622481 0.0702262 -0.118500456 -0.078121826 -0.090090595 0.14523079
0.36501387 0.10389783 0.2990557 -0.03337452 -0.27454582 0.047272697 0.175104 0.032058544
0.100309156 -0.017403048 -0.09895774 0.20095435 0.009295983 0.07574645 0.029787274 0.17483166
0.01850377 0.10009349 -0.07678939 0.026353376 -0.085573494 0.08324488 0.0032820643 -0.09709334
00000000: 42c5 28bc 38d3 b3bd 8278 0f3c fa5a 8a3d
00000010: e920 40bd b996 37be 2c5f 93bd 49eb b93d
00000020: 486e e9bd 81c0 f13c 3474 0f3b ff1d 063e
00000030: cfc6 0abd 487f 89bd 5202 7dbd 3da2 a73d
00000040: f921 eebc a8eb 2dbe 6f9e f43d 0afa 443d
00000050: 75a5 12bb 6009 333e c125 3e3d 47a0 cc3d
00000060: 3795 543d 3e80 d13d 9507 2ebe 5769 0cbd
00000070: 2d76 f73d c5ae bfbc ee55 bebc 406f 1dbd
00000080: 9cc2 9938 cdc3 43bd 3ff0 fa3d 2c63 7a3d
00000090: 358d 3d3d eb45 cc3c 026b e33c f48b 8abd
000000a0: 8c91 96b9 c70d 94bd 707d 8b3d bde6 86bd
000000b0: 435b ed3d 117a e0bc e591 a13c 5727 0a3e
000000c0: 56b9 243e c642 f73d e51c c83d 7c5a ce3c
000000d0: 810f 573b 9d3f c0be ecb7 c63d 3ff0 6a3e
000000e0: b428 e8bd 1f7d 183d cffb 693d f112 e2bc
000000f0: 6085 f9bc cc90 213e 7bdc 133d 8733 c53d
00000100: 8dd8 70bd 33ab 3a3e 4e07 e6bd 9dca c13d
00000110: 25d9 7d3d 7076 013d b974 fe3d 33d6 ca3d
00000120: 301d 47bd 9b70 3d3e 9762 d03d e1ef b13d
00000130: 46b5 1bbe df0a 773e 4dfd 2dbe 8c7c eb3b
00000140: 38a8 283e 0802 163e 9966 e53d 3a35 05bc
00000150: 284a 71bd 1f20 b83d 5f91 5f3d 7db6 003e
00000160: ab79 a23d 073c ea3d cc4f 343d 5319 e53d
00000170: b5f0 fdbb b3f4 bd3d 7953 583e b435 6d3e
00000180: 17a6 05bc e314 c63d e8ff 2d3d 6e9a ddbd
00000190: 2c9d ae3b 9f10 fa3d a24a d53d 0939 a43c
000001a0: 6a8c abbd 280e b03d 84bc 6bbe 900d a53d
000001b0: 869d ee3d ddba 8d3c 4e1b 45be 83a9 893d
000001c0: 4a62 3ebb 7abb 1fbd 4de5 07bd 9c96 633d
000001d0: c402 983d 2fa4 fe3c 6a4b 873e ddff 633e
000001e0: d5a8 5d3d 9556 a6bc e2e5 40bd 58c1 aebd
000001f0: ed55 1a3d f5bc c03c 7775 e3bd 486b 233e
00000200: 1d89 a0bb 8009 1b3e e772 85be 04ca aebd
00000210: 1466 883c 712f 4f3c aca6 7e3c 5940 64be
00000220: 62fc 063d e4f9 363e e580 1f3c f292 8fbd
00000230: 4208 e23d 0e63 ea3d 6a14 47be 8875 73be
00000240: 4b4b abbd 4b60 a5bd 7a0c 903d 415b 12be
00000250: 7aae 953c 109c bebd 5bd0 8e3d d881 bf3e
00000260: 6ea0 9cbe 721d e53d 8b5f b43b d5c3 c73d
00000270: 0f70 82bc bfee a23d 51da 74bd 7e0d 3fbe
00000280: de29 8b3d 40bd 29be 1c49 88be 320c 0f3d
00000290: 13a9 c7bd 9a85 863d 554d dd3d 16de cfbb
000002a0: 1ef1 f5bb 9c34 2c3d be94 c2be 254c 353d
000002b0: 42d9 103e c33e b3bd 7c82 5e3d 6429 14be
000002c0: 6750 1bbe dc1b b33d f421 6a3c 82f8 7f3d
000002d0: 3fdb 0b3d 055c 343e 90db cd3d 8c72 e63c
000002e0: 6c9b a73e 7721 6e3d 36dd e23c e017 40be
000002f0: 6d3c 3f3d ed0c 08be e7f2 48be 1d76 e83d
00000300: 457b 883d 2b65 fb3d 7cce 313e aed9 66bd
00000310: 800d 5b3e 4e81 a13d a8cd d73d 5bde cb3d
00000320: 2234 acbd 484d 2f3e 3c18 54bd 1373 d53d
00000330: 9148 a53d 1adc d43d ff7c 80bd 8ccc 4ebd
00000340: 5dce 21be 236c 04be 3c68 5dbb 5e1f f5bd
00000350: e849 063e 1571 173e 09af 15be 5040 3b3e
00000360: 22ea a9bd a365 e83c 0a11 52be a82a 50bc
00000370: 7dbe 2ebd 74a9 79bd 43eb 79bd 41d2 0abd
00000380: 231c 833c 2be8 d83c 8311 c53d c1d2 8f3d
00000390: 5eb0 f2bd 56fe 9fbd 6b81 b8bd 61b7 143e
000003a0: 19e3 ba3e 63c8 d43d d41d 993e b8b3 08bd
000003b0: 4591 8cbe 04a1 413d 774e 333e d24f 033d
000003c0: e36e cd3d d690 8ebc 5baa cabd fac6 4d3e
000003d0: 2e4e 183c f420 9b3d 7104 f43c 1207 333e
000003e0: 3895 973c d1fd cc3d c143 9dbd 09e3 d73c
000003f0: 2841 afbd 4b7c aa3d e717 573b dfd8 c6bd

fc2.bias f4 [64]
0.016935032 0.04546484 0.15483557 -0.013940643 0.03591428 0.06814752 0.04520589 -0.00079925027
0.07060046 -0.08293387 0.044690873 0.0618868 0.03132317 0.063773766 -0.0531695 0.035308797
0.16157405 -0.013933413 0.12156192 0.11703872 -0.043950997 0.09158313 0.03023161 -0.031728305
0.053870335 0.10034641 0.13357666 0.04571521 0.06193009 0.05231359 0.02477023 -0.03295713
0.017663274 -0.008911889 -0.07621621 0.078384995 0.15760653 0.029130043 0.003846791 0.071415976
0.13293786 0.00974253 -0.099129334 -0.0153982965 0.088332936 0.1410622 0.112856545 -0.016234653
-0.0051394375 0.07129815 0.06827613 0.038003456 -0.09274752 0.10158593 -0.09039586 0.056982722
0.11890638 -0.0037408895 -0.009510959 0.0220479 -0.06783544 0.094070576 0.054080892 -0.047573585
00000000: 56bb 8a3c 5739 3a3d 378d 1e3e 4b67 64bc
00000010: da1a 133d ed90 8b3d d029 393d c784 51ba
00000020: f996 903d 3cd9 a9bd c70d 373d 037d 7d3d
00000030: b94c 003d d29b 823d 43c8 59bd f59f 103d
00000040: ab73 253e f848 64bc 75f5 f83d ffb1 ef3d
00000050: f605 34bd f08f bb3d 48a8 f73c 8af5 01bd
00000060: 24a7 5c3d 6b82 cd3d 52c8 083e df3f 3b3d
00000070: 68aa 7d3d c646 563d f0ea ca3c 0efe 06bd
00000080: 92b2 903c 2c03 12bc 3f17 9cbd 5088 a03d
00000090: 9b63 213e 21a2 ee3c 721a 7c3b 8a42 923d
000000a0: dd20 083e 229f 1f3c 5204 cbbd 2349 7cbc
000000b0: e6e7 b43d 9c72 103e 5521 e73d 89fe 84bc
000000c0: ba68 a8bb c404 923d 5bd4 8b3d 83a9 1b3d
000000d0: 69f2 bdbd 490c d03d 7721 b9bd b766 693d
000000e0: 3085 f33d b629 75bb dad3 1bbc cc9d b43c
000000f0: 4fed 8abd 13a8 c03d ed83 5d3d 85dc 42bd

fc3.weight f4 [10, 64]
0.19810922 0.045377042 0.014054032 -0.23134847 0.121124215 -0.050577287 0.32609707 -0.13010713
-0.2195066 0.05343696 0.003611093 -0.21816358 -0.12981468 -0.22369863 0.16783483 0.09156488
-0.22025226 -0.17176132 -0.24170822 -0.18784569 0.16288769 0.15189657 -0.0777071 -0.11398242
-0.22359264 -0.02395305 0.07938482 -0.22082444 -0.2578716 0.11512519 0.13398524 -0.055178218
0.21580562 -0.13191292 -0.063951895 -0.1244723 0.14992654 0.074535795 0.10123105 -0.00059946364
-0.1450318 -0.041799065 -0.045984283 -0.0211832 -0.010942331 0.024666585 -0.22479768 0.08540014
-0.0009190335 -0.007177902 -0.07933902 -0.1733965 0.09404807 -0.11155656 0.0057215057 -0.24452126
-0.099497996 -0.08288653 0.089167014 -0.007250097 0.17683762 -0.16769306 -0.0918073 0.1221464
-0.19629401 0.10860231 -0.12246085 0.18122625 0.17637868 0.14144558 -0.1519708 -0.105493024
-0.15651582 0.011660269 -0.10323267 -0.11429647 0.074453935 0.07223993 -0.23242255 0.043786217
-0.19695814 0.12305323 0.055705182 0.031395946 -0.29663098 -0.17240216 -0.2775205 -0.11204701
-0.0930733 -0.17838635 0.072842635 0.1769788 0.1652061 -0.09554674 0.21553369 0.00623551
-0.038400427 -0.09346719 -0.051639296 0.20591787 -0.08474512 -0.006422751 -0.28285608 -0.1389091
-0.1553267 -0.22507988 0.050845116 -0.23025058 -0.10637049 -0.23956355 0.21240695 -0.12698299
0.23476665 -0.16500275 -0.26811036 -0.100231506 -0.17716023 0.12766716 -0.10255074 0.24720389
0.13323599 0.04922958 -0.12529746 0.08114451 0.015380398 0.19477035 -0.024668435 -0.09906908
-0.033156566 0.08452615 -0.18025796 0.07710621 -0.027101243 -0.24787669 0.21323688 0.023302788
0.11095754 0.037465364 -0.20767757 0.10489971 -0.12964693 -0.19920944 -0.034846637 0.16043332
0.20723929 -0.0092026 -0.0195361 0.1631883 0.15703826 -0.23966074 0.15473887 -0.026188023
-0.23891261 0.20034204 0.10357716 -0.26178998 0.17331739 0.124321796 -0.07627662 0.07988498
-0.060351837 -0.0939585 -0.050487507 -0.2221875 0.046345785 -0.009767301 0.104545906 0.11345358
-0.09421652 -0.30154163 0.06259757 -0.2934807 -0.25399548 -0.063988686 0.11597703 -0.0802577
0.040760837 -0.040902574 0.037681628 -0.10363302 0.11728235 0.0916245 -0.24384035 -0.026054855
0.21742012 -0.055087756 -0.1029942 0.048236806 -0.022383783 0.1364655 0.04505422 -0.22897644
-0.06679498 -0.14014642 -0.22188169 0.07803907 0.08683626 0.13316146 -0.11986594 0.13178903
-0.107882574 0.08610756 0.03651219 0.124646336 0.12867717 -0.083664 0.10418284 0.09062069
0.06625621 0.118160635 -0.099424 0.011086953 0.10005262 0.067368574 -0.10776785 -0.016656874
0.17486723 -0.12804307 -0.20638455 0.1891553 -0.1036957 0.018740794 -0.27680856 0.11510741
-0.08405696 0.11628188 -0.06540294 -0.3068878 -0.21103913 0.17914835 -0.055865817 0.13908674
-0.2547583 0.12247656 -0.08637175 -0.20741728 -0.30294818 -0.027187483 -0.15224111 -0.113526985
0.1856807 0.18695773 -0.07094749 -0.07868132 -0.07112492 0.114889145 0.10836464 -0.3590792
-0.041369777 0.0065167444 -0.057026062 -0.10559277 0.1425077 -0.27448553 -0.1306509 -0.14636265
00000000: 25dd 4a3e 47dd 393d e242 663c 9de6 6cbe
00000010: f90f f83d 212a 4fbd 32f6 a63e ce3a 05be
00000020: 57c6 60be b7e0 5a3d 16a8 6c3b 4666 5fbe
00000030: 24ee 04be 4111 65be e5dc 2b3e 5e86 bb3d
00000040: cf89 61be 33e2 2fbe 5c82 77be 9f5a 40be
00000050: 08cc 263e c68a 1b3e e624 9fbd 9d6f e9bd
00000060: 78f5 64be 3039 c4bc 8294 a23d cd1f 62be
00000070: bf07 84be c1c6 eb3d 6d33 093e 8e02 62bd
00000080: 26fc 5c3e 2e14 07be 36f9 82bd 55eb febd
00000090: 5886 193e 39a6 983d 3a52 cf3d 5325 1dba
000000a0: 3783 14be 7f35 2bbd 045a 3cbd 6488 adbc
000000b0: 7647 33bc 9411 ca3c 5d31 66be 45e6 ae3d
000000c0: 4beb 70ba 9b34 ebbb 7f7c a2bd da8e 31be
000000d0: 469c c03d c477 e4bd 787b bb3b c863 7abe
000000e0: 9bc5 cbbd 6ac0 a9bd 329d b63d 3992 edbb
000000f0: ec14 353e bbb7 2bbe 7705 bcbd e427 fa3d
00000100: 4c01 49be e36a de3d c1cc fabd 6093 393e
00000110: 9d9c 343e 1cd7 103e 3c9e 1bbe ba0c d8bd
00000120: af45 20be b70a 3f3c a66b d3bd 4514 eabd
00000130: 4e7b 983d 87f2 933d 2d00 6ebe 2d59 333d
00000140: 65af 49be 5503 fc3d 1e2b 643d 0999 003d
00000150: 04e0 97be 318a 30be 2b17 8ebe e778 e5bd
00000160: 379d bebd e9aa 36be 852e 953d ee39 353e
00000170: ca2b 293e 02ae c3bd ddb4 5c3e 4053 cc3b
00000180: c449 1dbd ba6b bfbd ba83 53bd 22dc 523e
00000190: d98e adbd f175 d2bb 83d2 90be 303e 0ebe
000001a0: f60d 1fbe 577b 66be f842 503d cfc6 6bbe
000001b0: c5d8 d9bd 2650 75be 3581 593e d407 02be
000001c0: ab66 703e 7bf6 28be c345 89be 2d46 cdbd
000001d0: 7e69 35be 2ebb 023e 1f06 d2bd 0423 7d3e
000001e0: 046f 083e f5a4 493d fa4d 00be 182f a63d
000001f0: 11fe 7b3c e171 473e 7515 cabc bbe4 cabd
00000200: 2ecf 07bd 0c1c ad3d 8b95 38be dce9 9d3d
00000210: 6d03 debc 63d3 7dbe c55a 5a3e 7de5 be3c
00000220: b53d e33d 4875 193d 6ea9 54be a9d5 d63d
00000230: 2ac2 04be 8ffd 4bbe 59bb 0ebd a248 243e
00000240: 8936 543e 81c6 16bc 2c0a a0bc d51a 273e
00000250: a3ce 203e a069 75be de73 1e3e 4488 d6bc
00000260: 82a5 74be 7726 4d3e 4320 d43d 5609 86be
00000270: 1d7a 313e 6d9c fe3d eb36 9cbd bd9a a33d
00000280: 7d33 77bd 506d c0bd fdcb 4ebd 1f85 63be
00000290: 14d5 3d3d 0807 20bc 2a1c d63d 5a5a e83d
000002a0: 97f4 c0bd aa63 9abe 2833 803d 1a43 96be
000002b0: b20b 82be 800c 83bd 5d85 ed3d 265e a4bd
000002c0: d6f4 263d 7589 27bd 0d58 1a3d 8c3d d4bd
000002d0: bb31 f03d a0a5 bb3d 49b1 79be fe70 d5bc
000002e0: 61a3 5e3e b3a3 61bd a0ee d2bd f593 453d
000002f0: 325e b7bc 9dbd 0b3e c68a 383d cd78 6abe
00000300: cecb 88bd 8b82 0fbe f434 63be f3d2 9f3d
00000310: 36d7 b13d 7a5b 083e 467c f5bd b4f3 063e
00000320: 8af1 dcbd 2959 b03d ce8d 153d 9446 ff3d
00000330: f3c3 033e 0858 abbd d05d d53d 5797 b93d
00000340: 56b1 873d 34fe f13d cf9e cbbd 0da6 353c
00000350: 63e8 cc3d 89f8 893d 64b5 dcbd ff73 88bc
00000360: 6510 333e b91d 03be 7956 53be edb1 413e
00000370: 695e d4bd 4b86 993c dab9 8dbe 6fbd eb3d
00000380: 0e26 acbd 3225 ee3d faf1 85bd 6620 9dbe
00000390: a41a 58be aa72 373e 8ed3 64bd c16c 0e3e
000003a0: ae6f 82be fed4 fa3d ace3 b0bd 3265 54be
000003b0: 061c 9bbe 49b8 debc 18e5 1bbe d680 e8bd
000003c0: 1523 3e3e d971 3f3e eb4c 91bd ac23 a1bd
000003d0: f1a9 91bd 004b eb3d 48ee dd3d 3bd9 b7be
000003e0: 5b73 29bd 6a8a d53b 2994 69bd 0641 d8bd
000003f0: 8aed 113e 5e89 8cbe 59c9 05be 17e0 15be

fc3.bias f4 [10]
-0.08956227 0.0079966895 -0.06073715 -0.016513288 -0.118101574 0.0808809 -0.11752611 -0.023596074
0.05052502 -0.031090997
00000000: 6c6c b7bd 8c04 033c 85c7 78bd e046 87bc
00000010: 3ddf f1bd e3a4 a53d 87b1 f0bd 8e4c c1bc
00000020: 53f3 4e3d 8cb2 febc
