examples/vision/pretrained/mnist_cnn_small.pth (torch_old, 824171 bytes, 8 tensors)

conv1.weight f4 [8, 1, 4, 4]
000000 cb 5b a0 36 ff dc ac b6 25 b4 cf 37 12 ef fb 37
       4.7790577e-06 -5.151727e-06 2.476021e-05 3.0032857e-05
000010 6c a6 5d b6 94 d0 d3 3f 4d be d8 36 e1 6b 54 35
       -3.3028437e-06 1.6548028 6.4594556e-06 7.913314e-07
000020 08 8a 03 37 64 7f ed 37 28 46 40 37 c6 36 ec b5
       7.840346e-06 2.8311923e-05 1.1460426e-05 -1.7599311e-06
000030 d9 2a 4f b5 93 b3 e5 36 e4 32 db 36 c4 46 a3 36
       -7.717586e-07 6.845637e-06 6.532633e-06 4.8660168e-06
000040 23 86 0d b6 f1 29 9b 37 c1 e4 56 3f 56 4f 2a 38
       -2.1088715e-06 1.849697e-05 0.839428 4.0605046e-05
000050 d5 ba 50 b7 75 f9 e4 b6 3a 58 86 b6 44 7c c3 b5
       -1.2441266e-05 -6.82397e-06 -4.003782e-06 -1.4564798e-06
000060 1e 7a 94 b6 a5 0c 3b b6 16 b6 53 37 72 0d c3 36
       -4.42496e-06 -2.7872532e-06 1.2618975e-05 5.813018e-06
000070 d1 40 9b b7 53 54 ac 35 a0 43 b7 b4 4d e2 d3 b7
       -1.8507622e-05 1.283954e-06 -3.413561e-07 -2.525854e-05
000080 49 64 3f 37 4f 02 42 38 04 a5 53 3f 2c ef 5e 35
       1.1407837e-05 4.6255354e-05 0.8267367 8.3049486e-07
000090 b1 5d 37 36 08 1c 5d 37 0c 6b 42 38 35 a7 07 37
       2.732366e-06 1.3179153e-05 4.63529e-05 8.085558e-06
0000a0 9a 0c 9e b6 a4 87 e1 b6 c5 f7 33 b6 e6 42 4b b7
       -4.710234e-06 -6.721313e-06 -2.68173e-06 -1.2115319e-05
0000b0 0b 89 63 b7 d3 f5 1f b8 c4 4b 27 b8 3b ab 0b 36
       -1.3562162e-05 -3.8137496e-05 -3.9886465e-05 2.0812283e-06
0000c0 30 3c c7 37 0e 84 23 36 51 c0 0f 37 89 25 20 37
       2.3750676e-05 2.4365759e-06 8.568241e-06 9.5454825e-06
0000d0 4e ed ba 35 40 75 94 37 10 a9 b2 3f 2d 5d fa 35
       1.3927145e-06 1.7697574e-05 1.3957844 1.8653569e-06
0000e0 bb ef 5b 37 06 04 1f b6 fb bb ff 37 1b 7b 0e b6
       1.3109234e-05 -2.3695188e-06 3.0485904e-05 -2.1231306e-06
0000f0 9a 23 df b6 3f 00 8c b6 3f d6 1d 37 ae cc 55 b7
       -6.6500625e-06 -4.172354e-06 9.407812e-06 -1.2743445e-05
000100 88 55 10 b8 85 41 29 b8 f7 6c 9b 36 fc 2a f8 b6
       -3.4411933e-05 -4.035376e-05 4.632045e-06 -7.39598e-06
000110 31 9f e9 b7 85 21 92 36 93 9f 84 b7 7f bd 1d b4
       -2.7849894e-05 4.3550413e-06 -1.5809934e-05 -1.4690703e-07
000120 07 8c 0c 37 60 22 1d 3f 76 64 d8 36 d5 3c 6d 36
       8.377253e-06 0.6138058 6.448997e-06 3.535116e-06
000130 45 c0 ab 37 10 d6 09 b6 09 55 4b 37 40 7f c4 b5
       2.0474321e-05 -2.0539192e-06 1.2119542e-05 -1.4640173e-06
000140 cf 42 9e 36 73 be cf 3f c4 1f 84 37 33 52 d5 b5
       4.7165445e-06 1.6229995 1.5750418e-05 -1.589366e-06
000150 0e 7e 7c 37 30 23 e7 36 73 21 fd b6 e3 ea 3a b7
       1.504972e-05 6.888433e-06 -7.5438816e-06 -1.1141153e-05
000160 6b 23 11 36 3d 96 08 36 65 b8 6e b6 ff 0c 9e b6
       2.16273e-06 2.035303e-06 -3.5572095e-06 -4.71028e-06
000170 30 4f bc b7 5a 13 08 b8 c6 dc 59 b6 72 e2 01 36
       -2.2448221e-05 -3.244295e-05 -3.2464027e-06 1.9354306e-06
000180 a9 ff 8e b4 9b 6a 9c 36 e5 fe 33 b7 d3 de 96 b6
       -2.6635578e-07 4.661573e-06 -1.0728579e-05 -4.4962885e-06
000190 55 0a 23 36 09 f7 4a b7 19 6c 8f b6 b1 66 b1 b6
       2.4294907e-06 -1.2097656e-05 -4.2743163e-06 -5.286966e-06
0001a0 e7 3f fb b6 e7 2d 9a 36 5c 09 11 b7 3f 33 00 37
       -7.487822e-06 4.5949014e-06 -8.644853e-06 7.641326e-06
0001b0 d6 ea 32 37 e6 83 e7 36 6d be 15 b7 b5 5c 98 b7
       1.0664304e-05 6.8996915e-06 -8.925429e-06 -1.8162982e-05
0001c0 1a 3f a5 36 b9 0f a8 b6 41 a4 a9 37 38 98 99 37
       4.924729e-06 -5.0086205e-06 2.0222857e-05 1.8309904e-05
0001d0 6e 7f 4b 37 5d b7 d4 37 c6 7c 64 37 14 bf 7f b6
       1.2129412e-05 2.5357755e-05 1.361891e-05 -3.8109183e-06
0001e0 ce 6f 97 3f 1a 62 a2 36 f3 d9 af b6 99 e7 11 35
       1.1830995 4.8393968e-06 -5.240779e-06 5.435373e-07
0001f0 80 56 0b 38 bb e6 d6 b5 50 6a b5 36 d2 79 89 b7
       3.3220742e-05 -1.6011394e-06 5.4065968e-06 -1.63884e-05

conv1.bias f4 [8]
000000 fe 36 fe be 34 af 81 be 74 4d 7e be c6 8b d6 be
       -0.4965133 -0.25328982 -0.24834234 -0.41903514
000010 05 ab 3c be 57 39 fa be 70 be ee 3e 9c 84 bc be
       -0.18424614 -0.48871872 0.46629667 -0.36819923

conv2.weight f4 [16, 8, 4, 4]
000000 73 ad a2 37 29 ac a0 38 ba 14 2d 38 4e 47 65 38
       1.9392673e-05 7.661462e-05 4.1265717e-05 5.4664262e-05
000010 55 20 84 38 23 2b 54 3e 4e b5 ca 3e db fe 6e 38
       6.300273e-05 0.2071958 0.3959145 5.6980974e-05
000020 d5 48 a0 38 f3 ea 8d 39 8c ac 5e 39 d0 fe 4f 38
       7.6429606e-05 0.00027068667 0.00021235849 4.958996e-05
000030 03 cb 15 c0 82 a6 22 c0 f3 5b 08 c0 7c 35 71 b8
       -2.3405159 -2.5414128 -2.1306121 -5.750869e-05
000040 70 da d0 b7 2d 09 97 38 6b bd 91 38 66 66 95 37
       -2.489725e-05 7.20195e-05 6.949421e-05 1.7809867e-05
000050 44 55 c7 38 32 85 8b 38 0b 03 c9 38 bf ed 3d 38
       9.5049414e-05 6.652846e-05 9.584994e-05 4.528253e-05
000060 01 47 44 39 dd 11 3b 3e 6e 3c 0d 39 40 53 db 38
       0.00018718468 0.18268533 0.0001346932 0.0001045824
000070 9a 86 d0 38 30 7c b9 38 4b e8 42 38 02 d8 af b8
       9.9432844e-05 8.844619e-05 4.6469544e-05 -8.384885e-05
000080 1d 29 fd 36 28 74 97 38 07 05 89 38 b6 1f 44 38
       7.544774e-06 7.221877e-05 6.5336055e-05 4.6759575e-05
000090 2f d1 c0 38 f5 a1 1d b6 a6 58 93 38 24 71 1e b7
       9.194237e-05 -2.3489094e-06 7.026018e-05 -9.4438765e-06
0000a0 44 44 23 39 95 53 1f 3d d4 ed da 38 7a 27 48 38
       0.00015570322 0.03889807 0.00010439349 4.772048e-05
0000b0 21 d8 be 38 f9 87 fc 38 86 5b 8c 38 68 56 ae b8
       9.100163e-05 0.00012041623 6.692768e-05 -8.313061e-05
0000c0 a5 a4 0d 38 1d 58 83 38 8c 9d 56 38 6e 37 83 38
       3.3770357e-05 6.262979e-05 5.1168303e-05 6.256891e-05
0000d0 a3 f5 c6 38 e0 2c b1 3e ec 65 03 39 35 79 f4 38
       9.487129e-05 0.3460455 0.00012531102 0.00011657403
0000e0 80 a8 31 39 e1 42 1e 39 2a e0 1f 39 89 0c 4e b8
       0.00016942807 0.00015092969 0.00015246929 -4.91259e-05
0000f0 bf 54 24 c0 ac 68 28 c0 bb 84 70 b8 05 b6 9a b8
       -2.5676725 -2.6313887 -5.7344074e-05 -7.377196e-05
000100 1f fd 9e 38 31 4b 94 38 01 53 62 38 ff e7 56 38
       7.5811746e-05 7.0711954e-05 5.3959902e-05 5.123764e-05
000110 3e e8 4b 38 ba c8 42 3d 93 c9 b5 39 4d 19 25 39
       4.8615264e-05 0.04755471 0.00034673195 0.00015745051
000120 28 da 99 38 1f c7 79 38 5b 23 c0 38 98 51 16 38
       7.336243e-05 5.9551672e-05 9.161859e-05 3.5838777e-05
000130 0f 24 c0 38 c5 55 36 b8 e0 61 15 37 5c 42 66 38
       9.16199e-05 -4.347206e-05 8.90388e-06 5.4898075e-05
000140 a9 09 cf 37 74 57 30 38 38 c4 74 38 62 b1 4f 38
       2.4680821e-05 4.2043117e-05 5.8356876e-05 4.9517846e-05
000150 3f 7a b2 38 43 cc 2d 39 db 5a f6 38 5e c2 2a 38
       8.5104715e-05 0.00016574659 0.00011747117 4.0712177e-05
000160 20 a4 c8 38 e3 7e a1 3d 22 30 62 39 f7 6a 0c 39
       9.567314e-05 0.0788553 0.0002157097 0.00013391288
000170 81 a0 73 37 a6 01 05 b8 6d cb d1 38 ec 86 51 37
       1.4521299e-05 -3.1711206e-05 0.000100037876 1.2488785e-05
000180 7a 82 03 3d 6d ef 2e 3b 98 17 3e 3b a9 4d 96 3b
       0.032106854 0.0026693002 0.0029005762 0.0045868945
000190 9c a2 79 bb 5e 95 d7 39 d8 9b d8 39 35 41 6d b9
       -0.0038091308 0.00041119283 0.00041314843 -0.00022626373
0001a0 bd 33 d2 bc 01 f3 8d bc 52 9a df 39 80 63 6d ba
       -0.025659436 -0.017327787 0.00042648852 -0.0009055659
0001b0 1c d7 24 bb ff 8f 33 3b e0 94 48 3b 57 ad 7f bb
       -0.002515263 0.002739906 0.0030606315 -0.003901323
0001c0 ce f0 81 34 ef ca f4 38 df 33 3e 38 bb 3e ad 38
       2.420333e-07 0.00011672626 4.534784e-05 8.260967e-05
0001d0 ee d5 05 b6 9c 75 8f 39 5e 93 07 3e 38 04 5b 39
       -1.9943068e-06 0.0002736271 0.1323981 0.00020887039
0001e0 76 df 85 b8 15 11 0a 38 b8 78 8d 38 79 82 64 b5
       -6.383557e-05 3.2917673e-05 6.7458896e-05 -8.512648e-07
0001f0 38 15 e3 37 fa 68 63 38 c7 39 e3 b8 7e 87 4b b8
       2.707039e-05 5.4218784e-05 -0.00010834965 -4.852516e-05
000200 ee cf 0b b9 8c 60 dc b8 7e d9 25 b8 ac 09 81 38
       -0.00013333533 -0.00010508401 -3.954162e-05 6.153001e-05
000210 45 71 c5 38 d9 d7 ba 37 f9 25 00 39 5a 7b e3 37
       9.41479e-05 2.227344e-05 0.00012221177 2.7117949e-05
000220 5e 25 b4 37 29 86 8f b7 78 d7 0a 39 d5 da 91 36
       2.1475073e-05 -1.7109402e-05 0.00013240974 4.346812e-06
000230 4d 36 26 38 ea a4 06 c0 ca 7f f7 bf 9d d9 fd bf
       3.9628056e-05 -2.1038156 -1.9335873 -1.9832035
000240 c4 af 2b b5 ee 1b 92 37 ca 00 9a 37 83 63 b4 b5
       -6.3958237e-07 1.7417562e-05 1.8358598e-05 -1.3440007e-06
000250 b3 b4 ba 38 9f 2e 9c 37 e8 07 97 38 c4 3b 93 36
       8.902829e-05 1.8618359e-05 7.201714e-05 4.387899e-06
000260 52 dc ea 37 05 fa b6 3e 83 56 c1 3e 8e b2 30 37
       2.7997568e-05 0.35737625 0.37761316 1.05319905e-05
000270 f9 05 bf b8 12 12 8e b7 6d 5b ba 36 00 e5 26 b9
       -9.108702e-05 -1.6936134e-05 5.5538753e-06 -0.00015916303
000280 88 83 54 37 26 cf 4e b7 fa 5e ae 37 94 a7 05 37
       1.2666809e-05 -1.2326787e-05 2.0786643e-05 7.966435e-06
000290 b2 74 a4 38 01 52 b3 b5 20 5e b6 38 b9 50 67 b6
       7.8418656e-05 -1.3360406e-06 8.6959684e-05 -3.446867e-06
0002a0 39 d0 ae 38 4e 9c 0a 3d cc 89 50 3d 42 f4 a9 b6
       8.335751e-05 0.03384047 0.050912663 -5.065028e-06
0002b0 65 78 bb b4 92 9e 22 b7 f0 3a 13 38 3b 40 83 b8
       -3.4919063e-07 -9.6928725e-06 3.510242e-05 -6.2585306e-05
0002c0 ae fb 86 b8 82 6c d8 36 41 49 9b b7 80 95 42 38
       -6.436497e-05 6.4499336e-06 -1.8511551e-05 4.6392437e-05
0002d0 0a ff 2f 37 12 2a ef 37 b3 c9 34 38 ce e5 70 38
       1.0490194e-05 2.851061e-05 4.310319e-05 5.743448e-05
0002e0 01 72 40 37 c0 0a f1 38 ef 28 48 39 b4 bd ac 37
       1.1470635e-05 0.00011493778 0.00019088735 2.0592335e-05
0002f0 e3 3e aa b9 b6 99 f3 bf 7f 8c 0b c0 1a 31 06 c0
       -0.0003247178 -1.9031284 -2.1804502 -2.096747
000300 5e b8 a0 b8 ec ff 87 38 6c 95 5b 38 56 d4 af 38
       -7.6637356e-05 6.484971e-05 5.235283e-05 8.384201e-05
000310 d9 d7 7a 38 7b 29 61 39 0b 7e 5c 3d 61 95 af 3c
       5.980567e-05 0.00021473125 0.05383114 0.021433534
000320 3d e6 46 38 9a 65 74 b7 7e e4 0c 37 69 68 d7 37
       4.7421305e-05 -1.4567189e-05 8.39785e-06 2.5678617e-05
000330 34 13 8a 38 8e 11 0c b8 3f da 8f b8 06 a0 ab b8
       6.58393e-05 -3.339495e-05 -6.859423e-05 -8.183722e-05
000340 24 09 04 b8 63 40 80 37 20 40 16 37 b2 0b d6 36
       -3.1479765e-05 1.5288771e-05 8.955627e-06 6.3790585e-06
000350 20 b0 c2 b8 29 93 29 38 22 c1 95 38 cf 89 af 38
       -9.283447e-05 4.0429793e-05 7.1408474e-05 8.370319e-05
000360 68 41 4e 38 56 8c 91 38 a7 e7 6a 3e 61 6b 8c 3e
       4.917514e-05 6.9402784e-05 0.22939931 0.27425674
000370 fa a7 d8 37 3e a4 f2 b8 c7 d1 fc b6 13 d7 d1 37
       2.5827427e-05 -0.00011570052 -7.5346065e-06 2.5014893e-05
000380 8a 08 b7 bc c7 6a d6 3a 0c 5d a1 3c 0e f3 0e 3c
       -0.022342939 0.0016358726 0.019697689 0.008724941
000390 bc d9 f9 3c 5d 5e 09 3c 8c b6 52 3c ff 2b a8 b8
       0.030499332 0.008384314 0.012860905 -8.019059e-05
0003a0 12 55 0e bc c8 0d 07 bd 5e 90 20 bd a6 6e 40 b9
       -0.0086872745 -0.032972127 -0.03920018 -0.00018351767
0003b0 63 58 a2 39 69 21 85 3b f7 98 85 3b 5b 37 03 bc
       0.000309649 0.0040628207 0.0040770727 -0.008008803
0003c0 e3 33 8f b8 9b af 48 b6 c8 9c 5e 37 ff 7b 97 38
       -6.828436e-05 -2.9904538e-06 1.3268735e-05 7.223337e-05
0003d0 73 38 5e b7 92 c9 5c 37 4f de c5 3d 21 a1 17 3e
       -1.3245374e-05 1.3159954e-05 0.096615426 0.1480756
0003e0 7a 86 6f b5 a8 7f 98 37 e4 aa ab b7 10 2e 81 38
       -8.923013e-07 1.8179257e-05 -2.0464366e-05 6.159779e-05
0003f0 eb f9 08 b9 9b 12 ba 38 22 07 14 b9 bc 9b d8 b8
       -0.00013063072 8.872637e-05 -0.00014117037 -0.000103286904

conv2.bias f4 [16]
000000 6b d1 6b 3a 0d 92 16 3c 8c cb 25 3e dd b9 9c 3d
       0.0008995744 0.009190095 0.16190928 0.07652638
000010 e1 c2 55 ba b1 ef 0f 3e 13 93 07 bc cb 96 7a bd
       -0.00081543444 0.14056279 -0.008274811 -0.061178964
000020 90 20 28 3e fe 2b a7 3b c8 c6 ac 3c fa 6c 80 3e
       0.16418672 0.00510168 0.02109088 0.25083143
000030 4d 6b 03 bd b9 5c ed bb 5d e9 1e 3e b9 e1 04 3c
       -0.032084752 -0.0072437194 0.15518709 0.008110457

fc1.weight f4 [256, 784]
000000 3c 68 d3 3b 58 68 d5 bb c4 2b 1d b8 d4 8f b8 bb
       0.0064516347 -0.006512683 -3.7472477e-05 -0.00563238
000010 f4 74 df 3a e0 87 a1 b9 21 4c 0f bb 94 a1 b7 ba
       0.0017048405 -0.00030809548 -0.0021865445 -0.0014009946
000020 f7 6c ab 3e f3 a4 14 3e 77 03 8d b8 a7 00 7c b9
       0.3348157 0.14516048 -6.724049e-05 -0.00024032836
000030 20 62 c0 ba 21 3e 8c bb 1b ec 3a 3d 64 c6 55 b9
       -0.0014677681 -0.0042798673 0.045635324 -0.00020387169
000040 dd ac 62 b9 f6 21 e2 ba 85 50 06 ba 1c e0 88 b9
       -0.00021617436 -0.0017252553 -0.00051236927 -0.00026106916
000050 ac 4e fa bb 8f 12 4a 3b 7c 7a 90 b7 0c 41 5a b9
       -0.007638773 0.0030833816 -1.7223174e-05 -0.00020814332
000060 9e 01 cd b8 19 af d6 b8 95 f0 e0 ba e3 33 30 b9
       -9.775463e-05 -0.0001023693 -0.0017161543 -0.00016803997
000070 b9 c7 3c 3c 87 7c 27 ba b6 c6 e6 bb 1e 2e 24 ba
       0.011522227 -0.00063891005 -0.007042731 -0.00062629755
000080 f4 1e f3 b8 bf be be b9 93 ea b5 b8 f2 99 0a 3e
       -0.000115929084 -0.0003638174 -8.6744454e-05 0.13535288
000090 55 a7 50 ba 60 5f e4 b9 a6 eb 0b ba 51 32 bf b9
       -0.0007959505 -0.0004355861 -0.00053375436 -0.00036467848
0000a0 37 40 4e b9 5f 75 e2 b8 27 04 eb 3d 65 00 02 b9
       -0.00019669613 -0.00010798382 0.11475401 -0.00012397913
0000b0 ea 3e c1 b9 1e 62 fe b8 eb 11 0a bb 12 3b 8d b6
       -0.00036858703 -0.000121299396 -0.002106781 -4.209004e-06
0000c0 59 0e 83 3e 99 eb a1 3c 48 5d 08 bd d4 b2 eb ba
       0.25596884 0.019765662 -0.033292085 -0.0017982372
0000d0 cb 37 2a 3c c8 a6 9b b9 64 b5 55 bb 21 4d 73 36
       0.010389279 -0.00029688166 -0.0032609338 3.6254717e-06
0000e0 83 58 01 3f 47 eb 5f 3e 46 50 8e b8 73 b1 b5 b8
       0.50525683 0.21867095 -6.78604e-05 -8.663805e-05
0000f0 7e dd 15 bb 94 45 97 ba 9c c6 b0 ba 0a 88 9a b8
       -0.0022867615 -0.0011541122 -0.0013486925 -7.3686315e-05
000100 45 88 32 b9 04 d4 35 b9 5c fb 96 b9 a6 41 3e ba
       -0.00017026167 -0.00017340487 -0.00028797507 -0.0007257707
000110 37 b1 df b8 a1 a8 97 bb 90 9e 00 b7 c0 a8 79 b8
       -0.000106664775 -0.0046282564 -7.666313e-06 -5.9523387e-05
000120 5d 74 6a ba c9 71 8c ba 5f f1 d5 b9 60 23 b2 ba
       -0.0008943731 -0.0010715063 -0.0004080636 -0.0013590865
000130 af 29 b1 3b 12 15 04 bb 6a 68 37 bb 5e 7d 1e bc
       0.0054065804 -0.002015416 -0.002798582 -0.009673445
000140 ca 75 53 b9 98 c9 da b9 8f bd 80 ba 73 48 ac ba
       -0.00020166408 -0.000417304 -0.0009822118 -0.001314415
000150 ee 88 21 ba 3e 9b 15 ba 3e 68 d9 b9 40 d1 86 b9
       -0.0006162067 -0.0005707032 -0.00041467132 -0.00025714375
000160 c1 2f 77 b9 f3 8b cb b8 d8 b8 b9 3d 0d 35 07 3f
       -0.00023573545 -9.705862e-05 0.09068459 0.52815324
000170 a4 50 c6 b9 27 81 02 bb 09 dd 09 ba 23 0b 2e b8
       -0.00037825585 -0.0019913407 -0.0005259072 -4.1495205e-05
000180 f3 e0 33 3e 5f 8f 20 3c 82 9f 05 bd 41 17 d2 bc
       0.1756628 0.009799807 -0.03262282 -0.025645854
000190 05 77 f9 bc f2 41 f5 bc 7d db 9b bc 4b 96 a1 bc
       -0.03045226 -0.029938672 -0.019025559 -0.019724986
0001a0 5b 96 3f bd 7d 7e c8 3b f9 08 90 bc 6b b9 8d bc
       -0.04677425 0.006118594 -0.017582403 -0.017300328
0001b0 48 f5 49 bc 2b 67 f6 ba ae 60 cc bb 54 5f 61 bc
       -0.012326546 -0.0018799057 -0.006237111 -0.013755638
0001c0 d8 a2 a3 bc 1f 86 b8 bc 97 ee 6d bc c6 27 80 bb
       -0.01997511 -0.022524891 -0.014522216 -0.0039109914
0001d0 72 3f 34 bb 9a fa 39 bb 28 4a d0 3b 83 8b d7 bc
       -0.0027503637 -0.002837813 0.0063564964 -0.026311642
0001e0 ee b3 66 bc 41 7e a1 bb 29 2f 13 bc 21 c2 a3 bc
       -0.0140809845 -0.0049283807 -0.008983412 -0.019990029
0001f0 86 e8 61 ba ba 10 c8 3d 4e a7 cb bc c2 6c 27 bc
       -0.00086177175 0.09768815 -0.02486005 -0.010218801
000200 1a 75 4f bb fe e0 0d bb aa 24 8d ba 8a cb 46 bc
       -0.0031655491 -0.0021648998 -0.0010768373 -0.012133488
000210 c3 c6 5c bc dd bd d1 bc 07 d8 67 bc 91 31 31 bb
       -0.013475123 -0.02560323 -0.014150626 -0.00270376
000220 f1 71 9c ba 78 31 a6 ba 0a 82 1c bc f0 5a 54 bc
       -0.0011935813 -0.0012679538 -0.009552488 -0.012961134
000230 c3 a7 12 bd cc 05 46 bc a9 b6 2a bc 26 6c bf 3e
       -0.03580452 -0.012086343 -0.010419526 0.37387198
000240 eb 77 bb bb 5a 3c 78 bc b0 30 83 bc 6d 11 0a bd
       -0.0057210824 -0.015151108 -0.016014427 -0.033708025
000250 f1 a2 87 bc 97 69 d4 bc e4 07 6b bc bd 2f 2b bc
       -0.016557189 -0.025929255 -0.014345143 -0.010448393
000260 4b c1 1e bb 8f 22 46 bc 86 87 e6 bc d1 00 a4 bc
       -0.0024224098 -0.0120932 -0.028140794 -0.02001992
000270 7f 83 73 bc 00 00 eb bb 50 6e db ba f7 d2 6e ba
       -0.014862894 -0.007171631 -0.001674125 -0.00091104157
000280 69 d0 32 3c 46 91 ba bc dc fb a4 bc fc 2f 4b bc
       0.010913947 -0.02277435 -0.020139627 -0.012401577
000290 dd 5e ad bb cf 21 24 bc 23 11 89 ba 7d fd f5 bb
       -0.0052908496 -0.010017826 -0.0010457378 -0.007507025
0002a0 ee 70 ae bc 6c a8 81 bc a3 07 07 bc d3 08 18 bb
       -0.021294083 -0.01582738 -0.008241567 -0.002319862
0002b0 e7 a6 51 3f 43 37 10 ba f2 74 4c bc 2f f6 49 bc
       0.818953 -0.00055013987 -0.012479054 -0.012326761
0002c0 40 dd bc bc 9a 0c c8 bb 61 dd 43 bb 6d 47 14 ba
       -0.023054719 -0.006105018 -0.002988659 -0.0005656395
0002d0 1c 8f 92 bb 92 b9 64 bc 90 99 95 bc 45 8a 44 bd
       -0.0044726264 -0.013960259 -0.0182617 -0.047983427
0002e0 2f 24 17 bc f8 14 18 bb a2 b8 9d ba 37 1d 2d bc
       -0.009224935 -0.0023205858 -0.0012033174 -0.010566047
0002f0 4b 19 61 bc d9 c7 d6 bc 08 dd 8a bc c8 70 57 bc
       -0.0137389405 -0.026218342 -0.016951099 -0.013149448
000300 bc de 24 bc 20 9e 92 bb 3e f9 2e bc cf a3 6f bc
       -0.01006287 -0.0044744164 -0.010679541 -0.014626457
000310 51 f5 f4 bc 44 6e 31 bd 0a 1b 26 3c 91 a0 04 ba
       -0.029902132 -0.043318048 0.010138283 -0.00050593266
000320 d7 f0 4c bb 4f 0a f2 3a ed 25 b9 3c d3 33 ca bc
       -0.0031271481 0.0018466207 0.022601092 -0.024682915
000330 97 5e b0 3e 97 a6 31 b9 3a 6b bc b9 5b 04 a9 ba
       0.34447166 -0.00016942095 -0.00035938044 -0.0012894975
000340 b3 9a ed ba 4f 1e 1a bc 07 c2 0c 3c 1e 0c cc ba
       -0.0018127769 -0.00940664 0.008591182 -0.0015567576
000350 4f 1e cc b9 f3 48 3b ba 15 2c cd b9 d9 c8 30 bb
       -0.00038932494 -0.0007144354 -0.0003913349 -0.0026975183
000360 d5 97 7a bb 45 4a ae 3b 92 75 e2 b9 d8 cf 52 ba
       -0.0038237472 0.005318912 -0.00043193676 -0.00080418354
000370 ae 73 a1 b8 b0 a8 87 b9 f2 fa 55 ba 1f 7b c5 3a
       -7.698625e-05 -0.00025874889 -0.0008162699 0.00150666
000380 a9 7a 0c 3d ee 58 bc ba 7f 1e 3e bb 2b 56 c6 ba
       0.034296665 -0.0014369765 -0.0029009876 -0.0015131881
000390 04 c0 21 bb d5 38 1b ba 19 4a f1 bb 53 6e 17 b9
       -0.00246811 -0.00059212494 -0.0073635695 -0.00014441581
0003a0 84 dc 7d ba c4 19 da b9 5b 41 bf b9 f0 18 f6 b9
       -0.00096840435 -0.00041599397 -0.00036479053 -0.00046939356
0003b0 d5 d8 88 b9 ee e5 12 3e b9 41 a8 3a a7 61 d5 3a
       -0.00026101494 0.14345524 0.001283697 0.0016279713
0003c0 41 9b c4 b9 f1 91 b0 ba df f9 c7 bb 7a 94 5a b7
       -0.00037499706 -0.0013471228 -0.006102785 -1.3028382e-05
0003d0 b4 d1 8f 3e 4b 63 6d bd 25 c1 10 bd 0b 5a 87 bc
       0.28089678 -0.05795602 -0.035340447 -0.016522428
0003e0 bb 3f 9f bc db 4f 9e bc c9 05 8b bc 90 47 66 bc
       -0.019439569 -0.019325187 -0.016970532 -0.014055148
0003f0 57 ca 6a bd a4 51 7c bc 54 8b 4b bc 2a 8e 4d bb
       -0.057321873 -0.015400324 -0.012423355 -0.0031365254

fc1.bias f4 [256]
000000 2e 34 89 bc 4b 6c e4 3d a0 d6 83 bd 3d 22 8d 3d
       -0.016748514 0.11153468 -0.06437421 0.06891296
000010 26 85 79 bd 39 27 71 3c 08 27 6a bc 1d 8d 6f 3d
       -0.060917996 0.014718824 -0.014291532 0.058484185
000020 4b 51 a9 3b f3 c1 1d bc b6 e5 94 bd 7d cb ae 3c
       0.0051671616 -0.009628761 -0.072703764 0.021337265
000030 81 6e 65 3d bf f6 4c bc 11 be a4 3d 64 b4 96 bd
       0.056013588 -0.012510001 0.08044065 -0.073586255
000040 8a b7 a6 bd 09 c3 f9 bb 96 c2 ee 3c 83 f0 83 3d
       -0.08140476 -0.007622127 0.02914552 0.06442358
000050 8d c7 b2 3a 68 f8 9d 3c cb 73 64 bd 59 3e b2 3d
       0.0013639793 0.019283488 -0.05577449 0.08703298
000060 6c 0a ad 3c d7 8a 0d 3d 21 33 7f 3b 30 be 21 bd
       0.021123134 0.034556236 0.0038940387 -0.039488018
000070 a6 2b 85 3d 2a 58 90 3c b3 42 23 3d 93 dc 65 3c
       0.06502466 0.017620165 0.03985853 0.01402964
000080 1b db 3e bd ee b7 6a bc 1b 31 a0 3c 87 6f 48 3d
       -0.046595674 -0.014326079 0.019554665 0.048934486
000090 7a 12 51 3d ef 40 4b 3d 74 b4 33 3d f5 69 a2 3d
       0.05104301 0.049622472 0.043873265 0.07930366
0000a0 8a 53 3d 3c 99 d0 82 3d 87 1e 2d ba d3 75 34 3d
       0.011555562 0.06387443 -0.0006603975 0.04405768
0000b0 eb 66 68 3d c3 21 16 3d 3f 75 3b bc 57 4e 1a bd
       0.056738775 0.03665329 -0.011441528 -0.037672367
0000c0 6b 95 a0 bb 3a 25 93 bd 55 30 fa bc 81 57 51 bc
       -0.0049006245 -0.07184835 -0.030540625 -0.01277721
0000d0 49 62 6e 3d 72 80 e2 bc 0d 3e c0 bc 7a f8 0b bc
       0.0581992 -0.027649138 -0.023467088 -0.008543128
0000e0 cc b8 9e 3d ff 5b a2 3d 27 16 08 bd 48 00 22 3d
       0.07750091 0.07927703 -0.03322425 0.03955105
0000f0 77 c2 0e bc 7c 32 37 bd 61 f6 8b 39 27 69 10 bc
       -0.008713356 -0.04472588 0.00026695713 -0.008814133
000100 52 f9 8d 3d 21 f5 96 bb 9f 5a 8f bd a6 e6 0c bd
       0.0693232 -0.0046068584 -0.069997065 -0.03439965
000110 57 cc 04 3e f6 cc 2d bd a2 69 65 bc b6 44 e6 bc
       0.12968574 -0.042431794 -0.014002236 -0.028108936
000120 58 a1 32 bc e0 23 d6 bb b5 d9 2a bb d9 5b f2 ba
       -0.010902725 -0.0065350384 -0.0026069705 -0.0018490508
000130 1a 94 86 3d c2 8b 54 3c a4 e1 94 3d d2 0a 21 bc
       0.06571217 0.012972774 0.072696 -0.00982924
000140 22 32 d9 bc d4 16 c5 3c 63 cb d5 bb 97 f5 19 bd
       -0.026513163 0.024058737 -0.0065244897 -0.03758773
000150 85 78 a7 3d 4a 67 49 3d dd f2 25 3d 81 39 40 3b
       0.08177284 0.04917077 0.040514816 0.002933115
000160 a7 ec 4d bd 94 ec 2a bd a5 e4 51 bb c6 f1 09 3c
       -0.050274517 -0.041729525 -0.0032027152 0.00841946
000170 f3 4b e2 3c 2b c6 d1 3c 0f 14 f2 bc 75 d8 da 3c
       0.027624106 0.02560719 -0.02955058 0.026714543
000180 7e bc 29 3d 15 98 32 3b 44 8e 3b 3d 8f 0b bb 3c
       0.041439526 0.0027251292 0.045789972 0.02283266
000190 e2 a2 38 3c 23 9c 12 bc fa d9 15 3d 41 51 8c 3d
       0.011269303 -0.008948359 0.03658483 0.068514355
0001a0 c6 00 96 3d 4a 49 22 3d 45 a0 cb bc d9 10 f5 3b
       0.07324366 0.039620675 -0.024856696 0.007478815
0001b0 06 b0 6c bc c7 72 e4 bc 6c 4e aa bc f3 a6 f2 bb
       -0.014446264 -0.027886761 -0.020789348 -0.007405156
0001c0 39 f1 b5 3d 0f 8e 89 bb a9 40 33 bb 04 18 29 3d
       0.088839 -0.004197843 -0.0027351773 0.04128267
0001d0 3f 25 b9 3d 33 92 74 3d 41 66 6a 3d 0c ef 5f 3d
       0.09040307 0.05970974 0.057226423 0.054671332
0001e0 f3 ae 34 3c 13 02 a3 3c 1b 80 e4 3c 1c 98 a7 bd
       0.011028039 0.01989845 0.027893117 -0.081833094
0001f0 51 c0 16 bb 19 c5 fd bc 26 36 71 3d 7d 1e 4c bc
       -0.0023002813 -0.030977773 0.05888953 -0.012458441
000200 d1 e3 80 3c 33 ea 48 3d 05 bc 7d 3d b7 db 80 3d
       0.015733631 0.049051475 0.061946888 0.06291907
000210 a4 49 85 3d ec 99 7b b9 34 40 c6 bc 79 9e 9b bc
       0.065081865 -0.00023994566 -0.024200536 -0.018996464
000220 bd b4 95 bc 7d d5 80 3b 5e 59 3e 3d c7 a3 2b 3d
       -0.01827466 0.0039317 0.046471946 0.041904237
000230 2b 1d 4e 3c 1e 59 01 bb 23 d8 dd 3c 1f ba 14 3d
       0.012580196 -0.0019736956 0.027080601 0.03631031
000240 96 20 10 3d 82 d4 b7 ba 21 34 6d 3d ec b6 df 3c
       0.035187326 -0.0014025124 0.057911042 0.027308904
000250 c4 13 5b 3c b4 b8 8c 3d 61 0f b9 3d 23 2d 37 3c
       0.013371412 0.06871167 0.090361364 0.011180195
000260 e5 33 42 3c b7 d1 3e 3d e5 e8 ff 3c a2 dd eb 3c
       0.011853193 0.04658672 0.031238982 0.028792206
000270 ab 6f 31 bd ee 62 22 bd 8c 55 b1 3d 15 7b 1a 3c
       -0.043319385 -0.039645128 0.08658895 0.009428759
000280 be 38 6b 3d 08 48 fe bc 9b 7a a2 bc 46 71 8f bd
       0.05742716 -0.031040207 -0.019833853 -0.07004027
000290 06 68 8a bc c5 bf 7e bc b6 f5 08 bc b0 b0 7b 3d
       -0.016895305 -0.015548651 -0.008359363 0.0614478
0002a0 2b 48 d5 bb 97 e4 43 bd a1 8f 5c 3c 0e 1d 90 3d
       -0.0065088472 -0.047825422 0.013461978 0.07036792
0002b0 36 6d cb 3c a0 ed f0 bb 2c b6 55 bd 1e cb 10 bd
       0.02483235 -0.007352546 -0.052175686 -0.035349958
0002c0 5f 02 eb 3c bf 63 d8 3b 43 03 ec 3c 80 15 c4 3c
       0.028687654 0.0066036875 0.028810149 0.023936033
0002d0 5d 52 1c 3c c3 a1 8a 3c 51 32 0f 3c 34 4f c6 3c
       0.009541121 0.016922837 0.008740024 0.024207689
0002e0 53 eb 22 3d 7e 0f fa bc 39 da bf bc f5 1c 56 bc
       0.039775204 -0.030524965 -0.023419486 -0.013068427
0002f0 09 9d 6a 3d eb 4f 76 3d a7 a8 81 3d 47 79 48 bc
       0.057278667 0.06013481 0.06330996 -0.012235946
000300 dd 92 4c 3b 1d 8d 7b 3c 21 b8 af 3d fb 40 47 bc
       0.0031215467 0.015353468 0.08580042 -0.012161489
000310 b9 0f 8e 3d d3 cc d8 3c d4 14 04 bc 51 d2 9d 3c
       0.069365926 0.026464855 -0.008061606 0.019265326
000320 b0 15 10 3d 67 4d 8c 3c 33 09 f0 3c cd a3 19 3c
       0.035176933 0.017126752 0.029301262 0.009377432
000330 b9 84 a4 3d 60 9f 84 bc e4 57 db bc ad e4 f3 3b
       0.08033127 -0.016189277 -0.026775308 0.0074430318
000340 e1 b9 9c 3c a6 1a b1 bc 2a 9c 15 3d 19 e9 50 bd
       0.019131603 -0.021619152 0.036525883 -0.05100355
000350 47 83 b7 3c 31 7d e5 3c 42 a5 02 3c bf cd 65 bb
       0.022401465 0.028013797 0.007973971 -0.0035065261
000360 91 eb 40 3b 3a de 80 3c 7e ac 4f 3c e4 61 3d 3a
       0.0029437284 0.015730966 0.012675403 0.00072243647
000370 6b ae 7e bc eb cb 47 bc 21 05 86 ba 49 64 27 3c
       -0.015544514 -0.012194614 -0.0010224917 0.010216781
000380 14 eb 5a bd 92 57 0f 3d ab aa 72 3d 48 c5 03 3d
       -0.053446844 0.034995623 0.059244793 0.032170564
000390 01 cd 7a 3c 49 85 32 3d 80 89 0a bc 0a 3f f4 3c
       0.015307666 0.043584142 -0.008455634 0.029815216
0003a0 ea e5 5e bc 0a 18 77 3d a6 da 9b 3d d5 fc a2 3c
       -0.0136046205 0.06032566 0.07610063 0.01989595
0003b0 25 7b 34 bd 8a 38 be bb f7 cc 37 3b 18 5d 8b 3d
       -0.044062752 -0.00580508 0.0028045753 0.068048656
0003c0 d1 cc ae 3c f3 f3 f8 3c 73 d1 bc bc 44 02 1d bd
       0.021337898 0.030389762 -0.023049092 -0.03833224
0003d0 88 ad 25 3d 68 06 36 3d b6 77 26 bd 46 cc 50 3a
       0.040448695 0.044439703 -0.04064151 0.00079650094
0003e0 14 4b b1 bb bb ce 4c 3c 2c 19 11 bd e3 52 ef bc
       -0.0054105613 0.01250046 -0.035424396 -0.029214328
0003f0 37 be 29 bd f3 cc 13 bc 6d 17 8c bc 31 ff 9d bc
       -0.04144117 -0.009021032 -0.017101014 -0.019286724

fc2.weight f4 [10, 256]
000000 e8 18 da 3c 3d 7d ba 3c be 22 5d bc 5c f9 0a 3d
       0.026623204 0.022764796 -0.013497053 0.033929214
000010 2c 30 3a 3d c5 d9 86 bc 17 5f 9f bb b9 33 41 3d
       0.045456097 -0.016461262 -0.0048636305 0.047168467
000020 63 64 c3 3d ab c8 d4 3d 16 1e 9b be cf 24 13 be
       0.095406316 0.10389837 -0.3029639 -0.1436951
000030 bd 06 01 3d 4a 51 eb be 82 6f 10 3c 91 b5 47 be
       0.031500567 -0.45960456 0.008815648 -0.19502856
000040 8e 40 91 3d a5 71 d3 bd d4 57 b8 3d b9 ab 0c bd
       0.07092391 -0.1032441 0.09001127 -0.034343455
000050 53 32 f4 bd 89 a5 94 be f3 c0 22 3c 49 c6 c4 bd
       -0.11923661 -0.29032543 0.009933698 -0.096081324
000060 ac 98 f9 3c f3 32 02 3e 42 0c a8 3d 33 78 84 3e
       0.030468307 0.12714748 0.08205463 0.25872955
000070 32 91 67 3d 44 91 ad 3c a5 30 cc 3d 2e 56 99 3d
       0.056534953 0.021187432 0.09970216 0.074871406
000080 16 a5 da 3d e5 6e af 3b 59 6b 15 3d 34 db 2a 3d
       0.10676019 0.005353796 0.036479328 0.041712955
000090 f3 21 62 3d 14 cd 31 3e bc 4c ef 3c e9 1c 84 3e
       0.055208158 0.17363387 0.029211394 0.25803307
0000a0 c6 27 c9 3c 7d 89 61 3d 60 3b a4 be 71 da 72 bf
       0.024555098 0.05506276 -0.3207655 -0.94864565
0000b0 62 ca 41 be a1 4d 83 3c 37 33 30 3d 6d b6 a9 3c
       -0.18924859 0.016028227 0.043017592 0.02071687
0000c0 55 99 86 3c 74 0d 89 be 06 a0 73 3d 61 8f d2 3d
       0.016430536 -0.26768076 0.059478782 0.102812536
0000d0 44 ac 6e 3f 0c d3 37 be 58 90 bc 3b 71 2d 56 3d
       0.93231606 -0.17951602 0.005754512 0.05228943
0000e0 b8 8e 81 bd 6c 7d 09 3d 52 54 31 bd 24 5d e2 3c
       -0.063260496 0.033566877 -0.043293305 0.027632304
0000f0 80 df 46 3d 3e 27 66 3e 8e 1a dc 3c 12 79 81 bd
       0.04855299 0.22475907 0.026868131 -0.063219205
000100 23 98 ea 3c b1 82 1a 3c bb be 05 3e e0 82 b3 3c
       0.028636998 0.009430573 0.13061039 0.021912992
000110 8f 88 1f bd c4 89 ce 3c 96 63 6a be ec 95 b5 3a
       -0.03894859 0.025212176 -0.22889552 0.0013853884
000120 a8 95 4e 3d 42 66 13 3d 9d a9 74 3d 33 60 23 3d
       0.050435692 0.035986193 0.05973207 0.039886665
000130 9e b9 97 3d a7 31 39 3c 8e 13 bd bd f7 91 d8 bc
       0.074084505 0.011303342 -0.092322454 -0.026436789
000140 62 e9 66 3e 42 78 19 bc 40 bc 6b 3c e7 26 9d 39
       0.22549966 -0.009367051 0.014388144 0.00029974358
000150 43 07 c5 3c 4c fe a0 bc 03 4a 4f 3c 40 6c 6d be
       0.024051314 -0.019652508 0.012651923 -0.23185825
000160 6f 43 1a 3d bd 10 66 bd db 91 f3 bc d4 e4 73 3c
       0.037661966 -0.056168307 -0.029732635 0.0148861
000170 da 5f 6a 3d 0d 81 19 3e dc da 6d bc 14 f2 91 3e
       0.057220317 0.14990635 -0.014517512 0.28505003
000180 63 ee e2 3d 37 69 8b 3c fe 43 57 3d d7 f5 26 3d
       0.11080625 0.017017944 0.052555077 0.040761795
000190 6e b5 32 3e cd 76 55 3c e5 23 14 be 2e 0e 13 3e
       0.17452022 0.013028813 -0.14466818 0.14360878
0001a0 ba 50 33 3d c8 dc d5 3c ae 6c 32 be 02 56 e3 bd
       0.04377816 0.026106253 -0.1742427 -0.11100389
0001b0 e3 41 50 3c e6 ae 22 bc a2 cd 57 3c cb 9b 3d be
       0.012711021 -0.009929394 0.013171585 -0.18516462
0001c0 50 f2 90 3c cd d9 0e 3c b2 5e 46 3d a5 db bd 3d
       0.017693669 0.00871892 0.048430152 0.092704095
0001d0 ad d8 b4 3c 6b c3 c0 3e e3 fc 4f 3d 11 c3 7e 3d
       0.022075975 0.37649092 0.05077828 0.06219775
0001e0 df 21 8d bf d4 52 21 bf 13 f9 0a bf 62 53 65 3c
       -1.1025962 -0.6301701 -0.5428631 0.013996931
0001f0 54 8a 40 be e7 31 d9 bb 5a 0a 65 3d 1b c3 25 3d
       -0.18802768 -0.0066282633 0.055918075 0.04046927
000200 59 cb 95 3c ae dc 09 bf ce 02 08 3e d9 f4 ba 3c
       0.01828544 -0.53852355 0.1328232 0.02282183
000210 bf cf 33 be 2b 86 50 be 7b f4 17 3d 30 f1 53 3d
       -0.17559718 -0.20363681 0.03709839 0.051743686
000220 2e 16 3f be d3 e6 f7 3c ef fb 61 3c 3e 3e 18 3d
       -0.18660805 0.030261433 0.013792976 0.037168734
000230 bb 70 2f bd a0 df ac 3e 30 ed cd bd 4e f1 b5 3d
       -0.042832118 0.33764362 -0.100550056 0.08883916
000240 7d df 56 3e f0 a5 57 3d 10 94 13 bf 5b 2f 6f bf
       0.20983692 0.052648485 -0.576478 -0.93431634
000250 7c 05 09 3d b9 a3 06 3d 9a 6d 28 3d 74 88 d1 3d
       0.033452496 0.03287098 0.04112015 0.102311045
000260 3c 92 9a 3b cf 34 82 bf 30 71 b2 3c 73 fa 75 be
       0.0047171395 -1.0172366 0.021782488 -0.2402132
000270 ff c2 77 be 93 32 25 3d f3 c8 81 3e 25 d5 55 be
       -0.24195479 0.040331434 0.25348625 -0.2088209
000280 59 84 21 3d d0 cf 28 bd ae 13 a2 3d 77 96 c5 3c
       0.039432857 -0.04121381 0.0791391 0.024119599
000290 b3 b8 51 3c 3d af db bb 98 d6 72 3d c2 fc 58 3c
       0.012800383 -0.0067042396 0.059286684 0.013243856
0002a0 05 bd ed bd 62 4d 0c 3d c3 71 36 bf b2 e0 09 bf
       -0.11608318 0.034253486 -0.71267337 -0.5385848
0002b0 58 7b c5 3d 0d 0a a7 3c 0e 45 60 bd 24 b0 a2 3d
       0.096426666 0.020390535 -0.054753356 0.079437524
0002c0 79 43 0f 3d 6f 7f 5b 3d d7 5b 82 3d e9 17 e0 bd
       0.034976456 0.053588327 0.06365173 -0.109420605
0002d0 31 6f 1f be 83 ac 0f 3d 9b 11 45 3c dc b4 ec 3c
       -0.1556976 0.03507663 0.012028123 0.028894834
0002e0 ef 5a 41 be 5e 99 94 3d 76 bd 95 3d 52 23 a4 3b
       -0.18882345 0.07255815 0.073115274 0.0050090933
0002f0 fa 79 9b 3d 89 d1 8c 3b 8a 31 17 3d 46 bd 4c bd
       0.075916246 0.0042974395 0.03691248 -0.049985193
000300 e0 3f 10 3c 01 06 1c 3d 3e 91 82 3c 86 5d 6b 3e
       0.0088042915 0.038091663 0.015938397 0.22984895
000310 42 c8 55 3c e4 04 12 3c d2 8a 0e 3d f1 8e 38 3e
       0.013048233 0.008912299 0.034800358 0.18023278
000320 f7 a2 9c 3d b8 e9 9e 3d b6 61 17 3d b7 f3 f4 bc
       0.076482706 0.07759422 0.03695842 -0.029901369
000330 7f e4 a0 3d 97 9b ad 3c 80 28 2f 3d e1 c9 1e bf
       0.07856082 0.021192355 0.042763233 -0.6202679
000340 f6 fe f8 3d 5e 1b 79 bd e0 b9 2e 3d 0d 28 a5 3d
       0.12158005 -0.060817115 0.042657733 0.0806428
000350 94 d4 ac 3c af 24 29 3d 6d ba 8c bd ca 3b 33 3d
       0.021097459 0.04129475 -0.068714954 0.04375819
000360 aa 7f 67 3d 3f 73 ce 3c 74 69 ed be 9b 3c 40 be
       0.056518234 0.025201438 -0.46369517 -0.18773119
000370 7d a4 33 bd f7 07 73 bb e4 b9 62 3c 98 de 08 be
       -0.04385804 -0.0037083605 0.013838265 -0.13366163
000380 75 6d 3f bf e0 34 47 3d 05 79 d5 3c 6f b3 5d 3d
       -0.74776393 0.04863441 0.026058683 0.0541262
000390 e8 eb bd 3d e4 01 9f 3d a4 93 47 3d b3 d1 d9 bf
       0.09273511 0.077640325 0.048724785 -1.701712
0003a0 57 a9 f0 3c de bc dc 3d e7 bd a8 3d 3a e0 05 3e
       0.029377623 0.10778211 0.08239346 0.13073817
0003b0 96 b8 07 3d 24 87 90 3c e9 a4 0b 3d 98 ba 38 3d
       0.03313502 0.017642565 0.034092817 0.045099825
0003c0 ca 69 45 3d 80 60 21 3e d4 26 4e 3d 57 e6 2d bd
       0.04819659 0.15759468 0.050329998 -0.042455997
0003d0 a3 b3 df 3c 2b 3b cb 3c 3a 2f 17 3d 3c bd 04 3d
       0.027307337 0.024808487 0.036910273 0.03240703
0003e0 9e ab e0 3c 4d 08 bd 3c 68 70 6d 3c c5 84 6a 3b
       0.027425583 0.023075247 0.014492132 0.0035784703
0003f0 74 10 b6 3e d1 76 4b 3d c5 29 8a 3c 0e 3f 9c bd
       0.35559428 0.04967386 0.01686562 -0.07629214

fc2.bias f4 [10]
000000 e0 20 ab 3d 71 b5 49 3d 63 6c 80 bc 87 41 a4 bd
       0.0835588 0.0492453 -0.015676683 -0.08020311
000010 12 58 8b 3d e7 d4 1c 3d 02 1d 7c 3d e3 2c 05 be
       0.068039075 0.038288977 0.0615511 -0.13005404
000020 e7 b4 0e 3d a0 87 e7 bc
       0.03484049 -0.028262913
