examples/vision/pretrained/test_min_max.pth (torch, 131643 bytes, 14 tensors)

seq1.0.weight f4 [16, 1, 4, 4]
0	0x3e82cb81	0.25545886
1	0x3eaca750	0.337214
2	0x3f0f2094	0.55909085
3	0x3e03511a	0.12823907
4	0x3f1bcc9a	0.6085907
5	0x3efa24ed	0.48856297
6	0x3f668263	0.90042704
7	0x3f11e6f5	0.5699304
8	0x3ef9b0bd	0.48767653
9	0x3f434f2b	0.76292676
10	0x3f1a5f06	0.60301244
11	0x3f2a9292	0.666299
12	0x3eb234c8	0.34805894
13	0x3e2b8ce5	0.16752966
14	0x3e9b3e2f	0.3032088
15	0x3cc91e38	0.024550542
16	0xbdf659ee	-0.120288715
17	0x3dfc78e8	0.123277485
18	0xbdd739a0	-0.10509038
19	0x3c6bfac1	0.014403046
20	0xbe99514e	-0.29944843
21	0xbe22af9c	-0.15887302
22	0xbd98cab1	-0.07460535
23	0xbe5cc329	-0.21558823
24	0x3e78c571	0.24294068
25	0xbe2ab32a	-0.16669908
26	0x3e43820c	0.19092578
27	0xbd61c12a	-0.055115856
28	0x3eb8fe55	0.3613154
29	0xbdbe0a5c	-0.0927932
30	0x3e207367	0.15669023
31	0x3d111967	0.035424616
32	0x3e3b472b	0.18288867
33	0x3e22c709	0.15896238
34	0x3d9d3a5b	0.07677146
35	0x3e2741fe	0.16333768
36	0xbe7acf68	-0.24493182
37	0x3df34667	0.118786626
38	0xbad161a6	-0.0015974536
39	0xbe9cfdeb	-0.30662474
40	0xbe55faa7	-0.20896398
41	0xbe8d56a4	-0.27605164
42	0xbe89a5b1	-0.26884225
43	0x3c10d5de	0.008840052
44	0xbe87c0ac	-0.26514184
45	0xbe420527	-0.18947278
46	0xbe06bbd4	-0.13157588
47	0xbe6060af	-0.21911882
48	0x3e6c3f1f	0.23070954
49	0xbe540415	-0.20704682
50	0xbe011f64	-0.12609631
51	0xbe311919	-0.1729473
52	0x3e8267b2	0.25469738
53	0xbd77a9ed	-0.06046479
54	0xbdd8f2de	-0.10593198
55	0x3e6672b6	0.22504696
56	0xbe3ac9cb	-0.1824104
57	0xbe1acad2	-0.15116432
58	0xbe6102ae	-0.21973678
59	0xbddd285a	-0.10798712
60	0xbe6a2c6f	-0.22868513
61	0x3c0e1dab	0.008674066
62	0x3d1163c0	0.03549552
63	0x3d9ecfea	0.077545
64	0xbe110144	-0.14160639
65	0xbe09eba9	-0.13468803
66	0xbe6e3b31	-0.23264767
67	0x3e5505f6	0.20803055
68	0x3de66a85	0.11250786
69	0x3e002677	0.12514673
70	0x3e9dc716	0.30815953
71	0x3ead4984	0.3384515
72	0x3e74291c	0.23843807
73	0x3f070f0f	0.5275735
74	0x3efa99ee	0.48945564
75	0x3ee93733	0.45549926
76	0x3db06324	0.086126596
77	0x3ea07263	0.3133727
78	0x3eeea780	0.46612167
79	0x3ecabd28	0.3959744
80	0xbe020a53	-0.12699251
81	0xbd969e9f	-0.07354473
82	0xbdb8af11	-0.09017766
83	0xbe0197e3	-0.12655596
84	0xbe831502	-0.25601965
85	0xbe36a1ab	-0.17835109
86	0xbdab3647	-0.08359962
87	0xbe8fba35	-0.28071752
88	0xbc8a33d2	-0.016870413
89	0x3d8a49b3	0.06752338
90	0xbdc6b236	-0.0970196
91	0xbda51df1	-0.080623515
92	0x3c7a81ab	0.015289704
93	0x3d6ef604	0.058340088
94	0x3d0678ec	0.032830164
95	0x3e135fa6	0.14391956
96	0xbe729de2	-0.2369304
97	0xbe399bb1	-0.18125798
98	0x3e8a2285	0.2697946
99	0xbdd7dd7c	-0.10540292
100	0x3e9bb915	0.30414644
101	0x3eaabb9c	0.3334626
102	0x3f046183	0.5171129
103	0x3d924fca	0.07144125
104	0x3e97037a	0.2949484
105	0x3ef1f58e	0.47257656
106	0x3ef8edc6	0.48618907
107	0x3e48e5c4	0.19618899
108	0xbe35f02c	-0.177674
109	0xbdbdce61	-0.09267879
110	0x3eb0333a	0.34414083
111	0x3dd1519a	0.102206424
112	0x3e8110c8	0.25208116
113	0xbdb25004	-0.08706668
114	0xbe4e8cd3	-0.20170908
115	0x3df42bae	0.11922394
116	0xbd85cc29	-0.06533081
117	0xbe3e034a	-0.18555942
118	0xbd73eda3	-0.0595528
119	0xbe74a5d8	-0.2389139
120	0xbdfa2874	-0.12214747
121	0x3e198c7d	0.14994998
122	0x3e3f2b37	0.18668829
123	0x3ce281e7	0.027649833
124	0xbdbc42bc	-0.09192416
125	0xbe184318	-0.14869344
126	0xbe187776	-0.1488932
127	0xbd95d973	-0.07316866
128	0xbe414885	-0.1887532
129	0x3ce41ed5	0.027846733
130	0x3a87cf0c	0.0010361387
131	0xbe7fc71f	-0.24978302
132	0x3c0de426	0.008660352
133	0xbda93b31	-0.08263243
134	0x3e0c5f3b	0.13708203
135	0xbe480144	-0.19531733
136	0xbe7f08ed	-0.24905749
137	0xbdb8e6ec	-0.0902842
138	0xbcdc9f6e	-0.02693149
139	0xbe6b3ef3	-0.22973232
140	0xbe5100ca	-0.20410457
141	0x3dd7eabb	0.10542818
142	0xbe2c0c0b	-0.16801469
143	0xbe854f92	-0.2603727
144	0x3e03ae3e	0.12859437
145	0xbca31361	-0.019906702
146	0xbc87ed53	-0.016592657
147	0xbe4b22d4	-0.19837505
148	0xbe5e5cfd	-0.2171516
149	0x3d9c5d54	0.076349884
150	0x3e93ecdd	0.2889165
151	0x3df97e3a	0.12182279
152	0xbbf641df	-0.0075151767
153	0x3e740f39	0.23833932
154	0x3e54f1e6	0.20795402
155	0x3dc4263c	0.09577605
156	0xbe7e16a8	-0.2481333
157	0xbe5f03f3	-0.2177885
158	0xbe6e497e	-0.23270223
159	0xbe334599	-0.17507018
160	0x3d355136	0.044266902
161	0x3e3d3add	0.18479486
162	0xbd7b9af5	-0.061427075
163	0x3d8e3ad3	0.069448136
164	0xbd56e3e1	-0.052463416
165	0xbe5b56f5	-0.2141989
166	0xbe5386b6	-0.20656857
167	0xbcb3217c	-0.021866553
168	0x3e02364d	0.12716027
169	0xbe531860	-0.20614767
170	0x3e7fea5d	0.24991746
171	0xbcb5c223	-0.022187298
172	0x3e0bc9e1	0.1365123
173	0x3e86f883	0.26361474
174	0x3b3c4784	0.002872915
175	0x3df3ca63	0.119038366
176	0xbee82a8a	-0.45344955
177	0xbe4d04c3	-0.20021348
178	0xbe55185e	-0.20810077
179	0xbc63c25b	-0.013901318
180	0xbca0d076	-0.019630652
181	0x3d4aab69	0.049479876
182	0x3ed79d00	0.4211197
183	0x3ed0e49f	0.40799424
184	0x3d17ffe0	0.037109256
185	0x3eca6dc7	0.39536878
186	0x3eccaf17	0.39977333
187	0x3f3706d3	0.7149479
188	0x3dab5b01	0.08366967
189	0x3f0b027c	0.54300666
190	0x3f165dc5	0.5873683
191	0x3ef6a27a	0.48170835
192	0x3db1cbbb	0.08681437
193	0xbcfb04ca	-0.030641932
194	0x3d27488c	0.04084067
195	0xbe5e0f5d	-0.21685548
196	0x3e1bf2ee	0.15229389
197	0xbe55197f	-0.20810507
198	0xbe2c0c48	-0.1680156
199	0xbe45da45	-0.19321544
200	0x3b670ebf	0.0035256592
201	0x3d45981e	0.048240773
202	0x3d5d2958	0.053994507
203	0x3e7d6db0	0.24748874
204	0x3dd16085	0.10223488
205	0xbe4711eb	-0.19440429
206	0xbd24e226	-0.040254734
207	0x3e38781e	0.18014571
208	0xbe125a0f	-0.14292167
209	0x3d41e553	0.04733784
210	0x3e21b827	0.15792905
211	0x3d84626a	0.064640835
212	0xbc62722f	-0.013821169
213	0xbe200aa4	-0.15629059
214	0xbe2a85ef	-0.16652654
215	0xbe3a9356	-0.18220267
216	0x3e2b0af6	0.167034
217	0xbe62d34f	-0.2215092
218	0x3cc81d77	0.024428112
219	0xbe73cc70	-0.23808455
220	0xbd867f7e	-0.06567286
221	0xbe3ab216	-0.18231997
222	0x3dde622a	0.10858567
223	0xbe3f9f27	-0.18713056
224	0xbd2f45a7	-0.042791035
225	0xbe9e7410	-0.30947924
226	0x3ce9efc1	0.028556706
227	0x3d06bfa1	0.032897595
228	0x3e2d06ac	0.16897076
229	0xbe44432c	-0.19166249
230	0xbd30ec5e	-0.043194167
231	0x3e74975e	0.23885867
232	0xbdbaa24c	-0.09112987
233	0xbe8583b3	-0.2607704
234	0xbc30516f	-0.010761603
235	0x3e1add06	0.15123376
236	0xbe8d6343	-0.27614793
237	0x3dfd0833	0.123550795
238	0xbdb56abc	-0.088582486
239	0x3e434ef7	0.19073091
240	0x3e4e7e7c	0.20165437
241	0x3e0c46ed	0.13698931
242	0x3e950be8	0.29110646
243	0x3db90836	0.09034769
244	0x3d7006ec	0.05860035
245	0x3cbc0e32	0.022955988
246	0x3ca87d95	0.020567695
247	0x3e823b63	0.25435933
248	0xbded6590	-0.11591637
249	0xbe65f8b0	-0.22458148
250	0x3e105020	0.14093065
251	0x3ea1c17c	0.3159293
252	0xbec21a1a	-0.3791054
253	0xbe0cddd8	-0.13756502
254	0xbe6131e6	-0.21991691
255	0x3e5d3ae4	0.21604496

seq1.0.bias f4 [16]
0	0x3e0497a6	0.12948474
1	0x3e20c0bb	0.15698521
2	0x3f05c808	0.5225835
3	0x3d3d7825	0.046257157
4	0x3b09586a	0.002095724
5	0x3ec4ebd3	0.3846117
6	0x3b22a9e3	0.0024820499
7	0xbe157d14	-0.14598495
8	0x3eab6cb6	0.33481377
9	0x3db996fd	0.09062002
10	0xbe06c269	-0.13160099
11	0x3e9aec63	0.30258474
12	0xbe604824	-0.2190252
13	0xbe53fd52	-0.20702103
14	0x3dd8ebc2	0.10591842
15	0x3df74610	0.1207391

seq1.2.weight f4 [32, 16, 4, 4]
0	0xb989035f	-0.00026133188
1	0xbd24ff8f	-0.040282782
2	0xbd80da33	-0.06291618
3	0xbc941a2d	-0.018078888
4	0x3c99fa68	0.01879616
5	0xbd43dd72	-0.04781861
6	0xbcbcbb02	-0.023038391
7	0xbce08137	-0.027405364
8	0x3d381ff1	0.044952337
9	0xbd48e560	-0.049046874
10	0x3c74a325	0.014931475
11	0x3d444cf8	0.047924966
12	0xbcdd80b2	-0.027038906
13	0xbc8840ee	-0.016632523
14	0x3cbc8d4e	0.023016598
15	0xbce95c56	-0.028486412
16	0x3d3e50b4	0.046463683
17	0x3cefe53d	0.029284114
18	0x3c8b1329	0.01697691
19	0x3d0e9954	0.034814194
20	0x3d476956	0.04868444
21	0xbd12d027	-0.03584304
22	0x3c1dbe1a	0.009627843
23	0xbd55df8b	-0.05221514
24	0xbd63dee4	-0.055632487
25	0x3c8c5369	0.017129617
26	0x3b1c1487	0.0023815946
27	0xbbca5db0	-0.006175719
28	0xbd129bd5	-0.035793144
29	0x3d4dad62	0.05021418
30	0xbbcaaa86	-0.0061848788
31	0x3cdbe21a	0.026841212
32	0x3d200144	0.039063707
33	0x3d54788c	0.051872775
34	0x3baf4c33	0.00534966
35	0x3d113c87	0.035458114
36	0xbc8b7f61	-0.017028512
37	0xbcb83918	-0.022488162
38	0x3cb8f492	0.022577558
39	0xbd345074	-0.04402204
40	0xbcb95581	-0.02262378
41	0xbd371811	-0.044700686
42	0x3c63924f	0.013889863
43	0xbb1aebbb	-0.0023639041
44	0xbd07b2da	-0.03312955
45	0xbc8d615c	-0.017258339
46	0xbd6f464d	-0.058416653
47	0x3cb56b06	0.02214576
48	0x3b95ee34	0.004575515
49	0x3a181ace	0.0005802334
50	0x3cb86985	0.022511253
51	0x3c82841d	0.015932137
52	0xbc0621b2	-0.0081867445
53	0x3d5a0ea6	0.053236626
54	0x3d795eaa	0.060881294
55	0xbcc3db32	-0.023908231
56	0x3d17f357	0.0370973
57	0xbd4b91cb	-0.049699586
58	0x3d063046	0.03276088
59	0x3d3a5f63	0.045501124
60	0xbd525f7b	-0.05136059
61	0xbb0a0399	-0.0021059273
62	0xbd5b1b9a	-0.05349312
63	0x3d3e57b4	0.04647036
64	0x3a1a8a4b	0.0005895241
65	0x3cc93e87	0.024565948
66	0x3d1c6397	0.038180914
67	0xbc348e81	-0.011020304
68	0xbca744a5	-0.020418474
69	0xbd828780	-0.06373501
70	0xbc749a43	-0.014929357
71	0xbcdd63de	-0.02702516
72	0x3d70eed3	0.05882151
73	0xbd75c0cc	-0.05999832
74	0xbcbce3c3	-0.023057824
75	0x3bdb0c69	0.006684829
76	0x3d006248	0.03134373
77	0xbd197fbc	-0.037475333
78	0xbca231f7	-0.019799216
79	0xbbcb534c	-0.006204998
80	0xbd84501b	-0.064605914
81	0x3d613901	0.054986004
82	0x3d199d87	0.037503745
83	0xbcda8b45	-0.026677737
84	0xbd4c7b7d	-0.049922455
85	0xbca22538	-0.019793138
86	0x3ceb375d	0.028712923
87	0xbd14351c	-0.03618346
88	0x3cbfaf15	0.023398915
89	0x3cff8128	0.031189516
90	0xbc6bb2b1	-0.014385865
91	0x3c97b329	0.018518047
92	0x3c906ab5	0.017629007
93	0xbd12a060	-0.035797477
94	0x3c1b70b9	0.009487324
95	0xbd6685b3	-0.05627985
96	0xbcd9bfff	-0.026580809
97	0x3d06c965	0.03290691
98	0x3d220c6b	0.039562624
99	0x3b5a9bec	0.0033357097
100	0x3a6e0c4a	0.00090808107
101	0xbc4b17f9	-0.012395852
102	0xbb9a72eb	-0.0047134063
103	0x3d5347cd	0.051582146
104	0xbcbcf6e1	-0.02306694
105	0x3d08d80f	0.033409175
106	0xbcf6dc62	-0.030134384
107	0xbb34a8cd	-0.0027566433
108	0xbacf4b68	-0.001581532
109	0xbcb72ac1	-0.022359254
110	0x3c8fbdfc	0.017546646
111	0x3d40a815	0.047035296
112	0x3d372bb0	0.044719398
113	0x3cd81d6a	0.026381213
114	0xbb18e529	-0.002332995
115	0xbc96a638	-0.018389806
116	0x3c09027b	0.008362408
117	0x3d6e4c47	0.058178212
118	0xbd2a07f3	-0.041511487
119	0xbcafda16	-0.021466296
120	0xbcbf7937	-0.02337323
121	0x3d00cb2d	0.031443764
122	0x3d7ee98e	0.062234454
123	0x3d0e4292	0.034731455
124	0xbcf7d23b	-0.030251613
125	0x3bd48afe	0.0064862957
126	0x3cd85f52	0.02641264
127	0xbd7b6cb8	-0.06138298
128	0xbce7472c	-0.02823218
129	0x3c6546fb	0.013993974
130	0xbc53b094	-0.0129205175
131	0x3c86ca67	0.016453935
132	0x3cc4e882	0.02403665
133	0xbd0cb060	-0.03434789
134	0x3d328ef4	0.043593362
135	0xbd805072	-0.06265344
136	0xbcec1054	-0.02881638
137	0xbc6b078b	-0.01434506
138	0xbd5b273f	-0.053504225
139	0xbd60ac3d	-0.05485176
140	0x3c9129c9	0.01772012
141	0xbd78b3f8	-0.060718507
142	0x3caf7b91	0.021421226
143	0x3c24bcaa	0.010054747
144	0xbd0e09bb	-0.03467725
145	0x3d13b4c3	0.03606106
146	0x3d25c160	0.04046762
147	0xbbd8eef4	-0.0066202823
148	0x3d767372	0.06016869
149	0x3c55c0e2	0.013046475
150	0xb9864547	-0.00025610087
151	0xbc606ce9	-0.013697841
152	0xbced4f58	-0.028968498
153	0xbcc94146	-0.024567258
154	0xbcd5aec4	-0.026084311
155	0x3d7b7f9f	0.061401006
156	0x3d4e8400	0.050418854
157	0x3ca036ac	0.01955732
158	0x3d34510f	0.044022616
159	0x3b4b010f	0.0030975973
160	0x3c4a6f2c	0.012355607
161	0xb8235292	-3.8939128e-05
162	0x3d6b85b1	0.057500545
163	0x3d162e60	0.03666532
164	0x3c2c884c	0.010530543
165	0xbd03f444	-0.03221537
166	0xbb6590d1	-0.0035028944
167	0xbcd0086f	-0.025394646
168	0x3cfc810d	0.030823255
169	0xba9d28fe	-0.0011990366
170	0xbcaf74b3	-0.021417951
171	0xbc22080a	-0.009889612
172	0x3bc1d6f2	0.005915516
173	0xbd5f532b	-0.054522675
174	0xb8f5e047	-0.00011724285
175	0xbb2197cc	-0.0024657128
176	0x3d42734b	0.047473233
177	0x3d529fa6	0.051421784
178	0xbc1b0476	-0.009461513
179	0x3c436c68	0.0119277015
180	0xbd352161	-0.044221286
181	0xbce7f8f7	-0.028316958
182	0x3caedf12	0.021346603
183	0x3cc39303	0.023873812
184	0x3d200695	0.039068777
185	0x3b30d920	0.0026984885
186	0xbced22c7	-0.028947247
187	0xbc4b0369	-0.01239095
188	0xbd4b3352	-0.04960949
189	0x3c6fda41	0.014639438
190	0x3d2eb21e	0.042650335
191	0x3d142f10	0.036177695
192	0x3d0d3c1d	0.034481157
193	0x3d5390b6	0.05165168
194	0x3cc7c256	0.024384659
195	0xbca459da	-0.020062376
196	0x3d1c6145	0.0381787
197	0x3d5e403f	0.05426049
198	0xbd0e9ac2	-0.034815557
199	0x3d5db187	0.05412438
200	0x3c8e1054	0.01734177
201	0xbd77a9c9	-0.060464654
202	0xbcb8df3b	-0.022567382
203	0x3ce06472	0.027391646
204	0xbc3199f3	-0.010839927
205	0xbce8df0e	-0.028426673
206	0x3d7c8013	0.06164558
207	0xbcd2d2a5	-0.025735209
208	0x3cfe3086	0.031028997
209	0xbd77ef2a	-0.06053082
210	0x3cdda82c	0.02705773
211	0xbd39bc19	-0.0453454
212	0xbd286099	-0.041107748
213	0x3d253f36	0.040343486
214	0x3d1c4ab6	0.038157187
215	0x3cade93c	0.021229379
216	0x3b7fd3b0	0.0039036088
217	0x3bc203a5	0.0059208446
218	0x3d421537	0.047383513
219	0xbc19a636	-0.009378007
220	0xbd75b840	-0.059990168
221	0x3cec8cf4	0.028875805
222	0x3d3fa5d1	0.046788994
223	0x3c95a607	0.018267645
224	0xbc696c42	-0.014247002
225	0x3d4457c9	0.04793528
226	0xba3740d0	-0.0006990554
227	0x3d17f8ab	0.037102383
228	0xbd1ecf5f	-0.038771983
229	0x3d507c94	0.050900057
230	0xbc54c3f0	-0.012986168
231	0xbd41fd4c	-0.047360703
232	0xbd1782b3	-0.03698988
233	0xba5aa1b0	-0.00083401334
234	0xbcd5e30e	-0.026109245
235	0xbd2ce3b6	-0.04220935
236	0x3d3e90e1	0.046524886
237	0xbd5be12e	-0.053681545
238	0x3d10d05b	0.035354953
239	0x3d4efd33	0.05053444
240	0x3d49e3d7	0.04928955
241	0x3bb7b8a8	0.0056067295
242	0x3b495942	0.0030723368
243	0xbd053dc3	-0.032529604
244	0xba311242	-0.0006754735
245	0x3d6224a5	0.05521073
246	0x3c81ee14	0.015860595
247	0x3d260ccc	0.040539548
248	0xbc996352	-0.018724117
249	0xbd3c3d2d	-0.04595678
250	0x3cd6fbb9	0.026243078
251	0xbd65ad0c	-0.056073233
252	0x3beca441	0.007221729
253	0x3ce05bc5	0.02738751
254	0xbd09245b	-0.033481937
255	0xbd3bb93d	-0.045830954

seq1.2.bias f4 [32]
0	0xbd90b988	-0.07066637
1	0x3d1db789	0.03850511
2	0xbcbade9c	-0.022811227
3	0xbd51e06b	-0.051239412
4	0x3c405e4f	0.011741235
5	0xbd56213d	-0.052277792
6	0x3d6108cb	0.054940026
7	0x3dbd175b	0.0923297
8	0xbdd76589	-0.10517413
9	0xbccd08b3	-0.025028562
10	0x3cce9be4	0.025220819
11	0xbc8642d5	-0.01638929
12	0x3e26df23	0.16296057
13	0xbc86c29b	-0.016450217
14	0xbe38a083	-0.1802998
15	0x3bd7839f	0.0065769698
16	0x3d9b0e89	0.07571132
17	0x3d33a2fd	0.04385661
18	0x3c72aeb5	0.014812161
19	0x3d05c1e7	0.032655623
20	0x3bac377f	0.005255639
21	0xbd89e669	-0.067334004
22	0xbd2a1f55	-0.041533787
23	0xbceef28d	-0.029168392
24	0x3d3fa916	0.046792112
25	0xbbdd4386	-0.006752434
26	0x3adad361	0.0016695076
27	0xbb838b3b	-0.0040144003
28	0x3d7de5b6	0.061986648
29	0x3da83b75	0.082144655
30	0x3c67c625	0.014146362
31	0xbda2acd4	-0.079431206

seq2.0.weight f4 [16, 1, 4, 4]
0	0x3d2eca54	0.042673424
1	0x3ed7fb32	0.42183834
2	0x3ed20026	0.41015738
3	0x3e9e8531	0.30960992
4	0x3e9e2841	0.30890086
5	0x3ee792b2	0.45229107
6	0x3f0ef932	0.5584899
7	0x3ed8c5ea	0.42338496
8	0x3e0ad045	0.13556011
9	0x3de7d327	0.11319571
10	0x3edc6f28	0.43053555
11	0xbdbe6539	-0.092966504
12	0xbe50c3b8	-0.20387161
13	0x3e5abb96	0.21360621
14	0xbda6cbdd	-0.081443526
15	0x3d150c83	0.036388885
16	0x3bfedb3f	0.007777601
17	0x3ea1f246	0.31630152
18	0x3e26acdc	0.16276878
19	0x3ec21e12	0.37913567
20	0xbe2a3078	-0.16620052
21	0x3e020974	0.12698919
22	0x3e163ed9	0.14672412
23	0x3e9a0c44	0.30087483
24	0xbe7c12b9	-0.24616517
25	0xbe01acba	-0.12663546
26	0x3d05b986	0.032647632
27	0xbce998f7	-0.028515322
28	0xbe1a0299	-0.15040053
29	0x3e474488	0.19459736
30	0x3db82b40	0.08992624
31	0xbde761c2	-0.11297943
32	0x3eaadba2	0.33370692
33	0x3e70a923	0.2350202
34	0x3e4f1b6b	0.20225303
35	0x3d7b5f9c	0.061370477
36	0x3e217cb3	0.15770225
37	0xbe3b1dc6	-0.18273076
38	0xbd3ba4b4	-0.04581137
39	0xbe17d24b	-0.14826314
40	0x3db6f687	0.0893374
41	0xbe2ee624	-0.17079979
42	0xbdbcff84	-0.09228423
43	0xbe0acf34	-0.13555604
44	0x3e247230	0.16059184
45	0xbe56bd5a	-0.2097067
46	0x3db165fa	0.086620286
47	0x3d8f14b7	0.06986373
48	0xbe4ad990	-0.19809556
49	0xbdc08a94	-0.09401432
50	0x3e4ea13d	0.20178695
51	0x3e812db5	0.25230184
52	0xbe3a94b3	-0.18220787
53	0xbd684295	-0.056704123
54	0xbe1d5255	-0.15363438
55	0x3e0190e3	0.12652926
56	0xbd6252c7	-0.055254724
57	0x3d0bb525	0.0341083
58	0xbe4f3924	-0.20236641
59	0xbd9e2f99	-0.07723922
60	0xbe85c0be	-0.26123613
61	0xbde42007	-0.11138921
62	0x3c26d027	0.010181463
63	0xbc6bf589	-0.014401802
64	0xbe43891d	-0.19095273
65	0x3e6ebca2	0.23314145
66	0xbde2cf31	-0.11074675
67	0x3e85400d	0.2602543
68	0x3ea5db29	0.32393768
69	0x3e98ef1d	0.2986993
70	0x3eeddefa	0.4645918
71	0x3e32d998	0.17465818
72	0x3e2dcbeb	0.1697232
73	0x3eb77f6a	0.35839397
74	0x3ed38b56	0.41317242
75	0x3df1b09d	0.118012644
76	0x3d91d12e	0.07119976
77	0x3dfdd1ef	0.12393557
78	0xbe1e58a6	-0.15463504
79	0xbe6531fe	-0.22382352
80	0x3ea3f2d7	0.3202121
81	0x3e368fec	0.1782834
82	0xbd7e16c5	-0.062033433
83	0xbdc2b387	-0.095068984
84	0x3e711e0f	0.23546623
85	0x3db9547f	0.090493195
86	0x3e865391	0.2623563
87	0xbc944d64	-0.018103309
88	0x3eeb62db	0.45973858
89	0x3f160d0b	0.5861365
90	0x3f1c7a64	0.61124253
91	0xbc0d444d	-0.008622241
92	0x3f03b8cf	0.5145387
93	0x3eb6242a	0.35574466
94	0x3eb0145f	0.34390542
95	0x3e521045	0.20514019
96	0x3e4d4a37	0.20047842
97	0xbdb22b00	-0.08699608
98	0xbe8fb28f	-0.28065917
99	0xbe46114d	-0.19342537
100	0xbe17edaf	-0.14836763
101	0xbc9f7171	-0.019463273
102	0x3e532bf8	0.20622241
103	0xbe4a7a30	-0.19773173
104	0xbdc310e0	-0.09524703
105	0x3c42f6a0	0.01189962
106	0xbd5e7b89	-0.05431703
107	0x3eaf0cfd	0.34189597
108	0xbd0be5d8	-0.034154743
109	0x3e63b426	0.2223669
110	0xbd6d91d3	-0.058000397
111	0x3ea6aeb6	0.3255517
112	0xbe8886e1	-0.26665404
113	0x3e0845c7	0.13307868
114	0xbbf14722	-0.007363216
115	0x3e83147f	0.25601575
116	0xbda00324	-0.07813099
117	0xbe6b669e	-0.22988364
118	0xbdf7d415	-0.12100998
119	0x3e3a78b2	0.18210104
120	0x3e1501b7	0.14551435
121	0x3e016714	0.12636977
122	0xbb95f7a7	-0.0045766416
123	0xbdbb0642	-0.09132053
124	0xbdaaa054	-0.083313614
125	0x3e556365	0.20838697
126	0x3ea72a55	0.32649484
127	0x3e681a30	0.2266624
128	0x3e769cc3	0.24083237
129	0x3e49cf06	0.1970788
130	0x3db863d2	0.09003414
131	0xbe203310	-0.15644479
132	0x3d83ee6f	0.06441962
133	0xbcd86e21	-0.026419701
134	0xbe843e45	-0.25828758
135	0xbda99ffd	-0.082824685
136	0x3e629ca6	0.22130069
137	0x3e0be94d	0.13663216
138	0xbe6144d4	-0.21998912
139	0x3e02d21e	0.12775466
140	0x3ddf3496	0.10898702
141	0x3e8e40a7	0.277837
142	0xbdbfd644	-0.0936704
143	0x3e7fee1c	0.24993175
144	0x3e6fb76b	0.23409812
145	0x3ee45f36	0.4460389
146	0xbdb9a887	-0.09065347
147	0x3dfe749e	0.12424587
148	0x3e9b7a11	0.30366567
149	0x3edf260a	0.4358371
150	0x3daac2c3	0.08337929
151	0x3eb1d828	0.34735227
152	0x3ec63b7f	0.38717267
153	0x3ed0bf91	0.40771154
154	0x3ecf56a4	0.4049579
155	0xbdf79560	-0.12089038
156	0x3d7f13c5	0.062274713
157	0xbe11f7af	-0.1425464
158	0x3e1b19a9	0.15146507
159	0xbe015648	-0.1263057
160	0xbe3a1d18	-0.18175161
161	0xbe6e6c6d	-0.23283549
162	0xbe2528a3	-0.16128783
163	0x3daf7883	0.08567908
164	0xbe16b91d	-0.14719053
165	0xbe56aae3	-0.20963626
166	0xbe098943	-0.13431267
167	0x3dbae69b	0.09126016
168	0xbdd3cc80	-0.1034174
169	0x3e086db9	0.13323106
170	0x3d14edcf	0.036359604
171	0xbc16cd1f	-0.009204178
172	0x3eafc8a3	0.3433276
173	0x3ea6f9d7	0.32612488
174	0x3e6e5bfb	0.23277275
175	0xbe01c9d3	-0.12674646
176	0x3e83163a	0.25602895
177	0x3e80f7e1	0.25189117
178	0xbda9a81b	-0.08284017
179	0x3e877197	0.2645385
180	0x3d9697af	0.0735315
181	0x3ea126ff	0.31475064
182	0xbd275672	-0.040853925
183	0x3c1e994f	0.009680106
184	0x3d387eb3	0.045042705
185	0x3eab5914	0.334664
186	0xbe19867f	-0.14992712
187	0x3e8a6029	0.2702649
188	0xbbb7933b	-0.005602268
189	0x3d00d569	0.031453524
190	0xbdedf5eb	-0.11619171
191	0x3d43f014	0.04783638
192	0xbe395096	-0.18097147
193	0xbcd772e4	-0.026299901
194	0x3e5884d8	0.21144426
195	0x3df20e42	0.11819126
196	0x3d2156d6	0.039389454
197	0x3e795006	0.24346933
198	0xbd8f9867	-0.0701149
199	0xbe74d132	-0.23907927
200	0x3e918f8a	0.28429824
201	0x3de13113	0.10995688
202	0xbe71b3c1	-0.23603727
203	0xbd67813c	-0.056519732
204	0xbd9264a9	-0.07148106
205	0xbe4bc8ce	-0.1990082
206	0xbe48a543	-0.19594292
207	0xbd86590a	-0.065599516
208	0x3ee01643	0.43766984
209	0x3e98484b	0.29742655
210	0x3e8a9ecf	0.27074286
211	0x3e962969	0.29328468
212	0x3f0811e4	0.531523
213	0x3ee2d33a	0.44301778
214	0x3e2297cd	0.1587822
215	0x3ec1de44	0.37864888
216	0x3dbd9bff	0.092582695
217	0x3e60cc87	0.21953021
218	0xbc549485	-0.012974863
219	0xbe0a8d13	-0.13530378
220	0x3e2db517	0.16963612
221	0xbe3cc8f4	-0.18436033
222	0xbd939c45	-0.072075404
223	0xbea7d459	-0.32779196
224	0x3ca7219b	0.020401767
225	0xbc504b76	-0.012713304
226	0x3daa0140	0.0830102
227	0x3e2befde	0.16790721
228	0xbe4a2b6f	-0.19743131
229	0x3e5378df	0.20651577
230	0xbd3cdc19	-0.04610834
231	0x3e06c68e	0.1316168
232	0xbb66f31c	-0.003524012
233	0x3c150451	0.009095267
234	0x3d846e4a	0.064663485
235	0x3e3b4e36	0.18291554
236	0x3d6c9f56	0.057769142
237	0xbe223469	-0.15840305
238	0x3cb90924	0.022587366
239	0xbe0077da	-0.1254572
240	0x3cba0863	0.022709077
241	0xbe375d34	-0.17906648
242	0xbe0f9e44	-0.14025217
243	0x3e7f9c35	0.24961932
244	0x3ed41bbf	0.4142742
245	0x3e57d222	0.21076253
246	0x3e342fcf	0.17596363
247	0x3e85b8aa	0.2611745
248	0x3e7660bd	0.2406034
249	0x3e960e6d	0.2930788
250	0xbd2dad01	-0.042401318
251	0x3e0ac71e	0.1355252
252	0x3e56c242	0.20972541
253	0x3e77915a	0.24176541
254	0xbe6ef7a4	-0.23336655
255	0xbe00e380	-0.12586784

seq2.0.bias f4 [16]
0	0x3a84af42	0.0010123032
1	0x3cab6b5e	0.02092522
2	0x3e0ed0b6	0.13946804
3	0x3e752c40	0.23942661
4	0x3d64c808	0.055854827
5	0x3dd7a4ed	0.10529504
6	0x3dfece34	0.12441674
7	0xbe33221c	-0.1749348
8	0x3db1fead	0.08691154
9	0x3a8fcf1e	0.001097176
10	0x3c8dc80c	0.017307304
11	0x3ae9d8a3	0.0017841052
12	0xbda7aa93	-0.08186831
13	0x3dd1bce6	0.10241108
14	0xbe08ab32	-0.13346556
15	0x3aafb688	0.0013405839

seq2.2.weight f4 [32, 16, 4, 4]
0	0xbc21f978	-0.009886138
1	0x3c36d89e	0.011160044
2	0xbca826a8	-0.020526245
3	0xbcf42ac2	-0.029805545
4	0x3d87374d	0.06602345
5	0xbd8f5dac	-0.07000288
6	0x3b46ad55	0.0030315716
7	0x3d98e1d5	0.07464949
8	0xbd523b4f	-0.051326092
9	0xbd3c5ea1	-0.045988683
10	0x3c79ef01	0.015254737
11	0x3d5fe261	0.05465925
12	0x3cb70640	0.022341847
13	0x3cf9443a	0.03042804
14	0xbd63d7ca	-0.055625714
15	0xbb344f84	-0.0027513215
16	0xbcefc67f	-0.029269455
17	0xbbe5f228	-0.0070173927
18	0xbd67a6b7	-0.056555476
19	0xbd25ede7	-0.040510084
20	0x3c358f28	0.011081494
21	0x3d74b72d	0.059745003
22	0x3baee86a	0.0053377645
23	0xbc1df67a	-0.009641284
24	0xbc604990	-0.013689414
25	0xbc16a1d1	-0.0091938535
26	0x3ccf6885	0.025318393
27	0xbd337c13	-0.0438195
28	0x3cad729c	0.021172814
29	0xbd832603	-0.064037345
30	0x3cc388ab	0.02386888
31	0xbc896018	-0.016769454
32	0x3c19a971	0.009378777
33	0x3d24f987	0.04027703
34	0x3ca71507	0.020395769
35	0xbd366cd0	-0.044537365
36	0xbc969afd	-0.018384451
37	0x3c93375c	0.017970733
38	0x3c0fb840	0.008771956
39	0xbd4dac0a	-0.050212897
40	0xbc5db942	-0.013532938
41	0xbc55aace	-0.013041211
42	0x3d179345	0.03700568
43	0x3d50c505	0.050969142
44	0xbb833554	-0.00400416
45	0xbc535f02	-0.01290107
46	0x3d42137f	0.047381874
47	0xbcfcc4f5	-0.030855635
48	0xbd6d6906	-0.057961486
49	0x3ce71e82	0.02821279
50	0x3d39385e	0.04521977
51	0xbcf35e1f	-0.029707966
52	0x3ca00837	0.019535167
53	0xbd0c593c	-0.034264788
54	0xbd470361	-0.048587207
55	0xbbb4f1b5	-0.005521978
56	0xbc9ec6b6	-0.019381862
57	0x3d02141d	0.031757463
58	0xbd2a8101	-0.041626934
59	0xbd80d5f6	-0.0629081
60	0x3d168196	0.036744677
61	0xbd521570	-0.051289976
62	0x3cbe92af	0.023263304
63	0xbcebdb0e	-0.028790977
64	0xbbda5cbe	-0.0066638878
65	0xbb3792f1	-0.0028011168
66	0xbaed5faf	-0.0018110181
67	0xbd2ed310	-0.042681754
68	0x3d68f7d1	0.05687696
69	0x3c598682	0.013276698
70	0x3d0210cb	0.031754296
71	0x3b64b8de	0.0034900228
72	0x3c94b74a	0.018153805
73	0xbd83e883	-0.064408325
74	0xbc26f669	-0.010190585
75	0x3d9447a9	0.072402306
76	0x3d85e822	0.065384164
77	0x3cb9efb9	0.022697316
78	0xbd59737f	-0.05308866
79	0x3d5b0f63	0.05348147
80	0x3d79d6b1	0.06099576
81	0x3c9d0cf6	0.01917122
82	0x3c94d4be	0.01816785
83	0x3c18c9f3	0.009325492
84	0x3d6fdb4e	0.058558755
85	0x3d0dbcca	0.03460387
86	0x3c8f0f22	0.01746327
87	0x3c97edb8	0.01854597
88	0x3c8d4897	0.017246528
89	0x3c30b39a	0.010785008
90	0xbd898de8	-0.067165196
91	0xbcd18dd3	-0.025580322
92	0x3dcb747b	0.09934326
93	0xbc676f1b	-0.014125611
94	0xbca6ea70	-0.02037546
95	0x3d82b0eb	0.06381401
96	0x3c5a3bfd	0.013319966
97	0x3d08d108	0.033402473
98	0xbd19fd8f	-0.037595328
99	0xbcbbe52c	-0.022936426
100	0x3c01b4bf	0.007916628
101	0x3d1324a7	0.035923626
102	0x3d573fbc	0.052551016
103	0x3c28855d	0.0102857025
104	0x3d33c927	0.043893006
105	0x3d2de4a8	0.04245439
106	0x3d5f022c	0.05444543
107	0x3d559e8b	0.05215315
108	0x3ce55577	0.027994854
109	0x3d5a5230	0.053301036
110	0xbca6952d	-0.020334804
111	0xbd21f56a	-0.039540686
112	0x3c6338cb	0.013868521
113	0xbd1341b3	-0.035951328
114	0x3d2477cc	0.04015331
115	0x3d53ff29	0.05175701
116	0xbd5cb34b	-0.053881925
117	0x3ca05d88	0.01957585
118	0x3cca9087	0.02472712
119	0x3d3f417b	0.046693306
120	0xbd0f2858	-0.034950584
121	0x3cdc5b58	0.026899025
122	0xbd133f62	-0.03594912
123	0xbd7613dc	-0.060077533
124	0x3ca005d5	0.01953403
125	0x3c4f1e4a	0.012641499
126	0xbd22a7c7	-0.039710786
127	0xbd34a2de	-0.044100635
128	0xbb498906	-0.0030751838
129	0x3d8c7096	0.068574116
130	0x3d2c1600	0.04201317
131	0xbd223b88	-0.039607555
132	0x3d5bad06	0.053631805
133	0xbd755bdf	-0.05990207
134	0x3ca6fbd7	0.020383758
135	0xbd190ae0	-0.037363887
136	0xbca5ab25	-0.02022321
137	0xbd03b82a	-0.032158054
138	0x3ceb5999	0.028729247
139	0xbd2227b5	-0.03958865
140	0x3ce45b4c	0.027875565
141	0xbcaa8b9a	-0.02081852
142	0xb9b23f44	-0.00033997942
143	0x3cc7e92f	0.024403183
144	0x3a1b7af6	0.00059311034
145	0x3c449957	0.01199945
146	0xbd5548da	-0.05207143
147	0x3c828460	0.015932262
148	0xbc9aa068	-0.018875316
149	0xbd90a6e2	-0.0706308
150	0x3d77f3b7	0.06053516
151	0xbd20b525	-0.039235253
152	0xbd50876d	-0.050910402
153	0xbcd57b62	-0.02605981
154	0xbd7f02ed	-0.06225865
155	0x3d80b849	0.062851496
156	0xbc30a2cd	-0.010781002
157	0x3d2239d3	0.039605927
158	0xbd08bcd5	-0.03338321
159	0x3d8b2eab	0.067960106
160	0xbd1671f5	-0.03672977
161	0xbc7b1f5f	-0.015327304
162	0x3d2eb207	0.04265025
163	0xbc945817	-0.01810841
164	0xbbce006e	-0.0062866723
165	0x3d0c0bdd	0.034191
166	0xbc64b9ba	-0.013960296
167	0xbcdb0e20	-0.026740134
168	0x3cf87d2c	0.030333124
169	0x3da35b73	0.07976427
170	0x3c356f94	0.011073966
171	0x3cfc60de	0.030807909
172	0x3c9329f0	0.017964333
173	0x3ce66347	0.028123511
174	0xbc272887	-0.010202534
175	0x3d3b789c	0.04576932
176	0x3c37c731	0.0112169245
177	0xbd3af769	-0.045646105
178	0x3d365133	0.04451103
179	0xbc4038c2	-0.011732282
180	0xbd12868c	-0.035772845
181	0x3d1220fe	0.035675995
182	0xbd33fb18	-0.043940634
183	0xbcc2aa56	-0.023762863
184	0xba6e9ccc	-0.0009102344
185	0x3d03fc68	0.032223135
186	0xbd64a63e	-0.055822603
187	0x3d807546	0.06272368
188	0x3d8861de	0.06659292
189	0xbce90164	-0.028443046
190	0xbd46e87a	-0.04856155
191	0x3cabce28	0.020972326
192	0x3c267460	0.010159582
193	0x3c56b608	0.013104923
194	0x3d48a2df	0.04898345
195	0xbd272335	-0.04080506
196	0xbcdee6aa	-0.027209599
197	0xbd4e0673	-0.05029912
198	0x3d2fe2b9	0.04294083
199	0x3c4ae0ca	0.012382695
200	0x3d568b95	0.05237921
201	0x3c681829	0.0141659165
202	0xbcf9aa46	-0.0304767
203	0x3d6279a0	0.055291772
204	0x3d5b1287	0.053484466
205	0xbd2f0a27	-0.04273429
206	0xbc21789e	-0.009855418
207	0x3c215a32	0.009848164
208	0x3d83677c	0.064162225
209	0x3d4a728a	0.04942564
210	0xbc386757	-0.011255107
211	0xbc5250e6	-0.0128366705
212	0x3d51b7fd	0.051200856
213	0xbc848a43	-0.01617921
214	0x3ca464f0	0.020067662
215	0xbbc127cb	-0.0058946363
216	0x3cbed459	0.023294615
217	0xbd7eb4c3	-0.062184107
218	0xbcab8a65	-0.020940015
219	0x3ce155d6	0.02750675
220	0x3d637d9d	0.055539716
221	0x3c3d4f65	0.011554574
222	0xbdbe13c1	-0.092811115
223	0x3d5b9397	0.05360755
224	0x3cabd77a	0.02097677
225	0xbd25b7f9	-0.040458653
226	0x3c81d7f5	0.015850047
227	0x3c9615bf	0.018320916
228	0xbd456318	-0.048190206
229	0x3d1ef1bd	0.03880476
230	0xbd52a0f6	-0.051423036
231	0x3d2fa850	0.042885125
232	0xbd7d353b	-0.061818343
233	0xbc375c09	-0.0111913765
234	0xbd2b8c68	-0.04188195
235	0xbc9e15b1	-0.019297453
236	0xbd879424	-0.066200525
237	0x3d471b67	0.048610117
238	0x3cc35e3f	0.023848651
239	0xbd2281b9	-0.039674494
240	0x3d2e0196	0.04248198
241	0xbd842cbf	-0.06453847
242	0x3cc58f6f	0.024116246
243	0xbcdc0ea1	-0.026862444
244	0xb9a39349	-0.0003119952
245	0x3d109b8e	0.0353046
246	0x3d2cb27c	0.042162403
247	0xbd125f8b	-0.035735648
248	0x3caacc38	0.020849332
249	0xbc9d19ac	-0.01917728
250	0xbd82e9fb	-0.063922845
251	0xbcd4921b	-0.025948575
252	0x3ce9f2c6	0.028558146
253	0xbd524744	-0.051337495
254	0xbc91b74b	-0.017787596
255	0x3d23d054	0.0399936

seq2.2.bias f4 [32]
0	0x3d246b35	0.040141303
1	0xbdcb7c29	-0.09935791
2	0xbcc52f46	-0.024070393
3	0xbd070f1d	-0.032973398
4	0xbd22fddd	-0.039792884
5	0x3b2d52ed	0.0026447133
6	0x3c39b050	0.01133354
7	0xbdd7a502	-0.105295196
8	0x3c012062	0.007881256
9	0xbe18fe2f	-0.14940713
10	0xbc93b739	-0.018031703
11	0x3d85d897	0.06535452
12	0x3a02cc92	0.000498959
13	0xbc39b2b2	-0.011334108
14	0x3e0a60ab	0.13513438
15	0xbd08a1cc	-0.033357427
16	0xbddf849b	-0.10913964
17	0xbc84d990	-0.016217023
18	0xbd923f09	-0.07140929
19	0xbd0a75c9	-0.033803735
20	0x3ce65765	0.028117845
21	0x3c8f006d	0.017456258
22	0xbbaaaae3	-0.0052083596
23	0x3d7e3a1a	0.06206713
24	0x3add7295	0.001689511
25	0xbc9d2814	-0.01918415
26	0x3dca6d0c	0.0988408
27	0x3da65585	0.0812178
28	0xbd9f11a5	-0.07767037
29	0xbccce43b	-0.025011173
30	0x3ca76ea0	0.020438492
31	0x3d72cc59	0.059276912

seq3.0.weight f4 [8, 32, 2, 2]
0	0xbd180db8	-0.03712246
1	0x3dee124a	0.11624582
2	0xbd5fbdbd	-0.054624308
3	0x3af45b70	0.0018642973
4	0x3ea47c3f	0.32126042
5	0xbc662a83	-0.0140482215
6	0x3e24ac1e	0.16081282
7	0x3d6b3ff7	0.05743405
8	0xbc35a89c	-0.011087563
9	0x3e3bf613	0.18355589
10	0x3e580acb	0.21097867
11	0x3e4b6c65	0.19865568
12	0xbb1828af	-0.0023217609
13	0x3ebcb880	0.36859512
14	0x3d8ccda9	0.06875164
15	0x3d8e3a5d	0.06944726
16	0xbd2a1100	-0.04152012
17	0xbe0b6acf	-0.13614963
18	0x3dbf1252	0.09329666
19	0x3e49eede	0.19720027
20	0xbe67d274	-0.22638875
21	0x3cbbdbbe	0.02293193
22	0x3d9ff366	0.078100964
23	0x3d3379ad	0.04381721
24	0x3e07a66d	0.1324708
25	0xbee2c323	-0.44289503
26	0x3e4c7fbe	0.19970605
27	0x3e4a1d7b	0.19737808
28	0xbc490593	-0.012269395
29	0xbe6d84b7	-0.23195158
30	0xbde4ddb7	-0.11175101
31	0x3dd79c6c	0.10527882
32	0xbc932acf	-0.017964749
33	0x3deb1795	0.11479107
34	0x3e233400	0.15937805
35	0xbe0cdc2f	-0.13755868
36	0xbee45c6d	-0.44601765
37	0xbcee7392	-0.029107843
38	0xbe2804a3	-0.16408019
39	0x3e9ba7f4	0.30401576
40	0x3df27a4c	0.118397325
41	0xbd954188	-0.0728789
42	0xbc33c740	-0.010972798
43	0x3de357cc	0.1110073
44	0xbe45e659	-0.19326152
45	0x3e6467a9	0.22305168
46	0xbc9053e4	-0.017618127
47	0x3e5b44d2	0.21412972
48	0x3e7a3e62	0.2443786
49	0x3e1fddd9	0.15611972
50	0x3b6946a6	0.0035595088
51	0x3abf7698	0.0014607487
52	0x3de8505c	0.11343452
53	0x3e5dbc39	0.21653832
54	0xbd34a08f	-0.044098433
55	0x3e46704d	0.19378777
56	0xbe7f9811	-0.24960352
57	0x3c9cadfe	0.019125935
58	0xbe49216f	-0.1964166
59	0x3c5b5370	0.013386592
60	0xbd7c0a9b	-0.06153355
61	0x3dbd6c00	0.09249115
62	0x3e6c7338	0.23090827
63	0xbdc52e76	-0.09628002
64	0xb90a66e1	-0.00013199031
65	0xbe3d6334	-0.18494874
66	0xbd7cccac	-0.061718628
67	0x3db10fd4	0.08645597
68	0x3e390037	0.18066488
69	0xbdbf88ae	-0.093522415
70	0xbbd36ace	-0.006451941
71	0x3e58ea1c	0.21183056
72	0xbdd9eb2c	-0.106405586
73	0xbd8640e7	-0.06555348
74	0x3d6e9fd8	0.058257908
75	0x3ea751a7	0.32679483
76	0xbe1c6ddb	-0.15276282
77	0x3d30a7d7	0.043128815
78	0xbe0ace34	-0.13555223
79	0x3e1a007d	0.15039249
80	0xbd4f9ded	-0.05068772
81	0xbd8b9dc5	-0.068172015
82	0x3d9a8fd6	0.07546966
83	0x3e0fff03	0.14062123
84	0xbd9fb381	-0.077979095
85	0xbe90361a	-0.28166276
86	0x3e00eaa1	0.12589504
87	0xbd92c8e8	-0.07167226
88	0x3e66e898	0.22549665
89	0xbd384621	-0.044988755
90	0x3e812c46	0.2522909
91	0xbe8a30dc	-0.26990402
92	0xbb9f6364	-0.004864143
93	0xbb33fc5f	-0.0027463657
94	0xbd958a40	-0.0730176
95	0x3d93868c	0.07203397
96	0x3e1df57b	0.15425675
97	0xbe1009c4	-0.14066225
98	0x3b694e3a	0.0035599605
99	0x3e81ebd5	0.25375238
100	0xbe8c1c77	-0.27365467
101	0x3d860721	0.065443285
102	0xbdde2133	-0.10846176
103	0x3e19547b	0.14973633
104	0x3e2b4426	0.16725215
105	0x3ba3a0d1	0.004993536
106	0x3db001f3	0.08594122
107	0x3cc2db8f	0.023786334
108	0x3e7f9117	0.24957691
109	0xbe119c23	-0.14219718
110	0x3e2c29bf	0.168128
111	0xbd556d8b	-0.05210642
112	0x3c8e4179	0.017365204
113	0xbda91d28	-0.08257514
114	0xbd0ac9c3	-0.03388382
115	0x3ed410d9	0.41419104
116	0x3ee7a697	0.45244285
117	0xbe61b081	-0.22039987
118	0xbaa20d16	-0.0012363519
119	0x3d069357	0.032855358
120	0xbd569c51	-0.05239517
121	0xbddc3363	-0.10751989
122	0x3e7d5080	0.2473774
123	0x3dfa2c55	0.12215487
124	0xbd6dcfdd	-0.058059562
125	0xb99d960f	-0.00030057176
126	0x3b4872d5	0.0030586023
127	0x3d915958	0.07097119
128	0x3d10b251	0.035326306
129	0x3d389087	0.045059707
130	0xbdbb4e41	-0.09145785
131	0x3da10d17	0.07863825
132	0x3ebfee93	0.37486705
133	0x3e8a39eb	0.26997313
134	0xbd1ce44f	-0.03830367
135	0xbe43f353	-0.1913579
136	0x3e940ef5	0.2891766
137	0x3ec17045	0.37780967
138	0x3d40acdd	0.047039855
139	0x3db16461	0.08661724
140	0xbe2b6bf1	-0.16740395
141	0x3e9c45a6	0.30521888
142	0x3df24618	0.118297756
143	0xbc7096c2	-0.014684381
144	0x3dda44bc	0.10657641
145	0x3aefc614	0.0018293285
146	0x3e1ffcc0	0.1562376
147	0xbd9f2688	-0.07771021
148	0xbe6334ee	-0.2218816
149	0x3dc916ad	0.09818778
150	0x3d0eb197	0.03483733
151	0xbd9359de	-0.07194875
152	0x3e51b068	0.2047745
153	0xbdaaa7b1	-0.08332766
154	0xbc904aa6	-0.01761372
155	0x3e4916f4	0.19637662
156	0xbd793f18	-0.060851187
157	0xbe2e8d82	-0.17046168
158	0x3e510bc9	0.20414652
159	0xbdc92447	-0.098213725
160	0x3e363f77	0.17797647
161	0x3e8cc7d1	0.27496198
162	0x3d8dc22b	0.069218
163	0x3e358dc5	0.17729862
164	0xbe4d145b	-0.20027296
165	0xbd979bad	-0.0740274
166	0x3e1ddc72	0.15416124
167	0x3d7341b5	0.059388835
168	0x3dc0b4fb	0.09409519
169	0xb9e70f9c	-0.00044071383
170	0xbd7daf0f	-0.061934527
171	0xbe2ad258	-0.16681802
172	0xbdb326e4	-0.08747652
173	0x3e2c5d14	0.16832381
174	0xbd82f187	-0.06393724
175	0x3d5860b6	0.052826606
176	0x3e3c5bf1	0.18394448
177	0x3e03c88d	0.12869473
178	0x3c523103	0.012829068
179	0xbdcadb21	-0.09905077
180	0x3d31bbca	0.04339198
181	0x3eac5d96	0.3366515
182	0x3d01d37e	0.031695835
183	0xbdc68caa	-0.09694798
184	0xbe0d965a	-0.13826886
185	0xbb8821ca	-0.0041544186
186	0x3def6217	0.11688631
187	0x3b92b982	0.0044776807
188	0xbc3f217d	-0.011665699
189	0x3d919938	0.07109302
190	0x3e1f8087	0.15576373
191	0x3dbdd292	0.09268679
192	0x3cba12ea	0.022714097
193	0x3d8411e8	0.06448728
194	0xbd998a5d	-0.07497094
195	0xbe65d60d	-0.22444935
196	0x3e39ec0a	0.18156448
197	0x3c011782	0.00787914
198	0x3deb8615	0.115001835
199	0xbd9155e3	-0.0709646
200	0xbde10312	-0.10986914
201	0x3df0cb23	0.11757495
202	0xbe54bd9e	-0.20775458
203	0xbd3eb705	-0.04656126
204	0x3d9cd40c	0.07657632
205	0xbd803d98	-0.06261748
206	0xbd654acb	-0.05597953
207	0xbd227f70	-0.039672315
208	0xbe0a59f4	-0.13510877
209	0x3e4d2c4a	0.20036426
210	0xbda85a55	-0.082203545
211	0x3c0e4a33	0.008684683
212	0x3dd66ae6	0.10469608
213	0x3d01a64a	0.031652726
214	0xbd977c23	-0.07396724
215	0xbcefc374	-0.029268004
216	0x3eb52835	0.35382238
217	0x3d94b3fc	0.07260892
218	0x3ceb04c9	0.028688805
219	0xbd892f27	-0.06698447
220	0x3e878cd6	0.26474637
221	0x3d1b558e	0.03792339
222	0x3dff647b	0.12470337
223	0xbdf9f0a5	-0.122041024
224	0x3dc35987	0.0953856
225	0xbe0ce4d1	-0.13759162
226	0xbd217693	-0.03941972
227	0xbe56e7e8	-0.20986903
228	0xbdc385d5	-0.09547011
229	0x3baea3a6	0.005329567
230	0x3d16768e	0.036734156
231	0xbdbb9837	-0.09159892
232	0x3e9e439c	0.30910957
233	0x3e60ae05	0.21941383
234	0xbda9c37b	-0.08289238
235	0xbd4cb737	-0.049979415
236	0x3e5c4948	0.2151233
237	0x3d8c2422	0.06842829
238	0xbd66787a	-0.05626724
239	0x3d065eed	0.032805372
240	0xbd887162	-0.06662251
241	0xbe60cf8e	-0.21954176
242	0xbd92aedc	-0.07162258
243	0xbd1f089f	-0.03882658
244	0x3ef336a0	0.47502613
245	0x3dd885e2	0.10572411
246	0xbe1d4292	-0.15357426
247	0xbe9dc189	-0.30811718
248	0x3dc6675b	0.09687682
249	0xbe3e1821	-0.18563892
250	0x3c6ecf87	0.014575846
251	0x3e196ff2	0.1498411
252	0xbddc1457	-0.10746067
253	0xbd824544	-0.063608676
254	0x3d1a0a0e	0.037607245
255	0x3d686e8f	0.056746062

seq3.0.bias f4 [8]
0	0x3d9d1d12	0.0767156
1	0x3d007ad4	0.031367138
2	0xbdb2655d	-0.0871074
3	0xbd956f2a	-0.072965935
4	0x3dab3b92	0.083609715
5	0x3e7300bf	0.23730753
6	0xbc82c732	-0.015964124
7	0xbd4e4955	-0.050362904

seq3.3.weight f4 [100, 128]
0	0x3c350c77	0.011050335
1	0x3c2f45b2	0.010697769
2	0x3a490cba	0.0007669438
3	0xbd8c069a	-0.06837197
4	0xbd12fa3d	-0.035883177
5	0xbe0ac7ab	-0.1355273
6	0xbdede4e4	-0.11615923
7	0x3d84d53a	0.06485982
8	0xbd54d6a5	-0.051962513
9	0xbda0bdd8	-0.0784871
10	0x3e1077be	0.14108178
11	0xbce1cbf8	-0.02756308
12	0xbd7d13d3	-0.061786484
13	0xbd517518	-0.05113706
14	0xbe1ba659	-0.15200175
15	0xbd3b9b07	-0.045802142
16	0x3d96e7c3	0.07368424
17	0xbd9576b6	-0.07298033
18	0x3d7797ae	0.060447387
19	0x3d6c9031	0.0577547
20	0xbd8ec8a0	-0.0697186
21	0xbd5e3210	-0.054246962
22	0x3da28410	0.07935345
23	0x3bc637b8	0.0060491227
24	0x3db3a483	0.087716125
25	0xbd817825	-0.06321744
26	0x3e183c65	0.14866789
27	0xbd897360	-0.06711459
28	0xbd9207ee	-0.07130419
29	0xbcaed959	-0.021343874
30	0xbd8b1825	-0.067917146
31	0x3d912c04	0.070884734
32	0x3da2639d	0.07929156
33	0xbda36a73	-0.07979288
34	0x3d4652cd	0.04841881
35	0x3c387cbc	0.011260208
36	0xbd822a0a	-0.063556746
37	0x3c2b5293	0.010456699
38	0xbdd5c8ba	-0.10438676
39	0x3d270e4e	0.040785126
40	0x3c6fd616	0.014638444
41	0x3d984594	0.07435146
42	0xbdab7161	-0.08371235
43	0x3d885ed8	0.06658715
44	0x3d008410	0.031375945
45	0x3da19804	0.07890323
46	0xbe22f6ff	-0.15914534
47	0xbda062eb	-0.07831367
48	0xbd606b9c	-0.054790124
49	0x3c227605	0.009915833
50	0xbd3170e8	-0.043320566
51	0xbb220b5b	-0.0024726007
52	0xbd86a862	-0.06575085
53	0x3ce06468	0.027391627
54	0xbbc935e9	-0.00614046
55	0x3d6ae2cc	0.057345197
56	0x3cd2ada8	0.025717571
57	0xbe076c55	-0.13224919
58	0x3d39568d	0.045248557
59	0xbba6f109	-0.0050946516
60	0xbd4d9e7d	-0.050199974
61	0x3d7f3389	0.062305007
62	0x3d81eb48	0.063437045
63	0xbbafbc50	-0.005363025
64	0x3c57945f	0.013157933
65	0xbc405c43	-0.011740747
66	0xbd9a62b4	-0.075383574
67	0xbd99f7f9	-0.07518
68	0x3c16f761	0.009214253
69	0xbdbb4add	-0.091451384
70	0x3df4b746	0.11949019
71	0xbdf6bc68	-0.120476544
72	0xbd665066	-0.056229018
73	0xbcc43598	-0.023951337
74	0xbd0d6ebd	-0.034529436
75	0x3cdecddf	0.027197776
76	0xbd10ca2f	-0.035349067
77	0xbd62c7dd	-0.055366386
78	0xbcc522c8	-0.024064437
79	0x3c9949ba	0.018711913
80	0x3b82ac42	0.00398782
81	0x3ccf20ad	0.025284136
82	0x3d6e9c65	0.05825462
83	0x3d1c0dff	0.038099285
84	0x3dac5bfa	0.08415981
85	0xbce94e2f	-0.028479664
86	0x3cc32eea	0.023826081
87	0xbd88f554	-0.066874176
88	0xbd6241a8	-0.055238396
89	0x3dafa0ce	0.08575593
90	0xbe514168	-0.20435107
91	0x3c34c790	0.0110339075
92	0x3c84a918	0.016193911
93	0x3d8dbca1	0.06920744
94	0xbcc6a9a7	-0.024250818
95	0xbb5bb936	-0.0033527142
96	0xbc54d88c	-0.012991082
97	0xbd2d85d8	-0.04236397
98	0xbd8af09e	-0.06784175
99	0x3da4ef04	0.08053401
100	0xbd7f0172	-0.062257238
101	0x3d938d33	0.07204666
102	0x3cd73318	0.02626948
103	0x3d8268fe	0.06367682
104	0xbd261a0c	-0.040552184
105	0xbd3bc9f8	-0.04584691
106	0x3d6e6607	0.05820277
107	0x3d144495	0.036198217
108	0x3bd853d7	0.0066017914
109	0x3dedf12c	0.116182655
110	0xbdb645fd	-0.08900068
111	0xbcf615c5	-0.030039677
112	0x3d2b177c	0.041770443
113	0x3d95783e	0.07298325
114	0xbc03d91e	-0.00804737
115	0xbd742289	-0.059603248
116	0xbb6c01eb	-0.0036011885
117	0x3d5923e8	0.05301276
118	0xbd49dc26	-0.049282216
119	0xbda0da9e	-0.07854198
120	0xbd28ff53	-0.04125912
121	0x3da29e6d	0.079403736
122	0x3cb2f319	0.021844434
123	0xbd9242cc	-0.07141647
124	0x3d9f7b06	0.07787137
125	0xbcdbd53e	-0.02683508
126	0x3d937dd9	0.07201738
127	0x3d8b2f04	0.06796077
128	0xbd859730	-0.06522977
129	0xbd640dab	-0.055677097
130	0xbd5d99e6	-0.054101847
131	0x3ddaf7b2	0.106917754
132	0x3c9ae936	0.018910032
133	0xbc77beb7	-0.015121154
134	0xbdd1d3a7	-0.102454476
135	0x3dffb2e7	0.12485295
136	0x3d040d96	0.03223952
137	0x3da77814	0.081772
138	0xbe0ce8d9	-0.137607
139	0x3df9f86c	0.12205586
140	0x3d80cc7b	0.062890016
141	0xbdeb3584	-0.11484817
142	0xb9b19a93	-0.00033875238
143	0x3881a2b3	6.1815044e-05
144	0xbd76e697	-0.0602785
145	0xbd74ba5a	-0.05974803
146	0x3d8fb011	0.07016004
147	0x3c973f04	0.018462665
148	0xbc56a263	-0.013100239
149	0x3cb2d439	0.021829711
150	0x3e389e2b	0.18029086
151	0x3e50886b	0.2036454
152	0xbadbe482	-0.0016776475
153	0x3e1598ff	0.14609145
154	0x3cd7c423	0.026338642
155	0x3dd4a464	0.103829175
156	0xbd9270c4	-0.071504146
157	0x3af5437e	0.0018712131
158	0xbdca311a	-0.09872647
159	0x3cf54a38	0.029942617
160	0x3d4776d6	0.048697315
161	0x3d063ef8	0.032774895
162	0x3cc4493c	0.023960702
163	0x3d832082	0.06402685
164	0x3d0e43d5	0.03473266
165	0x3e08d4ea	0.1336247
166	0xbe00fb4b	-0.1259586
167	0xbd5f10c8	-0.054459363
168	0xbd8f013b	-0.069826566
169	0x3dce633b	0.100775205
170	0x3d28c5a7	0.04120412
171	0x3cc5cac2	0.024144534
172	0xbd975768	-0.07389718
173	0x3d228a77	0.03968283
174	0xbd222051	-0.0395816
175	0x3d09b48e	0.033619456
176	0x3d53e916	0.05173596
177	0x3d9705f5	0.07374183
178	0xbd9c1629	-0.07621414
179	0xbd4c5c39	-0.049892638
180	0x3d70a1b9	0.05874798
181	0x3d0047d4	0.0313185
182	0x3d9bdce1	0.07610489
183	0x3d5b0e30	0.053480327
184	0x3c9c3862	0.019069854
185	0x3df64efc	0.12026784
186	0x3b15e42e	0.0022871601
187	0xbd81e2f5	-0.06342117
188	0xbacafbb1	-0.0015486387
189	0x3c873177	0.016503079
190	0x3db28da2	0.087184206
191	0x3c87fc97	0.016599936
192	0x3da3474c	0.07972583
193	0x3d85a37d	0.065253235
194	0x3c1b6831	0.00948529
195	0xbd71e53a	-0.059056498
196	0xbc2421ca	-0.010017822
197	0x3d537e31	0.051634017
198	0xbe4869de	-0.19571635
199	0x3dfb716a	0.122774914
200	0x3d5ca10e	0.05386453
201	0xbd3363bb	-0.043796282
202	0xbe2ce7b3	-0.16885261
203	0xbdb9e089	-0.0907603
204	0xbd561963	-0.052270304
205	0x3b0c4223	0.0021401725
206	0xbcb7bbd6	-0.022428434
207	0x3db4ef74	0.088347346
208	0x3c5dc55d	0.013535825
209	0xbe16c579	-0.14723767
210	0xbc81f025	-0.01586158
211	0x3d5bb392	0.05363805
212	0x3c39780f	0.011320128
213	0x3e939d10	0.28830767
214	0x3d9977aa	0.07493527
215	0xbd23044c	-0.03979902
216	0xbd1c7cd0	-0.038204968
217	0xbdbb572e	-0.091474876
218	0x3d00c06a	0.0314335
219	0x3e5d5c50	0.21617246
220	0xbdd50049	-0.10400445
221	0x3d2529bc	0.040323004
222	0xbe117452	-0.14204529
223	0xbc91dc16	-0.01780514
224	0xbdad0c4c	-0.08449611
225	0xbda43a37	-0.08018916
226	0xbd1b7afd	-0.037959088
227	0xbd782edd	-0.060591567
228	0xbd41c026	-0.047302388
229	0x3e290d3c	0.16508955
230	0xbd70d0cd	-0.058792878
231	0x3cfe8953	0.03107134
232	0xbd2dc33f	-0.04242253
233	0x3dec3c84	0.1153498
234	0xbe1b65fa	-0.1517562
235	0x3c9e7ee0	0.019347608
236	0x3d37c5e9	0.044866476
237	0xbd052ace	-0.032511525
238	0x3dc02eb5	0.09383909
239	0x3d8f48f0	0.069963336
240	0xbcbd08d7	-0.023075504
241	0x3d842b04	0.06453517
242	0x3dade70a	0.08491333
243	0x3cd3d986	0.02586056
244	0x3c9ec1b5	0.019379476
245	0xbd996dba	-0.07491632
246	0x3da6c03b	0.08142134
247	0xbda9971f	-0.08280777
248	0xbd8b745a	-0.06809302
249	0xbd8c42e1	-0.06848694
250	0x3db36958	0.08760327
251	0x3c3ec9bf	0.01164478
252	0xbd9e979e	-0.077437624
253	0x3c2c14d1	0.01050301
254	0xbd757ca9	-0.05993334
255	0x3d98ef9f	0.07467579

seq3.3.bias f4 [100]
0	0x3d0f0250	0.034914315
1	0x3e0e039b	0.13868563
2	0xbd2f460b	-0.042791408
3	0xbd405402	-0.046955116
4	0xbd3d9852	-0.046287842
5	0x3d212051	0.03933746
6	0xbd181d0f	-0.037137087
7	0x3c60ccba	0.013720686
8	0xbd7c8583	-0.061650764
9	0xbd47c530	-0.048772037
10	0x3cdc181d	0.026866967
11	0xbd2bd478	-0.041950673
12	0xbd839862	-0.06425549
13	0xbd723d62	-0.05914057
14	0xbd60a1c5	-0.054841775
15	0xbcdb9240	-0.026803136
16	0x3d52324f	0.05131751
17	0x3da3d1b3	0.07998981
18	0x3c9e0476	0.019289237
19	0x3d047a8c	0.032343432
20	0x3d2876ab	0.041128796
21	0xbcbeffec	-0.023315392
22	0xbd335ff4	-0.04379268
23	0x3dd84010	0.10559094
24	0x3d86007c	0.06543061
25	0xbd201aa0	-0.03908789
26	0x3d9aacbc	0.07552478
27	0xbd14b48a	-0.036304988
28	0xbd3b0819	-0.04566202
29	0x3d86a0cf	0.065736406
30	0x3d767f5f	0.060180064
31	0xbbafe6e6	-0.0053681014
32	0x3d37f40b	0.044910472
33	0x3dbd1fbc	0.092345685
34	0x3d8c97d0	0.068648934
35	0x3e3c7bbb	0.18406574
36	0x3d823b5f	0.063589804
37	0x3c02045f	0.007935612
38	0x3df3c405	0.11902622
39	0xbdaa92e4	-0.083287984
40	0xbdb84048	-0.08996636
41	0x3dea07c2	0.11427261
42	0x3d3f1dc0	0.04665923
43	0x3dac5a5f	0.084156744
44	0xbd3920fa	-0.045197465
45	0xbd0d3c92	-0.034481592
46	0x3d8b283d	0.06794784
47	0x3dbdcef3	0.09267988
48	0x3de7798d	0.11302481
49	0xbcd748aa	-0.026279766
50	0xbd776cb9	-0.06040642
51	0xbdc1aa36	-0.09456293
52	0xbb0e256f	-0.0021689793
53	0xbd66d26e	-0.056353025
54	0x3dcdf7aa	0.10057004
55	0x3de98b09	0.11403472
56	0x3d052adc	0.032511577
57	0xbd250fa3	-0.040298115
58	0xbc3f087c	-0.011659738
59	0x3dbf22cc	0.09332809
60	0x3dc956a0	0.098309755
61	0x3cde1aab	0.027112326
62	0x3dc2132f	0.09476315
63	0xbd22c2dc	-0.039736614
64	0x3cfd2f83	0.030906444
65	0x3cada020	0.021194518
66	0x3cfe33e6	0.031030606
67	0x3dbe19d9	0.09282274
68	0xbc16168b	-0.009160648
69	0x3cd7f7c2	0.026363257
70	0xbdb0cdbc	-0.08632991
71	0x3dfb2198	0.12262267
72	0xbb968a3e	-0.0045941165
73	0x3d729d78	0.059232205
74	0xbd7cde35	-0.06173535
75	0x3dfefa0b	0.12450036
76	0x3ddc5e95	0.107602276
77	0x3dcba6ee	0.09943949
78	0x3db8cb6e	0.09023176
79	0x3d2c066f	0.041998323
80	0x3d356d53	0.044293713
81	0x3d61182d	0.054954696
82	0x3d87238f	0.06598579
83	0xbdaac6cd	-0.083386995
84	0x3d344e51	0.04402
85	0x3d6811ad	0.056657482
86	0xbd73447c	-0.059391484
87	0xbd46d0e9	-0.048539076
88	0xbc6127b3	-0.013742375
89	0xbd02e7b3	-0.031959247
90	0x3db4622a	0.08807786
91	0xbd3a4e46	-0.045484804
92	0xbd5b0dcd	-0.05347996
93	0x3d05dc27	0.032680657
94	0x3d96f73d	0.07371376
95	0xbc82d796	-0.01597194
96	0xbc74ffc9	-0.014953562
97	0x3d39cd5a	0.045361854
98	0xbd79fc67	-0.061031725
99	0xbcf0f9f8	-0.02941607
