tests/data/invprop/ood.onnx (onnx, 167695 bytes, 10 tensors)

orig_model.1.weight f4 [200, 2]
00000000: f6b4 703e fd68 22be 8d6a e7bb 1305 b43d
00000010: 7203 38be ada1 333c dee0 16bb e68f a63b
00000020: 5fa0 7f3a 91a3 7eba 941d 2c3b 54e9 f439
00000030: 4c0e 323e b5ab f1bd 07fa 34ba 2f78 5fba
00000040: fd42 fb3a d4b6 c5bc c379 5f3d 5c73 4c3c
00000050: 51dc 09be 1806 dabd 112f b33b 23ca d5bd
00000060: 6f9a 85be 9b16 d53c a453 993e 13a0 893e
00000070: 868d 5abe 08b4 5b3e a877 c93d efb2 193f
00000080: e4e4 b13e ea0a 75be 2db1 6dbe 0ac2 a8be
00000090: 0158 b33e f2c4 7cbb 5508 3e3e 60a8 03be
000000a0: e818 ba3e 50b8 73be 9fd4 453c bd24 2cbd
000000b0: 901d e5bd f2fc fd3d a2c5 c1be 3e5c 2e3d
000000c0: 6eff 95bd fb76 5fba 537a 1dbe e681 8fbe
000000d0: cacc 383e f984 f1bd 851f dd3e 0226 c53e
000000e0: e169 9c3b afa1 52bf 9c91 233d ad76 693c
000000f0: b0b8 04bc c814 ac3e 950f 903e f8aa 813e
00000100: 95c1 f6bd 6c81 35bb a094 5bbb b1a7 213d
00000110: 232a 07be 232c 92be 7727 a73e 8379 2bbb
00000120: 41f0 3a3e f417 04be 0303 103e 4133 2b3d
00000130: 9271 10bb 6b53 8f3d f2a4 05bf 7d9e 763d
00000140: 8f49 ddbe e507 84be da50 743b 11d9 9cbd
00000150: ea25 943e ff91 48be 76ed 86be 2aba 403e
00000160: 1305 6abc ba72 183f 5d09 d73d 53e7 47be
00000170: 1a25 eb3a 2d2f 0f3b 877f fbbd 9725 84be
00000180: 05e3 213e f174 103e 94f3 78be d265 0cbe
00000190: e27c 703e f5a4 31be 1a79 973e 929d 163e
000001a0: 9cbe 143c d698 33be 62e2 7e3d c87d 183c
000001b0: 53b1 c83b 02a8 a63c c87a 133e f972 193e
000001c0: cd48 8b3e 542a 40be 7c6b 513e f133 3c3e
000001d0: dfde b73e 726c d83d ca18 bdbe fec7 61be
000001e0: 60b7 b8be f7db 283d 0bc5 d33e ca0e 8bbe
000001f0: a7d0 943e 6c13 60be c698 49be 7382 5ebc
00000200: 37b0 8cbc 44b3 3e3f cdd9 afbe a660 243d
00000210: 9a9c ba3e 0d5d a63e 5664 653e 03e9 4d3e
00000220: e0b8 1a3d 02e1 2f3c 88df c7be d150 84be
00000230: 02d5 48be 5fff 4fbd eff2 a7be 4427 fb3d
00000240: e79f 313c 7bd0 d6bd fd07 9bba becc 8a3d
00000250: 8f08 aa3e e648 2d3e 7bad 20bc 0947 113e
00000260: 8c79 8fba 518e aab9 682d 0cbe df46 97be
00000270: 2708 c2bd 8724 50be c41f 853e 05e6 2dbe
00000280: ff32 bcbe e850 473d 788e 543e 38e8 3d3e
00000290: be31 a7bd 344c 853d 335a cabd 421a 19be
000002a0: 4f1f 5ebe a85d 99be 074b 28be c326 b13d
000002b0: 11ae e23a 3d42 193b 5fad 0f3f 633d 2d3e
000002c0: 3b23 6d3e 0948 2cbe d21c 46be ad2d 5b3e
000002d0: 7611 27be a853 843c f813 86be 1749 11be
000002e0: 073b 81be 7df4 873e 0a8b 01bf 9a47 95be
000002f0: 1bb2 623b 555f 1dbf 7e9c 163e b978 e4bd
00000300: 8d04 c9be d85e 313d 20cf 873e 5de5 39be
00000310: d3a8 8c3e 165b 7c3e 42e4 963e dc73 63be
00000320: f648 613e 32b6 1dbe 7b83 ac3e 0e7a 60be
00000330: 338e a43e 2e5e 1aba fa50 41ba e668 9eb9
00000340: b7ee 5ebc 4b08 0f3f be58 cb3a a484 3f3b
00000350: 0fbe 99be 2111 1d3e 8713 ca3e a731 b53e
00000360: edcb 863e ca30 4cbe 6375 a1bc d465 5a3f
00000370: 0a70 b6be f647 413e 822e 07be d927 91be
00000380: c533 8e3e dc07 46be b4a2 e8bb fc0d bf3d
00000390: 93e8 a03e 579a 7b3e 9a6f 95be 34c7 4cbe
000003a0: b231 d53e 5a25 3a3b 03fc a0be 26d5 c63d
000003b0: 2e52 b3be e526 e83d 6fbd c23d 11a6 34be
000003c0: 8d25 10bf 7efc febc 13bb 743b 7a7a 43b9
000003d0: c0fb aebe 4690 1c3d 7f38 abbe 9b4d 46be
000003e0: 6798 93be 007c 263e 2981 d93e 3843 903a
000003f0: 3373 84bb 6cdf 803d 6aee 56bc d464 3fbf
0.23506531 -0.15860362 -0.0070622624 0.0879003 -0.17970064 0.0109638395 -0.0023022215 0.005083072
0.0009751375 -0.00097137043 0.0026262747 0.0004671315 0.17388266 -0.11800329 -0.0006903712 -0.00085246837
0.0019169744 -0.02413503 0.05455948 0.012478676 -0.1346295 -0.106456935 0.0054682572 -0.10438945
-0.26094386 0.026011756 0.29946625 0.2687994 -0.2134305 0.21455395 0.09837276 0.60038656
0.34744942 -0.23929945 -0.23212118 -0.3296054 0.3502808 -0.0038569537 0.18557866 -0.12857199
0.36347127 -0.23800778 0.012074619 -0.042027224 -0.11187279 0.12401761 -0.37846094 0.042568438
-0.0732411 -0.00085245044 -0.15378694 -0.28028792 0.18046871 -0.11792941 0.4318811 0.3850556
0.004773364 -0.8227796 0.039933786 0.014249486 -0.008100674 0.33609605 0.28136888 0.2532575
-0.120486416 -0.002769555 -0.0033505335 0.039466564 -0.13199668 -0.285493 0.32647297 -0.0026164956
0.18255712 -0.12899762 0.14063649 0.041796926 -0.002204035 0.069983326 -0.5220481 0.06020974
-0.43220183 -0.25787273 0.0037279637 -0.0765859 0.28935176 -0.19586943 -0.26353043 0.18821016
-0.014283436 0.5955006 0.10499833 -0.19521837 0.0017940134 0.0021848187 -0.12280183 -0.2580993
0.15809257 0.1410711 -0.24311668 -0.13710716 0.23485139 -0.17348082 0.2958458 0.14708546
0.009078648 -0.17538771 0.062227614 0.009307332 0.0061246543 0.020343784 0.14402306 0.14985265
0.2720398 -0.18766147 0.20451158 0.18379189 0.35912225 0.10567559 -0.36932975 -0.22048947
-0.36077404 0.0412254 0.4136127 -0.2715972 0.2906544 -0.21882409 -0.19687185 -0.013580906
-0.01717387 0.7449229 -0.34345856 0.040131234 0.36447603 0.32492867 0.22401556 0.20108418
0.037773967 0.010734798 -0.39037728 -0.25842908 -0.19612506 -0.05078065 -0.3280253 0.12263349
0.010841346 -0.10488983 -0.0011827942 0.06777333 0.33209655 0.1692234 -0.009806986 0.14187254
-0.0010946258 -0.0003253096 -0.13689196 -0.29546258 -0.09474211 -0.20326434 0.26000798 -0.16982277
-0.36757657 0.048661143 0.20757473 0.18545616 -0.081637844 0.06508675 -0.098804854 -0.14951423
-0.21691631 -0.29954267 -0.1643487 0.08649971 0.0017294307 0.0023385428 0.5612392 0.16917948
0.2315797 -0.16824354 -0.19346932 0.21404143 -0.16315255 0.016153172 -0.2618711 -0.14188038
-0.25240347 0.26553717 -0.5060278 -0.2915619 0.0034591022 -0.6147359 0.14708135 -0.111558385
-0.39261284 0.04330334 0.2652521 -0.18153901 0.27472553 0.24644122 0.29471022 -0.22212166
0.22000489 -0.15401533 0.33694062 -0.2192156 0.3213974 -0.00058886677 -0.0007374432 -0.00030214264
-0.013606719 0.5587203 0.0015514118 0.0029223347 -0.30027816 0.15338565 0.39468023 0.35389444
0.26327458 -0.19940487 -0.019709295 0.8531163 -0.35632354 0.18875107 -0.13201335 -0.28350714
0.27773872 -0.19338936 -0.007099474 0.09328839 0.3142744 0.24570595 -0.29186708 -0.19997865
0.41639477 0.002840361 -0.3144227 0.097086236 -0.35023636 0.113355435 0.09508788 -0.17641474
-0.563073 -0.031126257 0.003734295 -0.00018642275 -0.34176445 0.038223527 -0.3344154 -0.19365542
-0.2882721 0.1625824 0.42481354 0.0011006361 -0.004042053 0.06292614 -0.013118366 -0.74763227

orig_model.1.bias f4 [200]
00000000: 5983 8abe 2307 9b3d a39c 30bd e611 f1bb
00000010: 9ace 10bb 6406 0cbc 1409 4dbe a7cd dbbb
00000020: e6ed 723d 28d7 15bc f931 10be 85d0 ab3d
00000030: e0f5 5a3e 8952 bbbe b562 383e 9894 97bd
00000040: 6fd3 ccbe 0480 623e 72bb b5be ea2d 5abe
00000050: 4f1e d7be a38f b53d 86ab bb3d 8201 9f3e
00000060: 7603 93bc b2aa f83d 4379 55be 7da9 06bf
00000070: 7dbd 71be 01ec c7bb 621b b4bd de7c b0be
00000080: 71c0 f0bc 6a6c 0b3d e18d d33d ec83 abbe
00000090: 3a29 273e dd04 fa3d 1fb1 873d 833b da3e
000000a0: d2f2 edbe 15be b13d f999 aabe fb72 773e
000000b0: 6405 f6bd 7239 903d 160e aabb 8ca2 c53d
000000c0: 1a6b 45be 38f7 80be 324b 573e a686 8f3e
000000d0: 3d48 103e ddf1 34bc 4dfc be3d 8a23 f93d
000000e0: 6fe6 9fbe 5c04 80be 9287 9f3e c058 cbbe
000000f0: c711 973e 3ca7 f4be 2b35 843e 1c25 1c3e
00000100: 3534 19be 7d96 8f3e 3335 e3be ae24 8cbe
00000110: 0c35 c5bb 71a3 d0be e2a2 49be 5fcf a0be
00000120: 6e3e bb3d fcde 8f3d 69be a13e 6ef9 f13d
00000130: c094 14bc 8009 dc3d 2193 983d 34e4 99be
00000140: b690 983e c4bf 81be 7095 943d 5f39 bd3d
00000150: 66b6 4f3e 7aea 34be 5c21 f4bb 5025 fa3e
00000160: bf3c 533e 3977 223e cf63 093e 934a 8bbe
00000170: de90 543e 8dd3 06bf 5497 34be 5b20 063e
00000180: afae a43e f469 9cbe e4e5 abbe 550d 863e
00000190: f63a 81be 421e c7be 52a4 a8be 2b76 96bb
000001a0: 9fe8 15be 2704 b7bb 39fc a5be 7e4b f7be
000001b0: 06ff 6f3e 15a3 2fbe 110f c4be 94d1 d23d
000001c0: c666 a3be 48e9 a13d 581d 833e 9e05 9dbe
000001d0: 0bc3 dbbe d849 9cbe 5d27 aebe f6f5 813d
000001e0: d5a6 03bf 1b4d eabb ef09 8f3e 1338 b1be
000001f0: 0196 9dbe 8e0c e1be b19b 5a3d 97f8 4abe
00000200: 02e0 92be f400 bebb ff8e 4a3e 4737 51be
00000210: ea1a 873d 58a0 983d 82cb 28bc 0578 eebb
00000220: 1864 c13d d2fd 033d cba2 e3be 5f76 7d3d
00000230: 0a78 713d 9c53 e4be 5f52 81be c6f2 91be
00000240: b771 b5bb 3de3 c43d 5069 b0be 05bf 093e
00000250: 22c2 84be a54e c63d bee2 dbbd e365 23be
00000260: 9322 b33d 84f3 e3be f80c 3abe cdbf eb3c
00000270: f695 d93e 7fc8 9dbe a130 8dbe b8d4 a5be
00000280: 40a3 89bb 8855 1bbe 07a7 2abe 99d5 afbe
00000290: 16db 7b3e 01cd 58bb b064 c1be e867 b1bb
000002a0: 57e2 b13d a75a 52bb 27f5 df3d e681 1abe
000002b0: 8c5d fbbb 73a9 a4be bc97 5bbe e0f9 d9bb
000002c0: 8bc7 173d a9f5 76be b842 733e 907f 24be
000002d0: 7307 033e 3559 e43d bd12 18be 3124 ce3e
000002e0: aee7 f33d ef63 e2be a4c2 acbb 7356 903d
000002f0: ac7a 123e f59c 793d dd81 a0be 2a03 913e
00000300: f5a5 443e c0d0 133e 67c8 05be b62d f93d
00000310: 0f78 02be 7ec9 45bc 56d4 05bc 86bf d83e
-0.27053335 0.075697206 -0.04311813 -0.00735687 -0.00220958 -0.0085464455 -0.20022994 -0.0067078653
0.05930891 -0.0091455355 -0.14081563 0.08389381 0.21382856 -0.36586407 0.18006404 -0.07401389
-0.4000506 0.22119147 -0.35494572 -0.21306577 -0.4201531 0.08865287 0.09163575 0.31055838
-0.017945986 0.121419325 -0.20847039 -0.5260237 -0.2360744 -0.006101132 -0.08794285 -0.34470266
-0.029388638 0.03403894 0.10329796 -0.33499086 0.1632432 0.12207959 0.0662558 0.4262353
-0.4647432 0.086788334 -0.33320597 0.24164955 -0.12012747 0.07042207 -0.0051896675 0.09650144
-0.19279137 -0.25188613 0.21024778 0.28032416 0.14090057 -0.011043993 0.09325466 0.12164982
-0.31230494 -0.25003326 0.3115812 -0.39716148 0.2950575 -0.4778384 0.25821814 0.15248531
-0.14961322 0.280445 -0.44376525 -0.27371734 -0.0060182866 -0.40749696 -0.19691041 -0.31408212
0.09142767 0.07024953 0.31590584 0.11815153 -0.009068668 0.107439995 0.074499376 -0.30056918
0.29797906 -0.25341618 0.072550654 0.09239458 0.20284423 -0.1766757 -0.007450266 0.48856592
0.20628642 0.15865792 0.1341698 -0.27205333 0.20758387 -0.5266655 -0.17635852 0.1309828
0.32164523 -0.30549586 -0.3357383 0.26182047 -0.25240296 -0.38890272 -0.32937866 -0.0045917234
-0.14639519 -0.005585212 -0.32418993 -0.48299783 0.23437127 -0.17152055 -0.38292745 0.1029388
-0.31914347 0.07905823 0.25608325 -0.30668348 -0.42922243 -0.30525088 -0.34014407 0.063457415
-0.5142644 -0.007150305 0.27937266 -0.34613094 -0.30778506 -0.4395489 0.053371135 -0.19821392
-0.2868653 -0.0057984535 0.19781111 -0.20431243 0.0659693 0.07452458 -0.010302426 -0.007277491
0.094429195 0.032224484 -0.4446014 0.061880466 0.05895237 -0.4459504 -0.25258157 -0.28505534
-0.0055372375 0.09613655 -0.34455347 0.13451774 -0.25929362 0.09682969 -0.10736607 -0.15956835
0.08746829 -0.44521725 -0.1816901 0.028777981 0.42497224 -0.3081703 -0.27576163 -0.32388854
-0.004200369 -0.15169346 -0.16665278 -0.3434265 0.24595293 -0.0033081176 -0.3777213 -0.005413998
0.08685749 -0.003209749 0.10935431 -0.15088615 -0.0076710638 -0.3216053 -0.21444601 -0.006652102
0.037055533 -0.2411715 0.2375592 -0.16064286 0.1279581 0.111498274 -0.14850898 0.40261987
0.11909424 -0.44216868 -0.0052722264 0.07047739 0.14304608 0.0609407 -0.31349078 0.28322726
0.19203933 0.144351 -0.13064729 0.12166922 -0.12741111 -0.012071965 -0.008168301 0.4233362

orig_model.3.weight f4 [200, 200]
00000000: 7a69 633c 50a0 0b3c fc0f 913c 6c98 f339
00000010: 37e9 03ba 1be7 61ba 17d5 273c 5cc9 683a
00000020: 4d13 43bc 4eaf ff3b d4b9 503c 78fe f4bc
00000030: 708c 053c 707a 2e3d b886 d53c 5c12 8f3d
00000040: f687 9d3c 1363 8bbc db5a f93c e3ca 283c
00000050: f61f b53c 68cf 95bc 0b31 893c 8c80 563c
00000060: 990b d83b e733 65bc de8f 2c3c fb3f 7c3d
00000070: 5018 893b 2bb1 ec3b e9dd 263d a096 223d
00000080: 8075 1f3c b400 613b b852 8dbc 060f e63c
00000090: ce96 e3bb 77fc 003c 199c a73b a952 943c
000000a0: 4e81 3a3d 88ac c9bc 66d7 8a3c d129 973c
000000b0: 5f9f 8e3d d34a bbbc 3607 42ba a4b4 66bc
000000c0: 11a8 b03c 9893 cd3c 22bf 53bc e2f3 9e3c
000000d0: f879 50bd 982b d63b 7e8f f4bb 8598 b73c
000000e0: 41e4 703c 05ab f43c f484 a83c 14c3 203d
000000f0: 8164 3f3c 9b1e ce3c 79d8 8ebc cb82 043b
00000100: ebc2 b23d d98e 443c df2e 563d 0e40 ff3c
00000110: 872e 973b 9c4c 253d 6c1c c33c 0f3f 2b3d
00000120: 1362 ffbc 03f0 9d3b fb91 c03c 6f75 733c
00000130: f786 fcb9 68cf 93bc 4fb6 37bc ed81 7b3c
00000140: ea27 753c b0a8 f73c f941 c23b 442f 0dbc
00000150: b153 80bc 1334 b83c 0b7d 9839 ec11 083d
00000160: 8ba2 3dbc aa1e da3c 094b b13b aa62 e43c
00000170: 9963 043d 3c0f 563d 25a7 373b ed97 23bc
00000180: 3e24 5f3c 7ebb 6b3c ab02 223d 245c 8cbc
00000190: 702f 333c 7317 a13c d04f de3c c966 113a
000001a0: f2de 853d 1498 abb9 4f77 2f3d df70 693d
000001b0: bdbf 7fbc 6778 c93d ca93 4d3d fdf3 89bc
000001c0: ef58 813c 1622 143c 1d65 283d b1fa fb3c
000001d0: 815f 133d 9e8e 243d 4b11 393d e30a b0bc
000001e0: 0c50 843d 2c26 1e3a e500 433c 848b 093d
000001f0: 3ed0 293d b3f2 163d 0f6c d73b 9362 783b
00000200: c9cc 083d bcb6 beb9 1717 1c3d 0e50 bd3d
00000210: 5be7 b3bc b120 cfbc 8ba4 4b3b 5ff6 013a
00000220: db1d 453c 1c30 bbbb eebc 5f3d dca4 31bc
00000230: de33 5a3b 1c4b 1f3d 0896 d53c d7f2 203d
00000240: 8d68 59ba 4f65 09bd cfed 263d 2305 3fbd
00000250: e8bf 033d 1082 7cbc 7225 293b be20 0a3c
00000260: 7185 f9bc 91e9 733d ad69 d43d 8701 80bb
00000270: 1c5f 443c bfb7 713c c330 133d 33bc 183d
00000280: 7fed 38ba d63c 733c 3135 0d3c 1161 333d
00000290: 11e5 d23b 0d75 a43b 7ec1 923c 8a72 6739
000002a0: a63c 66bc f5d2 5f3b 9d77 98bc 0741 8c3d
000002b0: 7e4e 62ba 07cf 033d c110 ba3c abb8 9c3b
000002c0: d2d5 c0bb 096f e23c 9a50 7a3c 425a 573c
000002d0: 1574 afbc b7a1 d5bb 3bd3 573c 90c2 1d3c
000002e0: f228 f9bb 6b39 693d 8fe2 56ba 1a46 55ba
000002f0: e6f0 f43c 883a 11bc 1b6b a23b b377 7fbc
00000300: d983 9e3c e76a 223c 3ac2 643c 5be5 6d3c
00000310: 6ca5 413b 2171 d23b ddda cd3b 04f1 d93c
00000320: 3cae 4f3b c31c a73c df54 aabb 031e 733a
00000330: 9a36 dfb9 d075 f8b8 72d0 183b 7d8f 473a
00000340: 89d8 ba3b 349e 59bc d5c8 293b e010 903a
00000350: dead 483d f0b6 d03c ddc2 2a3d 494f 143d
00000360: 15d8 9c3b 7a74 643d 7f92 133c b6e1 113b
00000370: 0fc2 c03b 116d 033c cfdd ad3c 293e 913d
00000380: 59e9 10bb e2af 0f3d 7f2b 103b d8e5 143d
00000390: ac74 6d3c 7120 11bc 9987 c23c 5921 ce3c
000003a0: ed0f 74bb 57c1 003c 2b85 e03c b9ff f93b
000003b0: 9754 47bc f730 1abb 4adf 7a3c f7b7 c73d
000003c0: 65cd 033c d1e6 c63b 02c3 343b 8f9c 593d
000003d0: 9ef1 2c3d 1ef6 c7bc 4cde 4bba a2c5 d33c
000003e0: 1ac7 573c ca19 a03b 5c98 9ebc 20cd 1dbb
000003f0: d7ac 3d3b 16b2 80bc 22f1 5a3c 51a0 dc3b
0.013880128 0.008522108 0.017707817 0.00046462135 -0.0005032005 -0.0008617506 0.010243676 0.00088801025
-0.011906457 0.0078028804 0.012739617 -0.029906496 0.008151159 0.042597234 0.026065215 0.06985924
0.01922987 -0.017015016 0.030438831 0.010302278 0.022109967 -0.018287376 0.016747018 0.013092171
0.0065931794 -0.013989425 0.0105323475 0.061584454 0.0041838065 0.0072232685 0.040738974 0.03969443
0.009732604 0.0034332694 -0.017251357 0.028083336 -0.0069454676 0.007872692 0.005115044 0.018105822
0.04553347 -0.024618402 0.016948413 0.018452557 0.069639914 -0.022862827 -0.0007401587 -0.014081154
0.021564515 0.025094792 -0.012923988 0.019403402 -0.05089757 0.0065359585 -0.0074633947 0.022411594
0.0147028575 0.029866705 0.02057121 0.03924854 0.011681677 0.025161078 -0.017437207 0.002021956
0.08728584 0.011996948 0.052290794 0.031158473 0.004613701 0.040356264 0.023817264 0.041808184
-0.031174695 0.0048198714 0.023507109 0.014859541 -0.00048165742 -0.018043235 -0.011212899 0.015350801
0.01496313 0.030231804 0.0059282747 -0.008617226 -0.015664907 0.022485768 0.00029084863 0.033220217
-0.011574398 0.02662595 0.005410556 0.027879078 0.032321546 0.052260622 0.002802321 -0.009984952
0.013619481 0.014387963 0.039553326 -0.01713378 0.010936603 0.019664502 0.027137667 0.0005546627
0.06536664 -0.0003272897 0.04283839 0.056992408 -0.015609679 0.09837418 0.05018977 -0.016839975
0.015789477 0.00904133 0.041112054 0.030759187 0.03597975 0.040175073 0.045182507 -0.021489566
0.0646058 0.000603291 0.011902069 0.033580318 0.04145836 0.03685255 0.006574161 0.0037900552
0.033398423 -0.00036375772 0.038107958 0.09243785 -0.021960905 -0.025284143 0.0031073417 0.00049576716
0.012031044 -0.005712522 0.054623537 -0.010842528 0.0033295075 0.03888999 0.026072517 0.03929409
-0.00082934723 -0.03354388 0.040754136 -0.046635758 0.032165438 -0.015411869 0.0025809673 0.008430658
-0.030459138 0.05954892 0.103717186 -0.003906432 0.0119855665 0.014753281 0.035935175 0.037288856
-0.00070544326 0.014846047 0.008618639 0.04379374 0.0064359982 0.0050188364 0.01791453 0.00022072546
-0.014052546 0.003415284 -0.018611724 0.068483405 -0.0008632912 0.03217986 0.022713067 0.0047827563
-0.0058848644 0.027640836 0.015278006 0.013144078 -0.021417657 -0.006519522 0.01317292 0.009628907
-0.007603758 0.056939524 -0.0008197212 -0.0008135751 0.029900026 -0.008864053 0.0049566156 -0.015592503
0.01934998 0.009913183 0.013962323 0.014520015 0.0029548062 0.0064221774 0.006282194 0.026604183
0.0031689545 0.020399457 -0.0051981057 0.00092741865 -0.00042574556 -0.00011847506 0.0023317602 0.0007612629
0.0057020825 -0.0132823475 0.0025907059 0.0010991357 0.048993938 0.025477856 0.041689742 0.036208425
0.004786501 0.055775143 0.009007095 0.0022259778 0.0058825086 0.008021609 0.02122393 0.07091934
-0.0022111742 0.035079844 0.0021998582 0.03635201 0.014493149 -0.008857832 0.023746299 0.025162386
-0.0037240938 0.007858596 0.02740725 0.0076293615 -0.012166164 -0.002352772 0.015312025 0.097518854
0.008044575 0.006069996 0.0027582054 0.05312782 0.04222261 -0.02440935 -0.000777696 0.025851075
0.013170028 0.004885887 -0.01935976 -0.0024078563 0.0028942132 -0.015709918 0.013363155 0.0067329784

orig_model.3.bias f4 [200]
00000000: e2a5 15be 253a 6a3d 168d 3abd ed63 76be
00000010: e57a 843d 77eb 97bc 693a 5fba c0b2 3939
00000020: c195 2b3b d1ee 04ba 26be b5bd bf45 2eb8
00000030: 81aa 573b a9ed 023e 8b86 823d 5b53 88ba
00000040: f340 4e37 544a 123e bf7f 203a cc96 053d
00000050: 64db 58bd 987e c9bd 1011 8fbc 4855 fb3d
00000060: a4de fe39 0ade 953c edba be3d ce35 6f3d
00000070: 696b d73b be73 ee3d a639 83bd b29b c6bd
00000080: 03a4 4a3d 7135 bd3c 7736 843d dc1e 973d
00000090: 218c cdb9 ab26 6eba 2b6a 65be d5f7 d83a
000000a0: 907b d4bd 23eb ca38 5730 193d 5c7c a9bd
000000b0: 45f0 10be 9165 573c bd4e b73c d71f f33d
000000c0: 3212 32bd 762c 5bba 634f 6cbe 20ac 663c
000000d0: f266 24b8 90d5 efbc 513c f23c 39c3 14be
000000e0: fbb0 483d 7ccb 46bc 3dbf 4fba c04b 92bc
000000f0: df5b 7a3d 27b1 30be e674 983c 6c2f aabb
00000100: 5a9b 2abe 5daf 9fba 34eb debd 5ae0 1d3c
00000110: a5ef ad3c 1669 23ba 2dad f83c 5036 5b3d
00000120: cd68 4dbe 5643 e03d 8687 d83a ff36 e33c
00000130: 0026 c3bb 884c 8ebc e0f7 a1bc d0d8 853d
00000140: c18b d4bd 00c2 c5bd 6f6a 69bc 33ca 00ba
00000150: 55b0 0ebe 05dd 8cbd 3918 58bd b038 dc3b
00000160: 8c67 a2bd 120b b93c 778c 3b3d e149 c039
00000170: 0612 9c39 d4ca c73d d9ca 153e 8270 3c3d
00000180: f6ff 53ba 802b 8dbc 9d6f 58bc ff67 e6bd
00000190: e619 1c3d 7dd5 18ba 7749 17bc 9c17 f5bc
000001a0: 6ecd 35bc d6e0 feba d0f7 fabd 367d ce3d
000001b0: c252 f3bb 3bb8 30bd c9dd 60be 36be bc3c
000001c0: 6ff0 8838 e906 563c 71ff 253d 6396 a1bb
000001d0: 91ca cc3b c0b0 0fb9 3a32 a9be a251 88be
000001e0: 2909 a0bd a9c6 7bbc c273 50bd 9826 163b
000001f0: 4271 0d3d c4fa e3bc 7ba7 5dbe 6990 aebe
00000200: 84e2 fdbd d0fd 7abc d739 77ba aa33 06bd
00000210: 35f3 373d b830 9838 49b4 003e a3b3 ab3d
00000220: 0ea9 2bbc 81b8 55bc af31 fa3d a6b6 39be
00000230: b7e4 d5bc e01d 13bd 1855 323d 828c 3c3a
00000240: 867a 31bd 512a a9bc a86f 2c3e 6f09 bcbd
00000250: 8293 ff3d d332 ff3b 14da 8c3d bc25 f53d
00000260: 23b5 563c decf 913b e7b1 a2bb 478d 9dbd
00000270: d9a6 2ebe ae8f 8f3d 4e25 22bc 8881 bbbb
00000280: d0ab 53bc 12ac 67be 44d9 23bd 7cec d5b9
00000290: f794 acbd cbdf 2d3d a654 973d a421 e3bd
000002a0: 117d b0bd b5d9 f2b8 e940 37b9 8d64 03bd
000002b0: da37 c1bb e99c 41ba 55c4 3cba dc9d c93d
000002c0: ce97 a43d baf8 723e 663b 0d3d 07f9 c0bc
000002d0: 40b0 bc3c 1d8b 05be 1f7f 2a3e 18a8 c9bb
000002e0: d66a acbd b81d e9b8 1ebd c33b d8c0 963d
000002f0: 8762 b23c 3682 34bd bc22 fcbc 12c5 eb3d
00000300: 5549 3b3e 530f 4abd 3c60 053d bd34 8439
00000310: 638f d83d cc1e 603e 9241 40bb b89f a6bc
-0.1461406 0.057184357 -0.045544706 -0.24061556 0.06468753 -0.018544896 -0.00085154787 0.00017709564
0.002618179 -0.0005070987 -0.088741586 -4.154979e-05 0.0032908025 0.12785973 0.06373318 -0.0010400818
1.2293679e-05 0.14286166 0.0006122551 0.032614514 -0.052943602 -0.09838599 -0.01746419 0.122721255
0.00048612535 0.018294353 0.09312997 0.05840092 0.0065740836 0.1164317 -0.0640748 -0.09697665
0.04947282 0.023096772 0.06455701 0.07378933 -0.0003920505 -0.00090847415 -0.22403781 0.0016553352
-0.1037513 9.675908e-05 0.037399616 -0.08275673 -0.14154156 0.013146774 0.022376413 0.11871307
-0.043474384 -0.0008360812 -0.23077159 0.014079124 -3.9196522e-05 -0.02927664 0.029569777 -0.14527597
0.048996907 -0.012133475 -0.000792492 -0.017858386 0.06112277 -0.17255078 0.018610429 -0.0051936414
-0.16660824 -0.0012183 -0.10884705 0.009636009 0.021232435 -0.00062336156 0.030356014 0.053518593
-0.2005951 0.10950343 0.0016519881 0.027736185 -0.0059554577 -0.017370477 -0.019771516 0.06535494
-0.103782184 -0.09656143 -0.014246567 -0.00049129425 -0.13934453 -0.06878094 -0.052757476 0.006720625
-0.07929906 0.022588287 0.045788255 0.00036676138 0.00029768067 0.09755483 0.14628161 0.046005733
-0.00080871524 -0.017232656 -0.013210204 -0.112503044 0.038110636 -0.0005830152 -0.009233824 -0.029918484
-0.011096342 -0.0019445668 -0.12254298 0.10082476 -0.007425637 -0.043144446 -0.21959604 0.023039918
6.5297696e-05 0.013063171 0.04052681 -0.0049312576 0.0062497337 -0.00013703387 -0.33046132 -0.2662478
-0.07814247 -0.0153671885 -0.050891645 0.0022911187 0.03453184 -0.027829535 -0.2164592 -0.3409455
-0.1239672 -0.015319303 -0.0009430921 -0.032764114 0.044909675 7.2569994e-05 0.12568773 0.08383872
-0.0104773175 -0.013044477 0.12216508 -0.18136081 -0.026110036 -0.035917163 0.043538183 0.0007192568
-0.043329738 -0.02065006 0.16839468 -0.09181487 0.12479307 0.007788041 0.068775326 0.11970088
0.01310471 0.0044498285 -0.0049650553 -0.07692962 -0.17055835 0.070098266 -0.009896589 -0.0057222284
-0.012919381 -0.22624233 -0.040002123 -0.0004080272 -0.0842685 0.042449754 0.07389192 -0.11090401
-0.086176045 -0.0001158001 -0.00017476421 -0.032078315 -0.0058965506 -0.0007385747 -0.00072008866 0.098445624
0.08036767 0.23727694 0.034480475 -0.023556245 0.023033261 -0.13041349 0.16650055 -0.0061540715
-0.08418815 -0.00011115841 0.0059734723 0.07361001 0.021775497 -0.04406949 -0.030778281 0.115121976
0.18289693 -0.04933102 0.03256248 0.00025216295 0.10574224 0.21886748 -0.0029335958 -0.020339832

orig_model.5.weight f4 [3, 200]
00000000: 05d6 2cbe c739 b33d b913 7cbd 647b 92be
00000010: f361 02bc a756 bbbc 6c85 0838 3279 18ba
00000020: 10f2 88b9 ba6b b939 4e58 d1bd 916b 573a
00000030: 36b4 3dbe 4fe3 9abc 51a4 12be dbe6 aeb8
00000040: 720b ed39 ae80 98be 08a4 033a 8357 8d3e
00000050: 2766 7a3d 8cb3 d1bd 9d97 473d 5bc6 80bc
00000060: 0c71 703d e5c9 253e 9db1 243e a235 ca3d
00000070: 5767 58be 6ea0 93be a564 97bd ccca efbd
00000080: 525f da3e 3573 b93c 18b2 84be 0103 203f
00000090: 4202 6bba 9674 2cba ae60 6ebe 05f8 f93b
000000a0: 8383 d7bd 0229 293a 8359 bfbb 04ad b6bd
000000b0: c222 29be 278f 8c3c e0bc dabe 4c36 7dbc
000000c0: 995a 8fbd f2cd 533a 97d3 7dbe f4e9 f73d
000000d0: c4b8 beba 0485 36bd 08d9 ecbd 6c1c 26be
000000e0: 83b8 cabd 8a26 95bc 7fba 45b8 9a9f d6be
000000f0: 6df8 15be 1358 37be ddd1 9e3c 13c7 833c
00000100: 69b1 42be 2daa 03be 755a 20be df91 a73d
00000110: 25f0 403e e74c a1b9 f2cb 8a3c 1653 e93e
00000120: 9725 56be 5d26 6ebc dd1c 553d 66b2 893d
00000130: f2b2 843c 11bb dabc 9700 00bd 4ba8 f03d
00000140: b23c f0bd 04bf ebbd 0006 8ebe a1ba d6b9
00000150: b78b 2dbe 5122 9dbd b04a 69bd d618 10be
00000160: 9983 b2bd 258a 003e 1754 27be e8f3 ba39
00000170: e1a3 e639 2f2f 4fbc 6c03 a2bc 6987 a83d
00000180: 89e3 85bb 17b0 233c 0b1e 20bc eecf 05be
00000190: f13e a93e d810 143a 40ee 5dbc fae1 51bd
000001a0: 7ec2 ca39 b034 0ebd c980 0bbe d2be 5c3f
000001b0: 9b5a 91bb 3c25 60bd 700b 77be aca4 3ebb
000001c0: 8481 403a 0eab 113c 672a a3bd 4267 16be
000001d0: e1d7 afbe b510 13b9 537a b0be 248c 9cbe
000001e0: 0c01 cbbd b182 813d 3fe8 8fbd 53b7 9b3d
000001f0: 69e0 953e 39b3 1bbd e149 74be f270 b4be
00000200: a573 1fbe 0f7e ac3d d2f1 e039 6d44 d9bc
00000210: 8feb 30be 0b91 1b39 9c6b 89bc 159b 363f
00000220: daef ebbb 3f99 2abb 48bb 82bc 4d9d 53be
00000230: 72ce febc 0bb9 53bd 992d d2be 2a0e f8b8
00000240: f9df 45bd 34fb 05bd 161b b4bc da3b e1bd
00000250: 7bb0 78bc 341e aa3d bb1d 153f e7a5 9dbe
00000260: 74b5 f43d 1843 89be adce d5bd 4539 b9bd
00000270: a04b 45be 613e 193f d747 6ebc 98b0 063c
00000280: dba1 bbbc 3967 80be b6ad 78bd a890 28b8
00000290: eae9 cdbd 7be4 ba3e 3a28 28be 7996 07be
000002a0: c94a d7bd 59eb 593a de77 2a3a a8e5 0abe
000002b0: 9308 8aba d1cd d8b8 32e1 343a 6d24 3ebe
000002c0: a230 4ebe 6f25 02bd e241 9a3e 5ce1 09bd
000002d0: 6741 1e3c 3046 23be 7780 b1bc 1701 18ba
000002e0: 3c15 bebd bbc5 16b9 4813 823d 83a5 32be
000002f0: 0d7b 383e f6de 6dbd 643e 1ebd 3c53 73bc
00000300: ef4a c2bc a92f 97bd 9257 66be e744 04be
00000310: 13af 76bc dd69 eebc 4c1a 4b3d a844 ad3c
00000320: cf08 1abe 17e0 99be b068 03bd c903 75be
00000330: 5163 553e c99b adbc 3e51 233a 8419 8239
00000340: d53f 163c 2a26 02ba 026a a9bd 33ec cb39
00000350: 6028 a63c bb72 d13e c7bb ab3d ede7 25bb
00000360: 4de6 1839 7d61 4d3e 210a 69b9 f31b 22bc
00000370: 67c6 05bf 8e17 bcbd 6c80 b9be 9534 c93e
00000380: aec3 37be e0a8 c6bb 8497 81be 2576 24be
00000390: 35be f83c 9349 063e eebc 8ebd f88d c2bd
000003a0: c565 75bc f3a7 873c 049e ac3d dbb4 c3bc
000003b0: a169 14ba bab4 5d3a e836 50be b5d4 7339
000003c0: fe9a cabd 18f0 1bba 48f3 f63d b294 93bd
000003d0: 7766 1dbe dace 9dbd 1a05 723d 0694 c03e
000003e0: d686 6abd 79f6 f939 fb7c 57be 789d a1bb
000003f0: 6fa5 7bba 8719 05bd 4bca 1b3d 10ac 28be
-0.16878517 0.087512545 -0.061542246 -0.28609765 -0.007957923 -0.022868467 3.2549186e-05 -0.00058163994
-0.00026120292 0.00035366212 -0.10221921 0.0008217628 -0.18525776 -0.018907217 -0.14320494 -8.339967e-05
0.0004521269 -0.29785675 0.0005021696 0.2760583 0.061132576 -0.10239324 0.048728574 -0.015719583
0.05870156 0.16190298 0.16083379 0.09873511 -0.21133171 -0.28833336 -0.07392243 -0.11708602
0.4265085 0.022637943 -0.25917125 0.62504584 -0.0008964875 -0.0006578652 -0.23279068 0.007628443
-0.10523131 0.0006452949 -0.005839528 -0.08919719 -0.16517165 0.017158104 -0.42722225 -0.01545484
-0.06999702 0.00080796995 -0.24787746 0.1210517 -0.0014550914 -0.044560447 -0.11564833 -0.1622178
-0.09898474 -0.018206853 -4.7142148e-05 -0.4191864 -0.14645548 -0.17904691 0.01938718 0.016086137
-0.19012989 -0.12857886 -0.15659507 0.081821196 0.18841608 -0.0003076561 0.016942952 0.45571202
-0.20912777 -0.014535514 0.05202948 0.0672348 0.016198609 -0.026700528 -0.031250563 0.11750849
-0.11730327 -0.11511043 -0.27738953 -0.0004095631 -0.16947828 -0.07672561 -0.056955993 -0.14071974
-0.087165065 0.12552698 -0.16340671 0.0003565841 0.00043991118 -0.012645527 -0.019777022 0.082289524
-0.004085962 0.009990714 -0.009772788 -0.130676 0.33055833 0.0005648262 -0.013545573 -0.0512409
0.0003867335 -0.034718215 -0.13623346 0.8622867 -0.00443585 -0.05472301 -0.24125457 -0.0029089851
0.0007343518 0.00889088 -0.07967072 -0.14687827 -0.3434439 -0.00014025236 -0.34468326 -0.3057567
-0.09912309 0.063237555 -0.07026719 0.07603326 0.29272774 -0.038012717 -0.23856308 -0.3524242
-0.15571459 0.08422481 0.0004290478 -0.026521886 -0.17277358 0.00014835985 -0.016774945 0.71330386
-0.0072002234 -0.0026031283 -0.015958443 -0.20665474 -0.0311043 -0.051690143 -0.41050413 -0.000118282
-0.0483093 -0.03271027 -0.021985572 -0.10997744 -0.015178795 0.08306542 0.5824849 -0.30790636
0.11948672 -0.26809 -0.10439811 -0.090441264 -0.1926713 0.5986081 -0.014543495 0.008220814
-0.022904327 -0.25078753 -0.06071254 -4.0189043e-05 -0.10054381 0.36502442 -0.16421595 -0.13240995
-0.10512311 0.00083129626 0.0006502847 -0.1356417 -0.001053112 -0.00010338019 0.0006900012 -0.18568583
-0.2013574 -0.03177398 0.3012839 -0.033662185 0.009659148 -0.15944743 -0.021667702 -0.0005798502
-0.09281394 -0.00014378775 0.06351334 -0.1744595 0.1801569 -0.05807396 -0.03863372 -0.014851388
-0.023717372 -0.07382137 -0.22494343 -0.12916909 -0.015056389 -0.029103214 0.049585626 0.021150902
-0.15042423 -0.3005378 -0.03208226 -0.23927225 0.20838667 -0.021192448 0.00062300626 0.00024814543
0.009170492 -0.00049647933 -0.082721725 0.0003889516 0.020282924 0.40907845 0.08385425 -0.002531524
0.00014581643 0.2005672 -0.00022224385 -0.009894359 -0.5225586 -0.0918418 -0.3623079 0.3929793
-0.1794574 -0.006062612 -0.2531091 -0.16060694 0.030364135 0.13114004 -0.06969629 -0.09499735
-0.014977877 0.016559577 0.084285766 -0.02388995 -0.0005661492 0.00084574113 -0.20333445 0.00023253525
-0.09892844 -0.00059485575 0.12058121 -0.07206096 -0.15371118 -0.077054694 0.059086896 0.37612933
-0.057257496 0.00047676617 -0.2104377 -0.004932102 -0.00095995417 -0.032495048 0.03803472 -0.16471887

orig_model.5.bias f4 [3]
00000000: bf09 97bd 1d75 733d 6404 5e3c
-0.07374906 0.05943786 0.0135508515

apply_c.weight f4 [22, 2]
00000000: 0000 803f 0000 0000 0000 0000 0000 803f
00000010: 0000 803f 17b7 d138 25d9 7c3f 5b30 203e
00000020: 7178 733f 7a37 9e3e 0119 643f 7171 e83e
00000030: bd1b 4f3f 1879 163f f304 353f f304 353f
00000040: 1879 163f bd1b 4f3f 7171 e83e 0119 643f
00000050: 7a37 9e3e 7178 733f 5b30 203e 25d9 7c3f
00000060: 17b7 d138 0000 803f 5b30 20be 25d9 7c3f
00000070: 7a37 9ebe 7178 733f 7171 e8be 0119 643f
00000080: 1879 16bf bd1b 4f3f f304 35bf f304 353f
00000090: bd1b 4fbf 1879 163f 0119 64bf 7171 e83e
000000a0: 7178 73bf 7a37 9e3e 25d9 7cbf 5b30 203e
1.0 0.0 0.0 1.0 1.0 1e-04 0.98768836 0.15643446
0.95105654 0.309017 0.8910065 0.4539905 0.809017 0.58778524 0.70710677 0.70710677
0.58778524 0.809017 0.4539905 0.8910065 0.309017 0.95105654 0.15643446 0.98768836
1e-04 1.0 -0.15643446 0.98768836 -0.309017 0.95105654 -0.4539905 0.8910065
-0.58778524 0.809017 -0.70710677 0.70710677 -0.809017 0.58778524 -0.8910065 0.4539905
-0.95105654 0.309017 -0.98768836 0.15643446

apply_c.bias f4 [22]
00000000: 0000 0000 0000 0000 0000 0000 0000 0000
00000010: 0000 0000 0000 0000 0000 0000 0000 0000
00000020: 0000 0000 0000 0000 0000 0000 0000 0000
00000030: 0000 0000 0000 0000 0000 0000 0000 0000
00000040: 0000 0000 0000 0000 0000 0000 0000 0000
00000050: 0000 0000 0000 0000
0.0 0.0 0.0 0.0 0.0 0.0 0.0 0.0
0.0 0.0 0.0 0.0 0.0 0.0 0.0 0.0
0.0 0.0 0.0 0.0 0.0 0.0

remove_c.weight f4 [2, 22]
00000000: 0000 803f 0000 0000 0000 0000 0000 0000
00000010: 0000 0000 0000 0000 0000 0000 0000 0000
00000020: 0000 0000 0000 0000 0000 0000 0000 0000
00000030: 0000 0000 0000 0000 0000 0000 0000 0000
00000040: 0000 0000 0000 0000 0000 0000 0000 0000
00000050: 0000 0000 0000 0000 0000 0000 0000 803f
00000060: 0000 0000 0000 0000 0000 0000 0000 0000
00000070: 0000 0000 0000 0000 0000 0000 0000 0000
00000080: 0000 0000 0000 0000 0000 0000 0000 0000
00000090: 0000 0000 0000 0000 0000 0000 0000 0000
000000a0: 0000 0000 0000 0000 0000 0000 0000 0000
1.0 0.0 0.0 0.0 0.0 0.0 0.0 0.0
0.0 0.0 0.0 0.0 0.0 0.0 0.0 0.0
0.0 0.0 0.0 0.0 0.0 0.0 0.0 1.0
0.0 0.0 0.0 0.0 0.0 0.0 0.0 0.0
0.0 0.0 0.0 0.0 0.0 0.0 0.0 0.0
0.0 0.0 0.0 0.0

remove_c.bias f4 [2]
00000000: 0000 0000 0000 0000
0.0 0.0
